…
I0309 00:27:49.077106 29592 net.cpp:275] The NetState phase (0) differed from the phase (1) specified by a rule in layer loss3/top-1
I0309 00:27:49.077117 29592 net.cpp:275] The NetState phase (0) differed from the phase (1) specified by a rule in layer loss3/top-5
I0309 00:27:49.078019 29592 net.cpp:39] Initializing net from parameters: 
name: "GoogleNet"
layers {
  top: "data"
  top: "label"
  name: "data"
  type: DATA
  data_param {
    source: "data/256_scale_aug2/train_lmdb"
    batch_size: 25
    backend: LMDB
  }
  include {
    phase: TRAIN
  }
  transform_param {
    mirror: true
    crop_size: 224
    mean_file: "data/256_scale_aug2/train_mean.binaryproto"
  }
}
layers {
  bottom: "data"
  top: "conv1/7x7_s2"
  name: "conv1/7x7_s2"
  type: CONVOLUTION
  blobs_lr: 1
  blobs_lr: 2
  weight_decay: 1
  weight_decay: 0
  convolution_param {
    num_output: 64
    pad: 3
    kernel_size: 7
    stride: 2
    weight_filler {
      type: "xavier"
      std: 0.1
    }
    bias_filler {
      type: "constant"
      value: 0.2
    }
  }
}
layers {
  bottom: "conv1/7x7_s2"
  top: "conv1/7x7_s2"
  name: "conv1/relu_7x7"
  type: RELU
}
layers {
  bottom: "conv1/7x7_s2"
  top: "pool1/3x3_s2"
  name: "pool1/3x3_s2"
  type: POOLING
  pooling_param {
    pool: MAX
    kernel_size: 3
    stride: 2
  }
}
layers {
  bottom: "pool1/3x3_s2"
  top: "pool1/norm1"
  name: "pool1/norm1"
  type: LRN
  lrn_param {
    local_size: 5
    alpha: 0.0001
    beta: 0.75
  }
}
layers {
  bottom: "pool1/norm1"
  top: "conv2/3x3_reduce"
  name: "conv2/3x3_reduce"
  type: CONVOLUTION
  blobs_lr: 1
  blobs_lr: 2
  weight_decay: 1
  weight_decay: 0
  convolution_param {
    num_output: 64
    kernel_size: 1
    weight_filler {
      type: "xavier"
      std: 0.1
    }
    bias_filler {
      type: "constant"
      value: 0.2
    }
  }
}
layers {
  bottom: "conv2/3x3_reduce"
  top: "conv2/3x3_reduce"
  name: "conv2/relu_3x3_reduce"
  type: RELU
}
layers {
  bottom: "conv2/3x3_reduce"
  top: "conv2/3x3"
  name: "conv2/3x3"
  type: CONVOLUTION
  blobs_lr: 1
  blobs_lr: 2
  weight_decay: 1
  weight_decay: 0
  convolution_param {
    num_output: 192
    pad: 1
    kernel_size: 3
    weight_filler {
      type: "xavier"
      std: 0.03
    }
    bias_filler {
      type: "constant"
      value: 0.2
    }
  }
}
layers {
  bottom: "conv2/3x3"
  top: "conv2/3x3"
  name: "conv2/relu_3x3"
  type: RELU
}
layers {
  bottom: "conv2/3x3"
  top: "conv2/norm2"
  name: "conv2/norm2"
  type: LRN
  lrn_param {
    local_size: 5
    alpha: 0.0001
    beta: 0.75
  }
}
layers {
  bottom: "conv2/norm2"
  top: "pool2/3x3_s2"
  name: "pool2/3x3_s2"
  type: POOLING
  pooling_param {
    pool: MAX
    kernel_size: 3
    stride: 2
  }
}
layers {
  bottom: "pool2/3x3_s2"
  top: "inception_3a/1x1"
  name: "inception_3a/1x1"
  type: CONVOLUTION
  blobs_lr: 1
  blobs_lr: 2
  weight_decay: 1
  weight_decay: 0
  convolution_param {
    num_output: 64
    kernel_size: 1
    weight_filler {
      type: "xavier"
      std: 0.03
    }
    bias_filler {
      type: "constant"
      value: 0.2
    }
  }
}
layers {
  bottom: "inception_3a/1x1"
  top: "inception_3a/1x1"
  name: "inception_3a/relu_1x1"
  type: RELU
}
layers {
  bottom: "pool2/3x3_s2"
  top: "inception_3a/3x3_reduce"
  name: "inception_3a/3x3_reduce"
  type: CONVOLUTION
  blobs_lr: 1
  blobs_lr: 2
  weight_decay: 1
  weight_decay: 0
  convolution_param {
    num_output: 96
    kernel_size: 1
    weight_filler {
      type: "xavier"
      std: 0.09
    }
    bias_filler {
      type: "constant"
      value: 0.2
    }
  }
}
layers {
  bottom: "inception_3a/3x3_reduce"
  top: "inception_3a/3x3_reduce"
  name: "inception_3a/relu_3x3_reduce"
  type: RELU
}
layers {
  bottom: "inception_3a/3x3_reduce"
  top: "inception_3a/3x3"
  name: "inception_3a/3x3"
  type: CONVOLUTION
  blobs_lr: 1
  blobs_lr: 2
  weight_decay: 1
  weight_decay: 0
  convolution_param {
    num_output: 128
    pad: 1
    kernel_size: 3
    weight_filler {
      type: "xavier"
      std: 0.03
    }
    bias_filler {
      type: "constant"
      value: 0.2
    }
  }
}
layers {
  bottom: "inception_3a/3x3"
  top: "inception_3a/3x3"
  name: "inception_3a/relu_3x3"
  type: RELU
}
layers {
  bottom: "pool2/3x3_s2"
  top: "inception_3a/5x5_reduce"
  name: "inception_3a/5x5_reduce"
  type: CONVOLUTION
  blobs_lr: 1
  blobs_lr: 2
  weight_decay: 1
  weight_decay: 0
  convolution_param {
    num_output: 16
    kernel_size: 1
    weight_filler {
      type: "xavier"
      std: 0.2
    }
    bias_filler {
      type: "constant"
      value: 0.2
    }
  }
}
layers {
  bottom: "inception_3a/5x5_reduce"
  top: "inception_3a/5x5_reduce"
  name: "inception_3a/relu_5x5_reduce"
  type: RELU
}
layers {
  bottom: "inception_3a/5x5_reduce"
  top: "inception_3a/5x5"
  name: "inception_3a/5x5"
  type: CONVOLUTION
  blobs_lr: 1
  blobs_lr: 2
  weight_decay: 1
  weight_decay: 0
  convolution_param {
    num_output: 32
    pad: 2
    kernel_size: 5
    weight_filler {
      type: "xavier"
      std: 0.03
    }
    bias_filler {
      type: "constant"
      value: 0.2
    }
  }
}
layers {
  bottom: "inception_3a/5x5"
  top: "inception_3a/5x5"
  name: "inception_3a/relu_5x5"
  type: RELU
}
layers {
  bottom: "pool2/3x3_s2"
  top: "inception_3a/pool"
  name: "inception_3a/pool"
  type: POOLING
  pooling_param {
    pool: MAX
    kernel_size: 3
    stride: 1
    pad: 1
  }
}
layers {
  bottom: "inception_3a/pool"
  top: "inception_3a/pool_proj"
  name: "inception_3a/pool_proj"
  type: CONVOLUTION
  blobs_lr: 1
  blobs_lr: 2
  weight_decay: 1
  weight_decay: 0
  convolution_param {
    num_output: 32
    kernel_size: 1
    weight_filler {
      type: "xavier"
      std: 0.1
    }
    bias_filler {
      type: "constant"
      value: 0.2
    }
  }
}
layers {
  bottom: "inception_3a/pool_proj"
  top: "inception_3a/pool_proj"
  name: "inception_3a/relu_pool_proj"
  type: RELU
}
layers {
  bottom: "inception_3a/1x1"
  bottom: "inception_3a/3x3"
  bottom: "inception_3a/5x5"
  bottom: "inception_3a/pool_proj"
  top: "inception_3a/output"
  name: "inception_3a/output"
  type: CONCAT
}
layers {
  bottom: "inception_3a/output"
  top: "inception_3b/1x1"
  name: "inception_3b/1x1"
  type: CONVOLUTION
  blobs_lr: 1
  blobs_lr: 2
  weight_decay: 1
  weight_decay: 0
  convolution_param {
    num_output: 128
    kernel_size: 1
    weight_filler {
      type: "xavier"
      std: 0.03
    }
    bias_filler {
      type: "constant"
      value: 0.2
    }
  }
}
layers {
  bottom: "inception_3b/1x1"
  top: "inception_3b/1x1"
  name: "inception_3b/relu_1x1"
  type: RELU
}
layers {
  bottom: "inception_3a/output"
  top: "inception_3b/3x3_reduce"
  name: "inception_3b/3x3_reduce"
  type: CONVOLUTION
  blobs_lr: 1
  blobs_lr: 2
  weight_decay: 1
  weight_decay: 0
  convolution_param {
    num_output: 128
    kernel_size: 1
    weight_filler {
      type: "xavier"
      std: 0.09
    }
    bias_filler {
      type: "constant"
      value: 0.2
    }
  }
}
layers {
  bottom: "inception_3b/3x3_reduce"
  top: "inception_3b/3x3_reduce"
  name: "inception_3b/relu_3x3_reduce"
  type: RELU
}
layers {
  bottom: "inception_3b/3x3_reduce"
  top: "inception_3b/3x3"
  name: "inception_3b/3x3"
  type: CONVOLUTION
  blobs_lr: 1
  blobs_lr: 2
  weight_decay: 1
  weight_decay: 0
  convolution_param {
    num_output: 192
    pad: 1
    kernel_size: 3
    weight_filler {
      type: "xavier"
      std: 0.03
    }
    bias_filler {
      type: "constant"
      value: 0.2
    }
  }
}
layers {
  bottom: "inception_3b/3x3"
  top: "inception_3b/3x3"
  name: "inception_3b/relu_3x3"
  type: RELU
}
layers {
  bottom: "inception_3a/output"
  top: "inception_3b/5x5_reduce"
  name: "inception_3b/5x5_reduce"
  type: CONVOLUTION
  blobs_lr: 1
  blobs_lr: 2
  weight_decay: 1
  weight_decay: 0
  convolution_param {
    num_output: 32
    kernel_size: 1
    weight_filler {
      type: "xavier"
      std: 0.2
    }
    bias_filler {
      type: "constant"
      value: 0.2
    }
  }
}
layers {
  bottom: "inception_3b/5x5_reduce"
  top: "inception_3b/5x5_reduce"
  name: "inception_3b/relu_5x5_reduce"
  type: RELU
}
layers {
  bottom: "inception_3b/5x5_reduce"
  top: "inception_3b/5x5"
  name: "inception_3b/5x5"
  type: CONVOLUTION
  blobs_lr: 1
  blobs_lr: 2
  weight_decay: 1
  weight_decay: 0
  convolution_param {
    num_output: 96
    pad: 2
    kernel_size: 5
    weight_filler {
      type: "xavier"
      std: 0.03
    }
    bias_filler {
      type: "constant"
      value: 0.2
    }
  }
}
layers {
  bottom: "inception_3b/5x5"
  top: "inception_3b/5x5"
  name: "inception_3b/relu_5x5"
  type: RELU
}
layers {
  bottom: "inception_3a/output"
  top: "inception_3b/pool"
  name: "inception_3b/pool"
  type: POOLING
  pooling_param {
    pool: MAX
    kernel_size: 3
    stride: 1
    pad: 1
  }
}
layers {
  bottom: "inception_3b/pool"
  top: "inception_3b/pool_proj"
  name: "inception_3b/pool_proj"
  type: CONVOLUTION
  blobs_lr: 1
  blobs_lr: 2
  weight_decay: 1
  weight_decay: 0
  convolution_param {
    num_output: 64
    kernel_size: 1
    weight_filler {
      type: "xavier"
      std: 0.1
    }
    bias_filler {
      type: "constant"
      value: 0.2
    }
  }
}
layers {
  bottom: "inception_3b/pool_proj"
  top: "inception_3b/pool_proj"
  name: "inception_3b/relu_pool_proj"
  type: RELU
}
layers {
  bottom: "inception_3b/1x1"
  bottom: "inception_3b/3x3"
  bottom: "inception_3b/5x5"
  bottom: "inception_3b/pool_proj"
  top: "inception_3b/output"
  name: "inception_3b/output"
  type: CONCAT
}
layers {
  bottom: "inception_3b/output"
  top: "pool3/3x3_s2"
  name: "pool3/3x3_s2"
  type: POOLING
  pooling_param {
    pool: MAX
    kernel_size: 3
    stride: 2
  }
}
layers {
  bottom: "pool3/3x3_s2"
  top: "inception_4a/1x1"
  name: "inception_4a/1x1"
  type: CONVOLUTION
  blobs_lr: 1
  blobs_lr: 2
  weight_decay: 1
  weight_decay: 0
  convolution_param {
    num_output: 192
    kernel_size: 1
    weight_filler {
      type: "xavier"
      std: 0.03
    }
    bias_filler {
      type: "constant"
      value: 0.2
    }
  }
}
layers {
  bottom: "inception_4a/1x1"
  top: "inception_4a/1x1"
  name: "inception_4a/relu_1x1"
  type: RELU
}
layers {
  bottom: "pool3/3x3_s2"
  top: "inception_4a/3x3_reduce"
  name: "inception_4a/3x3_reduce"
  type: CONVOLUTION
  blobs_lr: 1
  blobs_lr: 2
  weight_decay: 1
  weight_decay: 0
  convolution_param {
    num_output: 96
    kernel_size: 1
    weight_filler {
      type: "xavier"
      std: 0.09
    }
    bias_filler {
      type: "constant"
      value: 0.2
    }
  }
}
layers {
  bottom: "inception_4a/3x3_reduce"
  top: "inception_4a/3x3_reduce"
  name: "inception_4a/relu_3x3_reduce"
  type: RELU
}
layers {
  bottom: "inception_4a/3x3_reduce"
  top: "inception_4a/3x3"
  name: "inception_4a/3x3"
  type: CONVOLUTION
  blobs_lr: 1
  blobs_lr: 2
  weight_decay: 1
  weight_decay: 0
  convolution_param {
    num_output: 208
    pad: 1
    kernel_size: 3
    weight_filler {
      type: "xavier"
      std: 0.03
    }
    bias_filler {
      type: "constant"
      value: 0.2
    }
  }
}
layers {
  bottom: "inception_4a/3x3"
  top: "inception_4a/3x3"
  name: "inception_4a/relu_3x3"
  type: RELU
}
layers {
  bottom: "pool3/3x3_s2"
  top: "inception_4a/5x5_reduce"
  name: "inception_4a/5x5_reduce"
  type: CONVOLUTION
  blobs_lr: 1
  blobs_lr: 2
  weight_decay: 1
  weight_decay: 0
  convolution_param {
    num_output: 16
    kernel_size: 1
    weight_filler {
      type: "xavier"
      std: 0.2
    }
    bias_filler {
      type: "constant"
      value: 0.2
    }
  }
}
layers {
  bottom: "inception_4a/5x5_reduce"
  top: "inception_4a/5x5_reduce"
  name: "inception_4a/relu_5x5_reduce"
  type: RELU
}
layers {
  bottom: "inception_4a/5x5_reduce"
  top: "inception_4a/5x5"
  name: "inception_4a/5x5"
  type: CONVOLUTION
  blobs_lr: 1
  blobs_lr: 2
  weight_decay: 1
  weight_decay: 0
  convolution_param {
    num_output: 48
    pad: 2
    kernel_size: 5
    weight_filler {
      type: "xavier"
      std: 0.03
    }
    bias_filler {
      type: "constant"
      value: 0.2
    }
  }
}
layers {
  bottom: "inception_4a/5x5"
  top: "inception_4a/5x5"
  name: "inception_4a/relu_5x5"
  type: RELU
}
layers {
  bottom: "pool3/3x3_s2"
  top: "inception_4a/pool"
  name: "inception_4a/pool"
  type: POOLING
  pooling_param {
    pool: MAX
    kernel_size: 3
    stride: 1
    pad: 1
  }
}
layers {
  bottom: "inception_4a/pool"
  top: "inception_4a/pool_proj"
  name: "inception_4a/pool_proj"
  type: CONVOLUTION
  blobs_lr: 1
  blobs_lr: 2
  weight_decay: 1
  weight_decay: 0
  convolution_param {
    num_output: 64
    kernel_size: 1
    weight_filler {
      type: "xavier"
      std: 0.1
    }
    bias_filler {
      type: "constant"
      value: 0.2
    }
  }
}
layers {
  bottom: "inception_4a/pool_proj"
  top: "inception_4a/pool_proj"
  name: "inception_4a/relu_pool_proj"
  type: RELU
}
layers {
  bottom: "inception_4a/1x1"
  bottom: "inception_4a/3x3"
  bottom: "inception_4a/5x5"
  bottom: "inception_4a/pool_proj"
  top: "inception_4a/output"
  name: "inception_4a/output"
  type: CONCAT
}
layers {
  bottom: "inception_4a/output"
  top: "loss1/ave_pool"
  name: "loss1/ave_pool"
  type: POOLING
  pooling_param {
    pool: AVE
    kernel_size: 5
    stride: 3
  }
}
layers {
  bottom: "loss1/ave_pool"
  top: "loss1/conv"
  name: "loss1/conv"
  type: CONVOLUTION
  blobs_lr: 1
  blobs_lr: 2
  weight_decay: 1
  weight_decay: 0
  convolution_param {
    num_output: 128
    kernel_size: 1
    weight_filler {
      type: "xavier"
      std: 0.08
    }
    bias_filler {
      type: "constant"
      value: 0.2
    }
  }
}
layers {
  bottom: "loss1/conv"
  top: "loss1/conv"
  name: "loss1/relu_conv"
  type: RELU
}
layers {
  bottom: "loss1/conv"
  top: "loss1/fc"
  name: "loss1/fc"
  type: INNER_PRODUCT
  blobs_lr: 1
  blobs_lr: 2
  weight_decay: 1
  weight_decay: 0
  inner_product_param {
    num_output: 1024
    weight_filler {
      type: "xavier"
      std: 0.02
    }
    bias_filler {
      type: "constant"
      value: 0.2
    }
  }
}
layers {
  bottom: "loss1/fc"
  top: "loss1/fc"
  name: "loss1/relu_fc"
  type: RELU
}
layers {
  bottom: "loss1/fc"
  top: "loss1/fc"
  name: "loss1/drop_fc"
  type: DROPOUT
  dropout_param {
    dropout_ratio: 0.7
  }
}
layers {
  bottom: "loss1/fc"
  top: "loss1/classifier"
  name: "loss1/classifier"
  type: INNER_PRODUCT
  blobs_lr: 1
  blobs_lr: 2
  weight_decay: 1
  weight_decay: 0
  inner_product_param {
    num_output: 121
    weight_filler {
      type: "xavier"
      std: 0.0009765625
    }
    bias_filler {
      type: "constant"
      value: 0
    }
  }
}
layers {
  bottom: "loss1/classifier"
  bottom: "label"
  top: "loss1/loss1"
  name: "loss1/loss"
  type: SOFTMAX_LOSS
  loss_weight: 0.3
}
layers {
  bottom: "inception_4a/output"
  top: "inception_4b/1x1"
  name: "inception_4b/1x1"
  type: CONVOLUTION
  blobs_lr: 1
  blobs_lr: 2
  weight_decay: 1
  weight_decay: 0
  convolution_param {
    num_output: 160
    kernel_size: 1
    weight_filler {
      type: "xavier"
      std: 0.03
    }
    bias_filler {
      type: "constant"
      value: 0.2
    }
  }
}
layers {
  bottom: "inception_4b/1x1"
  top: "inception_4b/1x1"
  name: "inception_4b/relu_1x1"
  type: RELU
}
layers {
  bottom: "inception_4a/output"
  top: "inception_4b/3x3_reduce"
  name: "inception_4b/3x3_reduce"
  type: CONVOLUTION
  blobs_lr: 1
  blobs_lr: 2
  weight_decay: 1
  weight_decay: 0
  convolution_param {
    num_output: 112
    kernel_size: 1
    weight_filler {
      type: "xavier"
      std: 0.09
    }
    bias_filler {
      type: "constant"
      value: 0.2
    }
  }
}
layers {
  bottom: "inception_4b/3x3_reduce"
  top: "inception_4b/3x3_reduce"
  name: "inception_4b/relu_3x3_reduce"
  type: RELU
}
layers {
  bottom: "inception_4b/3x3_reduce"
  top: "inception_4b/3x3"
  name: "inception_4b/3x3"
  type: CONVOLUTION
  blobs_lr: 1
  blobs_lr: 2
  weight_decay: 1
  weight_decay: 0
  convolution_param {
    num_output: 224
    pad: 1
    kernel_size: 3
    weight_filler {
      type: "xavier"
      std: 0.03
    }
    bias_filler {
      type: "constant"
      value: 0.2
    }
  }
}
layers {
  bottom: "inception_4b/3x3"
  top: "inception_4b/3x3"
  name: "inception_4b/relu_3x3"
  type: RELU
}
layers {
  bottom: "inception_4a/output"
  top: "inception_4b/5x5_reduce"
  name: "inception_4b/5x5_reduce"
  type: CONVOLUTION
  blobs_lr: 1
  blobs_lr: 2
  weight_decay: 1
  weight_decay: 0
  convolution_param {
    num_output: 24
    kernel_size: 1
    weight_filler {
      type: "xavier"
      std: 0.2
    }
    bias_filler {
      type: "constant"
      value: 0.2
    }
  }
}
layers {
  bottom: "inception_4b/5x5_reduce"
  top: "inception_4b/5x5_reduce"
  name: "inception_4b/relu_5x5_reduce"
  type: RELU
}
layers {
  bottom: "inception_4b/5x5_reduce"
  top: "inception_4b/5x5"
  name: "inception_4b/5x5"
  type: CONVOLUTION
  blobs_lr: 1
  blobs_lr: 2
  weight_decay: 1
  weight_decay: 0
  convolution_param {
    num_output: 64
    pad: 2
    kernel_size: 5
    weight_filler {
      type: "xavier"
      std: 0.03
    }
    bias_filler {
      type: "constant"
      value: 0.2
    }
  }
}
layers {
  bottom: "inception_4b/5x5"
  top: "inception_4b/5x5"
  name: "inception_4b/relu_5x5"
  type: RELU
}
layers {
  bottom: "inception_4a/output"
  top: "inception_4b/pool"
  name: "inception_4b/pool"
  type: POOLING
  pooling_param {
    pool: MAX
    kernel_size: 3
    stride: 1
    pad: 1
  }
}
layers {
  bottom: "inception_4b/pool"
  top: "inception_4b/pool_proj"
  name: "inception_4b/pool_proj"
  type: CONVOLUTION
  blobs_lr: 1
  blobs_lr: 2
  weight_decay: 1
  weight_decay: 0
  convolution_param {
    num_output: 64
    kernel_size: 1
    weight_filler {
      type: "xavier"
      std: 0.1
    }
    bias_filler {
      type: "constant"
      value: 0.2
    }
  }
}
layers {
  bottom: "inception_4b/pool_proj"
  top: "inception_4b/pool_proj"
  name: "inception_4b/relu_pool_proj"
  type: RELU
}
layers {
  bottom: "inception_4b/1x1"
  bottom: "inception_4b/3x3"
  bottom: "inception_4b/5x5"
  bottom: "inception_4b/pool_proj"
  top: "inception_4b/output"
  name: "inception_4b/output"
  type: CONCAT
}
layers {
  bottom: "inception_4b/output"
  top: "inception_4c/1x1"
  name: "inception_4c/1x1"
  type: CONVOLUTION
  blobs_lr: 1
  blobs_lr: 2
  weight_decay: 1
  weight_decay: 0
  convolution_param {
    num_output: 128
    kernel_size: 1
    weight_filler {
      type: "xavier"
      std: 0.03
    }
    bias_filler {
      type: "constant"
      value: 0.2
    }
  }
}
layers {
  bottom: "inception_4c/1x1"
  top: "inception_4c/1x1"
  name: "inception_4c/relu_1x1"
  type: RELU
}
layers {
  bottom: "inception_4b/output"
  top: "inception_4c/3x3_reduce"
  name: "inception_4c/3x3_reduce"
  type: CONVOLUTION
  blobs_lr: 1
  blobs_lr: 2
  weight_decay: 1
  weight_decay: 0
  convolution_param {
    num_output: 128
    kernel_size: 1
    weight_filler {
      type: "xavier"
      std: 0.09
    }
    bias_filler {
      type: "constant"
      value: 0.2
    }
  }
}
layers {
  bottom: "inception_4c/3x3_reduce"
  top: "inception_4c/3x3_reduce"
  name: "inception_4c/relu_3x3_reduce"
  type: RELU
}
layers {
  bottom: "inception_4c/3x3_reduce"
  top: "inception_4c/3x3"
  name: "inception_4c/3x3"
  type: CONVOLUTION
  blobs_lr: 1
  blobs_lr: 2
  weight_decay: 1
  weight_decay: 0
  convolution_param {
    num_output: 256
    pad: 1
    kernel_size: 3
    weight_filler {
      type: "xavier"
      std: 0.03
    }
    bias_filler {
      type: "constant"
      value: 0.2
    }
  }
}
layers {
  bottom: "inception_4c/3x3"
  top: "inception_4c/3x3"
  name: "inception_4c/relu_3x3"
  type: RELU
}
layers {
  bottom: "inception_4b/output"
  top: "inception_4c/5x5_reduce"
  name: "inception_4c/5x5_reduce"
  type: CONVOLUTION
  blobs_lr: 1
  blobs_lr: 2
  weight_decay: 1
  weight_decay: 0
  convolution_param {
    num_output: 24
    kernel_size: 1
    weight_filler {
      type: "xavier"
      std: 0.2
    }
    bias_filler {
      type: "constant"
      value: 0.2
    }
  }
}
layers {
  bottom: "inception_4c/5x5_reduce"
  top: "inception_4c/5x5_reduce"
  name: "inception_4c/relu_5x5_reduce"
  type: RELU
}
layers {
  bottom: "inception_4c/5x5_reduce"
  top: "inception_4c/5x5"
  name: "inception_4c/5x5"
  type: CONVOLUTION
  blobs_lr: 1
  blobs_lr: 2
  weight_decay: 1
  weight_decay: 0
  convolution_param {
    num_output: 64
    pad: 2
    kernel_size: 5
    weight_filler {
      type: "xavier"
      std: 0.03
    }
    bias_filler {
      type: "constant"
      value: 0.2
    }
  }
}
layers {
  bottom: "inception_4c/5x5"
  top: "inception_4c/5x5"
  name: "inception_4c/relu_5x5"
  type: RELU
}
layers {
  bottom: "inception_4b/output"
  top: "inception_4c/pool"
  name: "inception_4c/pool"
  type: POOLING
  pooling_param {
    pool: MAX
    kernel_size: 3
    stride: 1
    pad: 1
  }
}
layers {
  bottom: "inception_4c/pool"
  top: "inception_4c/pool_proj"
  name: "inception_4c/pool_proj"
  type: CONVOLUTION
  blobs_lr: 1
  blobs_lr: 2
  weight_decay: 1
  weight_decay: 0
  convolution_param {
    num_output: 64
    kernel_size: 1
    weight_filler {
      type: "xavier"
      std: 0.1
    }
    bias_filler {
      type: "constant"
      value: 0.2
    }
  }
}
layers {
  bottom: "inception_4c/pool_proj"
  top: "inception_4c/pool_proj"
  name: "inception_4c/relu_pool_proj"
  type: RELU
}
layers {
  bottom: "inception_4c/1x1"
  bottom: "inception_4c/3x3"
  bottom: "inception_4c/5x5"
  bottom: "inception_4c/pool_proj"
  top: "inception_4c/output"
  name: "inception_4c/output"
  type: CONCAT
}
layers {
  bottom: "inception_4c/output"
  top: "inception_4d/1x1"
  name: "inception_4d/1x1"
  type: CONVOLUTION
  blobs_lr: 1
  blobs_lr: 2
  weight_decay: 1
  weight_decay: 0
  convolution_param {
    num_output: 112
    kernel_size: 1
    weight_filler {
      type: "xavier"
      std: 0.03
    }
    bias_filler {
      type: "constant"
      value: 0.2
    }
  }
}
layers {
  bottom: "inception_4d/1x1"
  top: "inception_4d/1x1"
  name: "inception_4d/relu_1x1"
  type: RELU
}
layers {
  bottom: "inception_4c/output"
  top: "inception_4d/3x3_reduce"
  name: "inception_4d/3x3_reduce"
  type: CONVOLUTION
  blobs_lr: 1
  blobs_lr: 2
  weight_decay: 1
  weight_decay: 0
  convolution_param {
    num_output: 144
    kernel_size: 1
    weight_filler {
      type: "xavier"
      std: 0.09
    }
    bias_filler {
      type: "constant"
      value: 0.2
    }
  }
}
layers {
  bottom: "inception_4d/3x3_reduce"
  top: "inception_4d/3x3_reduce"
  name: "inception_4d/relu_3x3_reduce"
  type: RELU
}
layers {
  bottom: "inception_4d/3x3_reduce"
  top: "inception_4d/3x3"
  name: "inception_4d/3x3"
  type: CONVOLUTION
  blobs_lr: 1
  blobs_lr: 2
  weight_decay: 1
  weight_decay: 0
  convolution_param {
    num_output: 288
    pad: 1
    kernel_size: 3
    weight_filler {
      type: "xavier"
      std: 0.03
    }
    bias_filler {
      type: "constant"
      value: 0.2
    }
  }
}
layers {
  bottom: "inception_4d/3x3"
  top: "inception_4d/3x3"
  name: "inception_4d/relu_3x3"
  type: RELU
}
layers {
  bottom: "inception_4c/output"
  top: "inception_4d/5x5_reduce"
  name: "inception_4d/5x5_reduce"
  type: CONVOLUTION
  blobs_lr: 1
  blobs_lr: 2
  weight_decay: 1
  weight_decay: 0
  convolution_param {
    num_output: 32
    kernel_size: 1
    weight_filler {
      type: "xavier"
      std: 0.2
    }
    bias_filler {
      type: "constant"
      value: 0.2
    }
  }
}
layers {
  bottom: "inception_4d/5x5_reduce"
  top: "inception_4d/5x5_reduce"
  name: "inception_4d/relu_5x5_reduce"
  type: RELU
}
layers {
  bottom: "inception_4d/5x5_reduce"
  top: "inception_4d/5x5"
  name: "inception_4d/5x5"
  type: CONVOLUTION
  blobs_lr: 1
  blobs_lr: 2
  weight_decay: 1
  weight_decay: 0
  convolution_param {
    num_output: 64
    pad: 2
    kernel_size: 5
    weight_filler {
      type: "xavier"
      std: 0.03
    }
    bias_filler {
      type: "constant"
      value: 0.2
    }
  }
}
layers {
  bottom: "inception_4d/5x5"
  top: "inception_4d/5x5"
  name: "inception_4d/relu_5x5"
  type: RELU
}
layers {
  bottom: "inception_4c/output"
  top: "inception_4d/pool"
  name: "inception_4d/pool"
  type: POOLING
  pooling_param {
    pool: MAX
    kernel_size: 3
    stride: 1
    pad: 1
  }
}
layers {
  bottom: "inception_4d/pool"
  top: "inception_4d/pool_proj"
  name: "inception_4d/pool_proj"
  type: CONVOLUTION
  blobs_lr: 1
  blobs_lr: 2
  weight_decay: 1
  weight_decay: 0
  convolution_param {
    num_output: 64
    kernel_size: 1
    weight_filler {
      type: "xavier"
      std: 0.1
    }
    bias_filler {
      type: "constant"
      value: 0.2
    }
  }
}
layers {
  bottom: "inception_4d/pool_proj"
  top: "inception_4d/pool_proj"
  name: "inception_4d/relu_pool_proj"
  type: RELU
}
layers {
  bottom: "inception_4d/1x1"
  bottom: "inception_4d/3x3"
  bottom: "inception_4d/5x5"
  bottom: "inception_4d/pool_proj"
  top: "inception_4d/output"
  name: "inception_4d/output"
  type: CONCAT
}
layers {
  bottom: "inception_4d/output"
  top: "loss2/ave_pool"
  name: "loss2/ave_pool"
  type: POOLING
  pooling_param {
    pool: AVE
    kernel_size: 5
    stride: 3
  }
}
layers {
  bottom: "loss2/ave_pool"
  top: "loss2/conv"
  name: "loss2/conv"
  type: CONVOLUTION
  blobs_lr: 1
  blobs_lr: 2
  weight_decay: 1
  weight_decay: 0
  convolution_param {
    num_output: 128
    kernel_size: 1
    weight_filler {
      type: "xavier"
      std: 0.08
    }
    bias_filler {
      type: "constant"
      value: 0.2
    }
  }
}
layers {
  bottom: "loss2/conv"
  top: "loss2/conv"
  name: "loss2/relu_conv"
  type: RELU
}
layers {
  bottom: "loss2/conv"
  top: "loss2/fc"
  name: "loss2/fc"
  type: INNER_PRODUCT
  blobs_lr: 1
  blobs_lr: 2
  weight_decay: 1
  weight_decay: 0
  inner_product_param {
    num_output: 1024
    weight_filler {
      type: "xavier"
      std: 0.02
    }
    bias_filler {
      type: "constant"
      value: 0.2
    }
  }
}
layers {
  bottom: "loss2/fc"
  top: "loss2/fc"
  name: "loss2/relu_fc"
  type: RELU
}
layers {
  bottom: "loss2/fc"
  top: "loss2/fc"
  name: "loss2/drop_fc"
  type: DROPOUT
  dropout_param {
    dropout_ratio: 0.7
  }
}
layers {
  bottom: "loss2/fc"
  top: "loss2/classifier"
  name: "loss2/classifier"
  type: INNER_PRODUCT
  blobs_lr: 1
  blobs_lr: 2
  weight_decay: 1
  weight_decay: 0
  inner_product_param {
    num_output: 121
    weight_filler {
      type: "xavier"
      std: 0.0009765625
    }
    bias_filler {
      type: "constant"
      value: 0
    }
  }
}
layers {
  bottom: "loss2/classifier"
  bottom: "label"
  top: "loss2/loss1"
  name: "loss2/loss"
  type: SOFTMAX_LOSS
  loss_weight: 0.3
}
layers {
  bottom: "inception_4d/output"
  top: "inception_4e/1x1"
  name: "inception_4e/1x1"
  type: CONVOLUTION
  blobs_lr: 1
  blobs_lr: 2
  weight_decay: 1
  weight_decay: 0
  convolution_param {
    num_output: 256
    kernel_size: 1
    weight_filler {
      type: "xavier"
      std: 0.03
    }
    bias_filler {
      type: "constant"
      value: 0.2
    }
  }
}
layers {
  bottom: "inception_4e/1x1"
  top: "inception_4e/1x1"
  name: "inception_4e/relu_1x1"
  type: RELU
}
layers {
  bottom: "inception_4d/output"
  top: "inception_4e/3x3_reduce"
  name: "inception_4e/3x3_reduce"
  type: CONVOLUTION
  blobs_lr: 1
  blobs_lr: 2
  weight_decay: 1
  weight_decay: 0
  convolution_param {
    num_output: 160
    kernel_size: 1
    weight_filler {
      type: "xavier"
      std: 0.09
    }
    bias_filler {
      type: "constant"
      value: 0.2
    }
  }
}
layers {
  bottom: "inception_4e/3x3_reduce"
  top: "inception_4e/3x3_reduce"
  name: "inception_4e/relu_3x3_reduce"
  type: RELU
}
layers {
  bottom: "inception_4e/3x3_reduce"
  top: "inception_4e/3x3"
  name: "inception_4e/3x3"
  type: CONVOLUTION
  blobs_lr: 1
  blobs_lr: 2
  weight_decay: 1
  weight_decay: 0
  convolution_param {
    num_output: 320
    pad: 1
    kernel_size: 3
    weight_filler {
      type: "xavier"
      std: 0.03
    }
    bias_filler {
      type: "constant"
      value: 0.2
    }
  }
}
layers {
  bottom: "inception_4e/3x3"
  top: "inception_4e/3x3"
  name: "inception_4e/relu_3x3"
  type: RELU
}
layers {
  bottom: "inception_4d/output"
  top: "inception_4e/5x5_reduce"
  name: "inception_4e/5x5_reduce"
  type: CONVOLUTION
  blobs_lr: 1
  blobs_lr: 2
  weight_decay: 1
  weight_decay: 0
  convolution_param {
    num_output: 32
    kernel_size: 1
    weight_filler {
      type: "xavier"
      std: 0.2
    }
    bias_filler {
      type: "constant"
      value: 0.2
    }
  }
}
layers {
  bottom: "inception_4e/5x5_reduce"
  top: "inception_4e/5x5_reduce"
  name: "inception_4e/relu_5x5_reduce"
  type: RELU
}
layers {
  bottom: "inception_4e/5x5_reduce"
  top: "inception_4e/5x5"
  name: "inception_4e/5x5"
  type: CONVOLUTION
  blobs_lr: 1
  blobs_lr: 2
  weight_decay: 1
  weight_decay: 0
  convolution_param {
    num_output: 128
    pad: 2
    kernel_size: 5
    weight_filler {
      type: "xavier"
      std: 0.03
    }
    bias_filler {
      type: "constant"
      value: 0.2
    }
  }
}
layers {
  bottom: "inception_4e/5x5"
  top: "inception_4e/5x5"
  name: "inception_4e/relu_5x5"
  type: RELU
}
layers {
  bottom: "inception_4d/output"
  top: "inception_4e/pool"
  name: "inception_4e/pool"
  type: POOLING
  pooling_param {
    pool: MAX
    kernel_size: 3
    stride: 1
    pad: 1
  }
}
layers {
  bottom: "inception_4e/pool"
  top: "inception_4e/pool_proj"
  name: "inception_4e/pool_proj"
  type: CONVOLUTION
  blobs_lr: 1
  blobs_lr: 2
  weight_decay: 1
  weight_decay: 0
  convolution_param {
    num_output: 128
    kernel_size: 1
    weight_filler {
      type: "xavier"
      std: 0.1
    }
    bias_filler {
      type: "constant"
      value: 0.2
    }
  }
}
layers {
  bottom: "inception_4e/pool_proj"
  top: "inception_4e/pool_proj"
  name: "inception_4e/relu_pool_proj"
  type: RELU
}
layers {
  bottom: "inception_4e/1x1"
  bottom: "inception_4e/3x3"
  bottom: "inception_4e/5x5"
  bottom: "inception_4e/pool_proj"
  top: "inception_4e/output"
  name: "inception_4e/output"
  type: CONCAT
}
layers {
  bottom: "inception_4e/output"
  top: "pool4/3x3_s2"
  name: "pool4/3x3_s2"
  type: POOLING
  pooling_param {
    
I0309 00:27:49.078739 29592 net.cpp:67] Creating Layer data
I0309 00:27:49.078753 29592 net.cpp:356] data -> data
I0309 00:27:49.078773 29592 net.cpp:356] data -> label
I0309 00:27:49.078788 29592 net.cpp:96] Setting up data
I0309 00:27:49.078877 29592 data_layer.cpp:68] Opening lmdb data/256_scale_aug2/train_lmdb
I0309 00:27:49.078960 29592 data_layer.cpp:128] output data size: 25,1,224,224
I0309 00:27:49.078970 29592 base_data_layer.cpp:36] Loading mean file fromdata/256_scale_aug2/train_mean.binaryproto
I0309 00:27:49.081403 29592 net.cpp:103] Top shape: 25 1 224 224 (1254400)
I0309 00:27:49.081413 29592 net.cpp:103] Top shape: 25 1 1 1 (25)
I0309 00:27:49.081424 29592 net.cpp:67] Creating Layer label_data_1_split
I0309 00:27:49.081429 29592 net.cpp:394] label_data_1_split <- label
I0309 00:27:49.081470 29592 net.cpp:356] label_data_1_split -> label_data_1_split_0
I0309 00:27:49.081482 29592 net.cpp:356] label_data_1_split -> label_data_1_split_1
I0309 00:27:49.081490 29592 net.cpp:356] label_data_1_split -> label_data_1_split_2
I0309 00:27:49.081497 29592 net.cpp:96] Setting up label_data_1_split
I0309 00:27:49.081506 29592 net.cpp:103] Top shape: 25 1 1 1 (25)
I0309 00:27:49.081509 29592 net.cpp:103] Top shape: 25 1 1 1 (25)
I0309 00:27:49.081514 29592 net.cpp:103] Top shape: 25 1 1 1 (25)
I0309 00:27:49.081537 29592 net.cpp:67] Creating Layer conv1/7x7_s2
I0309 00:27:49.081542 29592 net.cpp:394] conv1/7x7_s2 <- data
I0309 00:27:49.081548 29592 net.cpp:356] conv1/7x7_s2 -> conv1/7x7_s2
I0309 00:27:49.081557 29592 net.cpp:96] Setting up conv1/7x7_s2
I0309 00:27:49.102489 29592 net.cpp:103] Top shape: 25 64 112 112 (20070400)
I0309 00:27:49.102543 29592 net.cpp:67] Creating Layer conv1/relu_7x7
I0309 00:27:49.102550 29592 net.cpp:394] conv1/relu_7x7 <- conv1/7x7_s2
I0309 00:27:49.102560 29592 net.cpp:345] conv1/relu_7x7 -> conv1/7x7_s2 (in-place)
I0309 00:27:49.102568 29592 net.cpp:96] Setting up conv1/relu_7x7
I0309 00:27:49.102578 29592 net.cpp:103] Top shape: 25 64 112 112 (20070400)
I0309 00:27:49.102589 29592 net.cpp:67] Creating Layer pool1/3x3_s2
I0309 00:27:49.102594 29592 net.cpp:394] pool1/3x3_s2 <- conv1/7x7_s2
I0309 00:27:49.102599 29592 net.cpp:356] pool1/3x3_s2 -> pool1/3x3_s2
I0309 00:27:49.102607 29592 net.cpp:96] Setting up pool1/3x3_s2
I0309 00:27:49.102628 29592 net.cpp:103] Top shape: 25 64 56 56 (5017600)
I0309 00:27:49.102643 29592 net.cpp:67] Creating Layer pool1/norm1
I0309 00:27:49.102648 29592 net.cpp:394] pool1/norm1 <- pool1/3x3_s2
I0309 00:27:49.102653 29592 net.cpp:356] pool1/norm1 -> pool1/norm1
I0309 00:27:49.102659 29592 net.cpp:96] Setting up pool1/norm1
I0309 00:27:49.102666 29592 net.cpp:103] Top shape: 25 64 56 56 (5017600)
I0309 00:27:49.102677 29592 net.cpp:67] Creating Layer conv2/3x3_reduce
I0309 00:27:49.102682 29592 net.cpp:394] conv2/3x3_reduce <- pool1/norm1
I0309 00:27:49.102689 29592 net.cpp:356] conv2/3x3_reduce -> conv2/3x3_reduce
I0309 00:27:49.102699 29592 net.cpp:96] Setting up conv2/3x3_reduce
I0309 00:27:49.102793 29592 net.cpp:103] Top shape: 25 64 56 56 (5017600)
I0309 00:27:49.102818 29592 net.cpp:67] Creating Layer conv2/relu_3x3_reduce
I0309 00:27:49.102823 29592 net.cpp:394] conv2/relu_3x3_reduce <- conv2/3x3_reduce
I0309 00:27:49.102829 29592 net.cpp:345] conv2/relu_3x3_reduce -> conv2/3x3_reduce (in-place)
I0309 00:27:49.102835 29592 net.cpp:96] Setting up conv2/relu_3x3_reduce
I0309 00:27:49.102843 29592 net.cpp:103] Top shape: 25 64 56 56 (5017600)
I0309 00:27:49.102852 29592 net.cpp:67] Creating Layer conv2/3x3
I0309 00:27:49.102857 29592 net.cpp:394] conv2/3x3 <- conv2/3x3_reduce
I0309 00:27:49.102862 29592 net.cpp:356] conv2/3x3 -> conv2/3x3
I0309 00:27:49.102869 29592 net.cpp:96] Setting up conv2/3x3
I0309 00:27:49.103840 29592 net.cpp:103] Top shape: 25 192 56 56 (15052800)
I0309 00:27:49.103865 29592 net.cpp:67] Creating Layer conv2/relu_3x3
I0309 00:27:49.103871 29592 net.cpp:394] conv2/relu_3x3 <- conv2/3x3
I0309 00:27:49.103878 29592 net.cpp:345] conv2/relu_3x3 -> conv2/3x3 (in-place)
I0309 00:27:49.103883 29592 net.cpp:96] Setting up conv2/relu_3x3
I0309 00:27:49.103889 29592 net.cpp:103] Top shape: 25 192 56 56 (15052800)
I0309 00:27:49.103898 29592 net.cpp:67] Creating Layer conv2/norm2
I0309 00:27:49.103901 29592 net.cpp:394] conv2/norm2 <- conv2/3x3
I0309 00:27:49.103907 29592 net.cpp:356] conv2/norm2 -> conv2/norm2
I0309 00:27:49.103914 29592 net.cpp:96] Setting up conv2/norm2
I0309 00:27:49.103919 29592 net.cpp:103] Top shape: 25 192 56 56 (15052800)
I0309 00:27:49.103925 29592 net.cpp:67] Creating Layer pool2/3x3_s2
I0309 00:27:49.103930 29592 net.cpp:394] pool2/3x3_s2 <- conv2/norm2
I0309 00:27:49.103935 29592 net.cpp:356] pool2/3x3_s2 -> pool2/3x3_s2
I0309 00:27:49.103941 29592 net.cpp:96] Setting up pool2/3x3_s2
I0309 00:27:49.103948 29592 net.cpp:103] Top shape: 25 192 28 28 (3763200)
I0309 00:27:49.103955 29592 net.cpp:67] Creating Layer pool2/3x3_s2_pool2/3x3_s2_0_split
I0309 00:27:49.103958 29592 net.cpp:394] pool2/3x3_s2_pool2/3x3_s2_0_split <- pool2/3x3_s2
I0309 00:27:49.103966 29592 net.cpp:356] pool2/3x3_s2_pool2/3x3_s2_0_split -> pool2/3x3_s2_pool2/3x3_s2_0_split_0
I0309 00:27:49.103973 29592 net.cpp:356] pool2/3x3_s2_pool2/3x3_s2_0_split -> pool2/3x3_s2_pool2/3x3_s2_0_split_1
I0309 00:27:49.103981 29592 net.cpp:356] pool2/3x3_s2_pool2/3x3_s2_0_split -> pool2/3x3_s2_pool2/3x3_s2_0_split_2
I0309 00:27:49.104007 29592 net.cpp:356] pool2/3x3_s2_pool2/3x3_s2_0_split -> pool2/3x3_s2_pool2/3x3_s2_0_split_3
I0309 00:27:49.104012 29592 net.cpp:96] Setting up pool2/3x3_s2_pool2/3x3_s2_0_split
I0309 00:27:49.104017 29592 net.cpp:103] Top shape: 25 192 28 28 (3763200)
I0309 00:27:49.104022 29592 net.cpp:103] Top shape: 25 192 28 28 (3763200)
I0309 00:27:49.104025 29592 net.cpp:103] Top shape: 25 192 28 28 (3763200)
I0309 00:27:49.104029 29592 net.cpp:103] Top shape: 25 192 28 28 (3763200)
I0309 00:27:49.104038 29592 net.cpp:67] Creating Layer inception_3a/1x1
I0309 00:27:49.104043 29592 net.cpp:394] inception_3a/1x1 <- pool2/3x3_s2_pool2/3x3_s2_0_split_0
I0309 00:27:49.104048 29592 net.cpp:356] inception_3a/1x1 -> inception_3a/1x1
I0309 00:27:49.104055 29592 net.cpp:96] Setting up inception_3a/1x1
I0309 00:27:49.104214 29592 net.cpp:103] Top shape: 25 64 28 28 (1254400)
I0309 00:27:49.104235 29592 net.cpp:67] Creating Layer inception_3a/relu_1x1
I0309 00:27:49.104241 29592 net.cpp:394] inception_3a/relu_1x1 <- inception_3a/1x1
I0309 00:27:49.104248 29592 net.cpp:345] inception_3a/relu_1x1 -> inception_3a/1x1 (in-place)
I0309 00:27:49.104254 29592 net.cpp:96] Setting up inception_3a/relu_1x1
I0309 00:27:49.104259 29592 net.cpp:103] Top shape: 25 64 28 28 (1254400)
I0309 00:27:49.104266 29592 net.cpp:67] Creating Layer inception_3a/3x3_reduce
I0309 00:27:49.104270 29592 net.cpp:394] inception_3a/3x3_reduce <- pool2/3x3_s2_pool2/3x3_s2_0_split_1
I0309 00:27:49.104279 29592 net.cpp:356] inception_3a/3x3_reduce -> inception_3a/3x3_reduce
I0309 00:27:49.104285 29592 net.cpp:96] Setting up inception_3a/3x3_reduce
I0309 00:27:49.104502 29592 net.cpp:103] Top shape: 25 96 28 28 (1881600)
I0309 00:27:49.104527 29592 net.cpp:67] Creating Layer inception_3a/relu_3x3_reduce
I0309 00:27:49.104532 29592 net.cpp:394] inception_3a/relu_3x3_reduce <- inception_3a/3x3_reduce
I0309 00:27:49.104538 29592 net.cpp:345] inception_3a/relu_3x3_reduce -> inception_3a/3x3_reduce (in-place)
I0309 00:27:49.104544 29592 net.cpp:96] Setting up inception_3a/relu_3x3_reduce
I0309 00:27:49.104552 29592 net.cpp:103] Top shape: 25 96 28 28 (1881600)
I0309 00:27:49.104562 29592 net.cpp:67] Creating Layer inception_3a/3x3
I0309 00:27:49.104565 29592 net.cpp:394] inception_3a/3x3 <- inception_3a/3x3_reduce
I0309 00:27:49.104571 29592 net.cpp:356] inception_3a/3x3 -> inception_3a/3x3
I0309 00:27:49.104578 29592 net.cpp:96] Setting up inception_3a/3x3
I0309 00:27:49.105631 29592 net.cpp:103] Top shape: 25 128 28 28 (2508800)
I0309 00:27:49.105658 29592 net.cpp:67] Creating Layer inception_3a/relu_3x3
I0309 00:27:49.105664 29592 net.cpp:394] inception_3a/relu_3x3 <- inception_3a/3x3
I0309 00:27:49.105669 29592 net.cpp:345] inception_3a/relu_3x3 -> inception_3a/3x3 (in-place)
I0309 00:27:49.105675 29592 net.cpp:96] Setting up inception_3a/relu_3x3
I0309 00:27:49.105682 29592 net.cpp:103] Top shape: 25 128 28 28 (2508800)
I0309 00:27:49.105691 29592 net.cpp:67] Creating Layer inception_3a/5x5_reduce
I0309 00:27:49.105696 29592 net.cpp:394] inception_3a/5x5_reduce <- pool2/3x3_s2_pool2/3x3_s2_0_split_2
I0309 00:27:49.105702 29592 net.cpp:356] inception_3a/5x5_reduce -> inception_3a/5x5_reduce
I0309 00:27:49.105708 29592 net.cpp:96] Setting up inception_3a/5x5_reduce
I0309 00:27:49.105790 29592 net.cpp:103] Top shape: 25 16 28 28 (313600)
I0309 00:27:49.105809 29592 net.cpp:67] Creating Layer inception_3a/relu_5x5_reduce
I0309 00:27:49.105814 29592 net.cpp:394] inception_3a/relu_5x5_reduce <- inception_3a/5x5_reduce
I0309 00:27:49.105820 29592 net.cpp:345] inception_3a/relu_5x5_reduce -> inception_3a/5x5_reduce (in-place)
I0309 00:27:49.105826 29592 net.cpp:96] Setting up inception_3a/relu_5x5_reduce
I0309 00:27:49.105834 29592 net.cpp:103] Top shape: 25 16 28 28 (313600)
I0309 00:27:49.105839 29592 net.cpp:67] Creating Layer inception_3a/5x5
I0309 00:27:49.105844 29592 net.cpp:394] inception_3a/5x5 <- inception_3a/5x5_reduce
I0309 00:27:49.105849 29592 net.cpp:356] inception_3a/5x5 -> inception_3a/5x5
I0309 00:27:49.105859 29592 net.cpp:96] Setting up inception_3a/5x5
I0309 00:27:49.106030 29592 net.cpp:103] Top shape: 25 32 28 28 (627200)
I0309 00:27:49.106051 29592 net.cpp:67] Creating Layer inception_3a/relu_5x5
I0309 00:27:49.106057 29592 net.cpp:394] inception_3a/relu_5x5 <- inception_3a/5x5
I0309 00:27:49.106063 29592 net.cpp:345] inception_3a/relu_5x5 -> inception_3a/5x5 (in-place)
I0309 00:27:49.106071 29592 net.cpp:96] Setting up inception_3a/relu_5x5
I0309 00:27:49.106077 29592 net.cpp:103] Top shape: 25 32 28 28 (627200)
I0309 00:27:49.106083 29592 net.cpp:67] Creating Layer inception_3a/pool
I0309 00:27:49.106088 29592 net.cpp:394] inception_3a/pool <- pool2/3x3_s2_pool2/3x3_s2_0_split_3
I0309 00:27:49.106093 29592 net.cpp:356] inception_3a/pool -> inception_3a/pool
I0309 00:27:49.106099 29592 net.cpp:96] Setting up inception_3a/pool
I0309 00:27:49.106107 29592 net.cpp:103] Top shape: 25 192 28 28 (3763200)
I0309 00:27:49.106115 29592 net.cpp:67] Creating Layer inception_3a/pool_proj
I0309 00:27:49.106120 29592 net.cpp:394] inception_3a/pool_proj <- inception_3a/pool
I0309 00:27:49.106127 29592 net.cpp:356] inception_3a/pool_proj -> inception_3a/pool_proj
I0309 00:27:49.106132 29592 net.cpp:96] Setting up inception_3a/pool_proj
I0309 00:27:49.106235 29592 net.cpp:103] Top shape: 25 32 28 28 (627200)
I0309 00:27:49.106261 29592 net.cpp:67] Creating Layer inception_3a/relu_pool_proj
I0309 00:27:49.106267 29592 net.cpp:394] inception_3a/relu_pool_proj <- inception_3a/pool_proj
I0309 00:27:49.106272 29592 net.cpp:345] inception_3a/relu_pool_proj -> inception_3a/pool_proj (in-place)
I0309 00:27:49.106281 29592 net.cpp:96] Setting up inception_3a/relu_pool_proj
I0309 00:27:49.106287 29592 net.cpp:103] Top shape: 25 32 28 28 (627200)
I0309 00:27:49.106294 29592 net.cpp:67] Creating Layer inception_3a/output
I0309 00:27:49.106298 29592 net.cpp:394] inception_3a/output <- inception_3a/1x1
I0309 00:27:49.106303 29592 net.cpp:394] inception_3a/output <- inception_3a/3x3
I0309 00:27:49.106307 29592 net.cpp:394] inception_3a/output <- inception_3a/5x5
I0309 00:27:49.106312 29592 net.cpp:394] inception_3a/output <- inception_3a/pool_proj
I0309 00:27:49.106317 29592 net.cpp:356] inception_3a/output -> inception_3a/output
I0309 00:27:49.106323 29592 net.cpp:96] Setting up inception_3a/output
I0309 00:27:49.106331 29592 net.cpp:103] Top shape: 25 256 28 28 (5017600)
I0309 00:27:49.106338 29592 net.cpp:67] Creating Layer inception_3a/output_inception_3a/output_0_split
I0309 00:27:49.106341 29592 net.cpp:394] inception_3a/output_inception_3a/output_0_split <- inception_3a/output
I0309 00:27:49.106350 29592 net.cpp:356] inception_3a/output_inception_3a/output_0_split -> inception_3a/output_inception_3a/output_0_split_0
I0309 00:27:49.106358 29592 net.cpp:356] inception_3a/output_inception_3a/output_0_split -> inception_3a/output_inception_3a/output_0_split_1
I0309 00:27:49.106364 29592 net.cpp:356] inception_3a/output_inception_3a/output_0_split -> inception_3a/output_inception_3a/output_0_split_2
I0309 00:27:49.106370 29592 net.cpp:356] inception_3a/output_inception_3a/output_0_split -> inception_3a/output_inception_3a/output_0_split_3
I0309 00:27:49.106375 29592 net.cpp:96] Setting up inception_3a/output_inception_3a/output_0_split
I0309 00:27:49.106380 29592 net.cpp:103] Top shape: 25 256 28 28 (5017600)
I0309 00:27:49.106384 29592 net.cpp:103] Top shape: 25 256 28 28 (5017600)
I0309 00:27:49.106389 29592 net.cpp:103] Top shape: 25 256 28 28 (5017600)
I0309 00:27:49.106391 29592 net.cpp:103] Top shape: 25 256 28 28 (5017600)
I0309 00:27:49.106400 29592 net.cpp:67] Creating Layer inception_3b/1x1
I0309 00:27:49.106405 29592 net.cpp:394] inception_3b/1x1 <- inception_3a/output_inception_3a/output_0_split_0
I0309 00:27:49.106410 29592 net.cpp:356] inception_3b/1x1 -> inception_3b/1x1
I0309 00:27:49.106416 29592 net.cpp:96] Setting up inception_3b/1x1
I0309 00:27:49.106734 29592 net.cpp:103] Top shape: 25 128 28 28 (2508800)
I0309 00:27:49.106753 29592 net.cpp:67] Creating Layer inception_3b/relu_1x1
I0309 00:27:49.106758 29592 net.cpp:394] inception_3b/relu_1x1 <- inception_3b/1x1
I0309 00:27:49.106775 29592 net.cpp:345] inception_3b/relu_1x1 -> inception_3b/1x1 (in-place)
I0309 00:27:49.106781 29592 net.cpp:96] Setting up inception_3b/relu_1x1
I0309 00:27:49.106788 29592 net.cpp:103] Top shape: 25 128 28 28 (2508800)
I0309 00:27:49.106797 29592 net.cpp:67] Creating Layer inception_3b/3x3_reduce
I0309 00:27:49.106802 29592 net.cpp:394] inception_3b/3x3_reduce <- inception_3a/output_inception_3a/output_0_split_1
I0309 00:27:49.106808 29592 net.cpp:356] inception_3b/3x3_reduce -> inception_3b/3x3_reduce
I0309 00:27:49.106814 29592 net.cpp:96] Setting up inception_3b/3x3_reduce
I0309 00:27:49.107215 29592 net.cpp:103] Top shape: 25 128 28 28 (2508800)
I0309 00:27:49.107236 29592 net.cpp:67] Creating Layer inception_3b/relu_3x3_reduce
I0309 00:27:49.107242 29592 net.cpp:394] inception_3b/relu_3x3_reduce <- inception_3b/3x3_reduce
I0309 00:27:49.107249 29592 net.cpp:345] inception_3b/relu_3x3_reduce -> inception_3b/3x3_reduce (in-place)
I0309 00:27:49.107255 29592 net.cpp:96] Setting up inception_3b/relu_3x3_reduce
I0309 00:27:49.107261 29592 net.cpp:103] Top shape: 25 128 28 28 (2508800)
I0309 00:27:49.107275 29592 net.cpp:67] Creating Layer inception_3b/3x3
I0309 00:27:49.107280 29592 net.cpp:394] inception_3b/3x3 <- inception_3b/3x3_reduce
I0309 00:27:49.107288 29592 net.cpp:356] inception_3b/3x3 -> inception_3b/3x3
I0309 00:27:49.107295 29592 net.cpp:96] Setting up inception_3b/3x3
I0309 00:27:49.109175 29592 net.cpp:103] Top shape: 25 192 28 28 (3763200)
I0309 00:27:49.109200 29592 net.cpp:67] Creating Layer inception_3b/relu_3x3
I0309 00:27:49.109205 29592 net.cpp:394] inception_3b/relu_3x3 <- inception_3b/3x3
I0309 00:27:49.109211 29592 net.cpp:345] inception_3b/relu_3x3 -> inception_3b/3x3 (in-place)
I0309 00:27:49.109218 29592 net.cpp:96] Setting up inception_3b/relu_3x3
I0309 00:27:49.109225 29592 net.cpp:103] Top shape: 25 192 28 28 (3763200)
I0309 00:27:49.109235 29592 net.cpp:67] Creating Layer inception_3b/5x5_reduce
I0309 00:27:49.109238 29592 net.cpp:394] inception_3b/5x5_reduce <- inception_3a/output_inception_3a/output_0_split_2
I0309 00:27:49.109244 29592 net.cpp:356] inception_3b/5x5_reduce -> inception_3b/5x5_reduce
I0309 00:27:49.109251 29592 net.cpp:96] Setting up inception_3b/5x5_reduce
I0309 00:27:49.109364 29592 net.cpp:103] Top shape: 25 32 28 28 (627200)
I0309 00:27:49.109387 29592 net.cpp:67] Creating Layer inception_3b/relu_5x5_reduce
I0309 00:27:49.109393 29592 net.cpp:394] inception_3b/relu_5x5_reduce <- inception_3b/5x5_reduce
I0309 00:27:49.109400 29592 net.cpp:345] inception_3b/relu_5x5_reduce -> inception_3b/5x5_reduce (in-place)
I0309 00:27:49.109407 29592 net.cpp:96] Setting up inception_3b/relu_5x5_reduce
I0309 00:27:49.109415 29592 net.cpp:103] Top shape: 25 32 28 28 (627200)
I0309 00:27:49.109423 29592 net.cpp:67] Creating Layer inception_3b/5x5
I0309 00:27:49.109428 29592 net.cpp:394] inception_3b/5x5 <- inception_3b/5x5_reduce
I0309 00:27:49.109434 29592 net.cpp:356] inception_3b/5x5 -> inception_3b/5x5
I0309 00:27:49.109444 29592 net.cpp:96] Setting up inception_3b/5x5
I0309 00:27:49.110122 29592 net.cpp:103] Top shape: 25 96 28 28 (1881600)
I0309 00:27:49.110142 29592 net.cpp:67] Creating Layer inception_3b/relu_5x5
I0309 00:27:49.110147 29592 net.cpp:394] inception_3b/relu_5x5 <- inception_3b/5x5
I0309 00:27:49.110155 29592 net.cpp:345] inception_3b/relu_5x5 -> inception_3b/5x5 (in-place)
I0309 00:27:49.110162 29592 net.cpp:96] Setting up inception_3b/relu_5x5
I0309 00:27:49.110168 29592 net.cpp:103] Top shape: 25 96 28 28 (1881600)
I0309 00:27:49.110174 29592 net.cpp:67] Creating Layer inception_3b/pool
I0309 00:27:49.110178 29592 net.cpp:394] inception_3b/pool <- inception_3a/output_inception_3a/output_0_split_3
I0309 00:27:49.110184 29592 net.cpp:356] inception_3b/pool -> inception_3b/pool
I0309 00:27:49.110190 29592 net.cpp:96] Setting up inception_3b/pool
I0309 00:27:49.110198 29592 net.cpp:103] Top shape: 25 256 28 28 (5017600)
I0309 00:27:49.110206 29592 net.cpp:67] Creating Layer inception_3b/pool_proj
I0309 00:27:49.110210 29592 net.cpp:394] inception_3b/pool_proj <- inception_3b/pool
I0309 00:27:49.110231 29592 net.cpp:356] inception_3b/pool_proj -> inception_3b/pool_proj
I0309 00:27:49.110239 29592 net.cpp:96] Setting up inception_3b/pool_proj
I0309 00:27:49.110424 29592 net.cpp:103] Top shape: 25 64 28 28 (1254400)
I0309 00:27:49.110452 29592 net.cpp:67] Creating Layer inception_3b/relu_pool_proj
I0309 00:27:49.110466 29592 net.cpp:394] inception_3b/relu_pool_proj <- inception_3b/pool_proj
I0309 00:27:49.110473 29592 net.cpp:345] inception_3b/relu_pool_proj -> inception_3b/pool_proj (in-place)
I0309 00:27:49.110481 29592 net.cpp:96] Setting up inception_3b/relu_pool_proj
I0309 00:27:49.110487 29592 net.cpp:103] Top shape: 25 64 28 28 (1254400)
I0309 00:27:49.110493 29592 net.cpp:67] Creating Layer inception_3b/output
I0309 00:27:49.110498 29592 net.cpp:394] inception_3b/output <- inception_3b/1x1
I0309 00:27:49.110502 29592 net.cpp:394] inception_3b/output <- inception_3b/3x3
I0309 00:27:49.110507 29592 net.cpp:394] inception_3b/output <- inception_3b/5x5
I0309 00:27:49.110512 29592 net.cpp:394] inception_3b/output <- inception_3b/pool_proj
I0309 00:27:49.110520 29592 net.cpp:356] inception_3b/output -> inception_3b/output
I0309 00:27:49.110527 29592 net.cpp:96] Setting up inception_3b/output
I0309 00:27:49.110530 29592 net.cpp:103] Top shape: 25 480 28 28 (9408000)
I0309 00:27:49.110537 29592 net.cpp:67] Creating Layer pool3/3x3_s2
I0309 00:27:49.110540 29592 net.cpp:394] pool3/3x3_s2 <- inception_3b/output
I0309 00:27:49.110546 29592 net.cpp:356] pool3/3x3_s2 -> pool3/3x3_s2
I0309 00:27:49.110551 29592 net.cpp:96] Setting up pool3/3x3_s2
I0309 00:27:49.110559 29592 net.cpp:103] Top shape: 25 480 14 14 (2352000)
I0309 00:27:49.110568 29592 net.cpp:67] Creating Layer pool3/3x3_s2_pool3/3x3_s2_0_split
I0309 00:27:49.110571 29592 net.cpp:394] pool3/3x3_s2_pool3/3x3_s2_0_split <- pool3/3x3_s2
I0309 00:27:49.110576 29592 net.cpp:356] pool3/3x3_s2_pool3/3x3_s2_0_split -> pool3/3x3_s2_pool3/3x3_s2_0_split_0
I0309 00:27:49.110582 29592 net.cpp:356] pool3/3x3_s2_pool3/3x3_s2_0_split -> pool3/3x3_s2_pool3/3x3_s2_0_split_1
I0309 00:27:49.110589 29592 net.cpp:356] pool3/3x3_s2_pool3/3x3_s2_0_split -> pool3/3x3_s2_pool3/3x3_s2_0_split_2
I0309 00:27:49.110597 29592 net.cpp:356] pool3/3x3_s2_pool3/3x3_s2_0_split -> pool3/3x3_s2_pool3/3x3_s2_0_split_3
I0309 00:27:49.110602 29592 net.cpp:96] Setting up pool3/3x3_s2_pool3/3x3_s2_0_split
I0309 00:27:49.110609 29592 net.cpp:103] Top shape: 25 480 14 14 (2352000)
I0309 00:27:49.110612 29592 net.cpp:103] Top shape: 25 480 14 14 (2352000)
I0309 00:27:49.110615 29592 net.cpp:103] Top shape: 25 480 14 14 (2352000)
I0309 00:27:49.110620 29592 net.cpp:103] Top shape: 25 480 14 14 (2352000)
I0309 00:27:49.110626 29592 net.cpp:67] Creating Layer inception_4a/1x1
I0309 00:27:49.110635 29592 net.cpp:394] inception_4a/1x1 <- pool3/3x3_s2_pool3/3x3_s2_0_split_0
I0309 00:27:49.110651 29592 net.cpp:356] inception_4a/1x1 -> inception_4a/1x1
I0309 00:27:49.110663 29592 net.cpp:96] Setting up inception_4a/1x1
I0309 00:27:49.111548 29592 net.cpp:103] Top shape: 25 192 14 14 (940800)
I0309 00:27:49.111572 29592 net.cpp:67] Creating Layer inception_4a/relu_1x1
I0309 00:27:49.111577 29592 net.cpp:394] inception_4a/relu_1x1 <- inception_4a/1x1
I0309 00:27:49.111585 29592 net.cpp:345] inception_4a/relu_1x1 -> inception_4a/1x1 (in-place)
I0309 00:27:49.111593 29592 net.cpp:96] Setting up inception_4a/relu_1x1
I0309 00:27:49.111599 29592 net.cpp:103] Top shape: 25 192 14 14 (940800)
I0309 00:27:49.111606 29592 net.cpp:67] Creating Layer inception_4a/3x3_reduce
I0309 00:27:49.111610 29592 net.cpp:394] inception_4a/3x3_reduce <- pool3/3x3_s2_pool3/3x3_s2_0_split_1
I0309 00:27:49.111618 29592 net.cpp:356] inception_4a/3x3_reduce -> inception_4a/3x3_reduce
I0309 00:27:49.111625 29592 net.cpp:96] Setting up inception_4a/3x3_reduce
I0309 00:27:49.112049 29592 net.cpp:103] Top shape: 25 96 14 14 (470400)
I0309 00:27:49.112076 29592 net.cpp:67] Creating Layer inception_4a/relu_3x3_reduce
I0309 00:27:49.112082 29592 net.cpp:394] inception_4a/relu_3x3_reduce <- inception_4a/3x3_reduce
I0309 00:27:49.112110 29592 net.cpp:345] inception_4a/relu_3x3_reduce -> inception_4a/3x3_reduce (in-place)
I0309 00:27:49.112118 29592 net.cpp:96] Setting up inception_4a/relu_3x3_reduce
I0309 00:27:49.112125 29592 net.cpp:103] Top shape: 25 96 14 14 (470400)
I0309 00:27:49.112135 29592 net.cpp:67] Creating Layer inception_4a/3x3
I0309 00:27:49.112139 29592 net.cpp:394] inception_4a/3x3 <- inception_4a/3x3_reduce
I0309 00:27:49.112148 29592 net.cpp:356] inception_4a/3x3 -> inception_4a/3x3
I0309 00:27:49.112154 29592 net.cpp:96] Setting up inception_4a/3x3
I0309 00:27:49.113679 29592 net.cpp:103] Top shape: 25 208 14 14 (1019200)
I0309 00:27:49.113700 29592 net.cpp:67] Creating Layer inception_4a/relu_3x3
I0309 00:27:49.113706 29592 net.cpp:394] inception_4a/relu_3x3 <- inception_4a/3x3
I0309 00:27:49.113714 29592 net.cpp:345] inception_4a/relu_3x3 -> inception_4a/3x3 (in-place)
I0309 00:27:49.113720 29592 net.cpp:96] Setting up inception_4a/relu_3x3
I0309 00:27:49.113728 29592 net.cpp:103] Top shape: 25 208 14 14 (1019200)
I0309 00:27:49.113734 29592 net.cpp:67] Creating Layer inception_4a/5x5_reduce
I0309 00:27:49.113739 29592 net.cpp:394] inception_4a/5x5_reduce <- pool3/3x3_s2_pool3/3x3_s2_0_split_2
I0309 00:27:49.113746 29592 net.cpp:356] inception_4a/5x5_reduce -> inception_4a/5x5_reduce
I0309 00:27:49.113754 29592 net.cpp:96] Setting up inception_4a/5x5_reduce
I0309 00:27:49.113862 29592 net.cpp:103] Top shape: 25 16 14 14 (78400)
I0309 00:27:49.113879 29592 net.cpp:67] Creating Layer inception_4a/relu_5x5_reduce
I0309 00:27:49.113885 29592 net.cpp:394] inception_4a/relu_5x5_reduce <- inception_4a/5x5_reduce
I0309 00:27:49.113890 29592 net.cpp:345] inception_4a/relu_5x5_reduce -> inception_4a/5x5_reduce (in-place)
I0309 00:27:49.113896 29592 net.cpp:96] Setting up inception_4a/relu_5x5_reduce
I0309 00:27:49.113903 29592 net.cpp:103] Top shape: 25 16 14 14 (78400)
I0309 00:27:49.113912 29592 net.cpp:67] Creating Layer inception_4a/5x5
I0309 00:27:49.113916 29592 net.cpp:394] inception_4a/5x5 <- inception_4a/5x5_reduce
I0309 00:27:49.113922 29592 net.cpp:356] inception_4a/5x5 -> inception_4a/5x5
I0309 00:27:49.113929 29592 net.cpp:96] Setting up inception_4a/5x5
I0309 00:27:49.114140 29592 net.cpp:103] Top shape: 25 48 14 14 (235200)
I0309 00:27:49.114161 29592 net.cpp:67] Creating Layer inception_4a/relu_5x5
I0309 00:27:49.114167 29592 net.cpp:394] inception_4a/relu_5x5 <- inception_4a/5x5
I0309 00:27:49.114172 29592 net.cpp:345] inception_4a/relu_5x5 -> inception_4a/5x5 (in-place)
I0309 00:27:49.114179 29592 net.cpp:96] Setting up inception_4a/relu_5x5
I0309 00:27:49.114186 29592 net.cpp:103] Top shape: 25 48 14 14 (235200)
I0309 00:27:49.114192 29592 net.cpp:67] Creating Layer inception_4a/pool
I0309 00:27:49.114195 29592 net.cpp:394] inception_4a/pool <- pool3/3x3_s2_pool3/3x3_s2_0_split_3
I0309 00:27:49.114203 29592 net.cpp:356] inception_4a/pool -> inception_4a/pool
I0309 00:27:49.114209 29592 net.cpp:96] Setting up inception_4a/pool
I0309 00:27:49.114217 29592 net.cpp:103] Top shape: 25 480 14 14 (2352000)
I0309 00:27:49.114223 29592 net.cpp:67] Creating Layer inception_4a/pool_proj
I0309 00:27:49.114229 29592 net.cpp:394] inception_4a/pool_proj <- inception_4a/pool
I0309 00:27:49.114235 29592 net.cpp:356] inception_4a/pool_proj -> inception_4a/pool_proj
I0309 00:27:49.114241 29592 net.cpp:96] Setting up inception_4a/pool_proj
I0309 00:27:49.114624 29592 net.cpp:103] Top shape: 25 64 14 14 (313600)
I0309 00:27:49.114647 29592 net.cpp:67] Creating Layer inception_4a/relu_pool_proj
I0309 00:27:49.114653 29592 net.cpp:394] inception_4a/relu_pool_proj <- inception_4a/pool_proj
I0309 00:27:49.114663 29592 net.cpp:345] inception_4a/relu_pool_proj -> inception_4a/pool_proj (in-place)
I0309 00:27:49.114671 29592 net.cpp:96] Setting up inception_4a/relu_pool_proj
I0309 00:27:49.114678 29592 net.cpp:103] Top shape: 25 64 14 14 (313600)
I0309 00:27:49.114684 29592 net.cpp:67] Creating Layer inception_4a/output
I0309 00:27:49.114688 29592 net.cpp:394] inception_4a/output <- inception_4a/1x1
I0309 00:27:49.114706 29592 net.cpp:394] inception_4a/output <- inception_4a/3x3
I0309 00:27:49.114711 29592 net.cpp:394] inception_4a/output <- inception_4a/5x5
I0309 00:27:49.114717 29592 net.cpp:394] inception_4a/output <- inception_4a/pool_proj
I0309 00:27:49.114722 29592 net.cpp:356] inception_4a/output -> inception_4a/output
I0309 00:27:49.114728 29592 net.cpp:96] Setting up inception_4a/output
I0309 00:27:49.114733 29592 net.cpp:103] Top shape: 25 512 14 14 (2508800)
I0309 00:27:49.114739 29592 net.cpp:67] Creating Layer inception_4a/output_inception_4a/output_0_split
I0309 00:27:49.114743 29592 net.cpp:394] inception_4a/output_inception_4a/output_0_split <- inception_4a/output
I0309 00:27:49.114752 29592 net.cpp:356] inception_4a/output_inception_4a/output_0_split -> inception_4a/output_inception_4a/output_0_split_0
I0309 00:27:49.114758 29592 net.cpp:356] inception_4a/output_inception_4a/output_0_split -> inception_4a/output_inception_4a/output_0_split_1
I0309 00:27:49.114765 29592 net.cpp:356] inception_4a/output_inception_4a/output_0_split -> inception_4a/output_inception_4a/output_0_split_2
I0309 00:27:49.114771 29592 net.cpp:356] inception_4a/output_inception_4a/output_0_split -> inception_4a/output_inception_4a/output_0_split_3
I0309 00:27:49.114778 29592 net.cpp:356] inception_4a/output_inception_4a/output_0_split -> inception_4a/output_inception_4a/output_0_split_4
I0309 00:27:49.114784 29592 net.cpp:96] Setting up inception_4a/output_inception_4a/output_0_split
I0309 00:27:49.114790 29592 net.cpp:103] Top shape: 25 512 14 14 (2508800)
I0309 00:27:49.114794 29592 net.cpp:103] Top shape: 25 512 14 14 (2508800)
I0309 00:27:49.114799 29592 net.cpp:103] Top shape: 25 512 14 14 (2508800)
I0309 00:27:49.114801 29592 net.cpp:103] Top shape: 25 512 14 14 (2508800)
I0309 00:27:49.114805 29592 net.cpp:103] Top shape: 25 512 14 14 (2508800)
I0309 00:27:49.114810 29592 net.cpp:67] Creating Layer loss1/ave_pool
I0309 00:27:49.114814 29592 net.cpp:394] loss1/ave_pool <- inception_4a/output_inception_4a/output_0_split_0
I0309 00:27:49.114820 29592 net.cpp:356] loss1/ave_pool -> loss1/ave_pool
I0309 00:27:49.114825 29592 net.cpp:96] Setting up loss1/ave_pool
I0309 00:27:49.114833 29592 net.cpp:103] Top shape: 25 512 4 4 (204800)
I0309 00:27:49.114842 29592 net.cpp:67] Creating Layer loss1/conv
I0309 00:27:49.114846 29592 net.cpp:394] loss1/conv <- loss1/ave_pool
I0309 00:27:49.114855 29592 net.cpp:356] loss1/conv -> loss1/conv
I0309 00:27:49.114861 29592 net.cpp:96] Setting up loss1/conv
I0309 00:27:49.115447 29592 net.cpp:103] Top shape: 25 128 4 4 (51200)
I0309 00:27:49.115471 29592 net.cpp:67] Creating Layer loss1/relu_conv
I0309 00:27:49.115478 29592 net.cpp:394] loss1/relu_conv <- loss1/conv
I0309 00:27:49.115483 29592 net.cpp:345] loss1/relu_conv -> loss1/conv (in-place)
I0309 00:27:49.115489 29592 net.cpp:96] Setting up loss1/relu_conv
I0309 00:27:49.115495 29592 net.cpp:103] Top shape: 25 128 4 4 (51200)
I0309 00:27:49.115502 29592 net.cpp:67] Creating Layer loss1/fc
I0309 00:27:49.115506 29592 net.cpp:394] loss1/fc <- loss1/conv
I0309 00:27:49.115514 29592 net.cpp:356] loss1/fc -> loss1/fc
I0309 00:27:49.115521 29592 net.cpp:96] Setting up loss1/fc
I0309 00:27:49.131731 29592 net.cpp:103] Top shape: 25 1024 1 1 (25600)
I0309 00:27:49.131757 29592 net.cpp:67] Creating Layer loss1/relu_fc
I0309 00:27:49.131763 29592 net.cpp:394] loss1/relu_fc <- loss1/fc
I0309 00:27:49.131769 29592 net.cpp:345] loss1/relu_fc -> loss1/fc (in-place)
I0309 00:27:49.131775 29592 net.cpp:96] Setting up loss1/relu_fc
I0309 00:27:49.131785 29592 net.cpp:103] Top shape: 25 1024 1 1 (25600)
I0309 00:27:49.131798 29592 net.cpp:67] Creating Layer loss1/drop_fc
I0309 00:27:49.131803 29592 net.cpp:394] loss1/drop_fc <- loss1/fc
I0309 00:27:49.131808 29592 net.cpp:345] loss1/drop_fc -> loss1/fc (in-place)
I0309 00:27:49.131814 29592 net.cpp:96] Setting up loss1/drop_fc
I0309 00:27:49.131820 29592 net.cpp:103] Top shape: 25 1024 1 1 (25600)
I0309 00:27:49.131829 29592 net.cpp:67] Creating Layer loss1/classifier
I0309 00:27:49.131834 29592 net.cpp:394] loss1/classifier <- loss1/fc
I0309 00:27:49.131851 29592 net.cpp:356] loss1/classifier -> loss1/classifier
I0309 00:27:49.131858 29592 net.cpp:96] Setting up loss1/classifier
I0309 00:27:49.132886 29592 net.cpp:103] Top shape: 25 121 1 1 (3025)
I0309 00:27:49.132911 29592 net.cpp:67] Creating Layer loss1/loss
I0309 00:27:49.132916 29592 net.cpp:394] loss1/loss <- loss1/classifier
I0309 00:27:49.132922 29592 net.cpp:394] loss1/loss <- label_data_1_split_0
I0309 00:27:49.132928 29592 net.cpp:356] loss1/loss -> loss1/loss1
I0309 00:27:49.132936 29592 net.cpp:96] Setting up loss1/loss
I0309 00:27:49.132956 29592 net.cpp:103] Top shape: 1 1 1 1 (1)
I0309 00:27:49.132966 29592 net.cpp:109]     with loss weight 0.3
I0309 00:27:49.133008 29592 net.cpp:67] Creating Layer inception_4b/1x1
I0309 00:27:49.133014 29592 net.cpp:394] inception_4b/1x1 <- inception_4a/output_inception_4a/output_0_split_1
I0309 00:27:49.133023 29592 net.cpp:356] inception_4b/1x1 -> inception_4b/1x1
I0309 00:27:49.133029 29592 net.cpp:96] Setting up inception_4b/1x1
I0309 00:27:49.133756 29592 net.cpp:103] Top shape: 25 160 14 14 (784000)
I0309 00:27:49.133780 29592 net.cpp:67] Creating Layer inception_4b/relu_1x1
I0309 00:27:49.133786 29592 net.cpp:394] inception_4b/relu_1x1 <- inception_4b/1x1
I0309 00:27:49.133792 29592 net.cpp:345] inception_4b/relu_1x1 -> inception_4b/1x1 (in-place)
I0309 00:27:49.133798 29592 net.cpp:96] Setting up inception_4b/relu_1x1
I0309 00:27:49.133805 29592 net.cpp:103] Top shape: 25 160 14 14 (784000)
I0309 00:27:49.133812 29592 net.cpp:67] Creating Layer inception_4b/3x3_reduce
I0309 00:27:49.133816 29592 net.cpp:394] inception_4b/3x3_reduce <- inception_4a/output_inception_4a/output_0_split_2
I0309 00:27:49.133824 29592 net.cpp:356] inception_4b/3x3_reduce -> inception_4b/3x3_reduce
I0309 00:27:49.133831 29592 net.cpp:96] Setting up inception_4b/3x3_reduce
I0309 00:27:49.134346 29592 net.cpp:103] Top shape: 25 112 14 14 (548800)
I0309 00:27:49.134368 29592 net.cpp:67] Creating Layer inception_4b/relu_3x3_reduce
I0309 00:27:49.134373 29592 net.cpp:394] inception_4b/relu_3x3_reduce <- inception_4b/3x3_reduce
I0309 00:27:49.134379 29592 net.cpp:345] inception_4b/relu_3x3_reduce -> inception_4b/3x3_reduce (in-place)
I0309 00:27:49.134387 29592 net.cpp:96] Setting up inception_4b/relu_3x3_reduce
I0309 00:27:49.134392 29592 net.cpp:103] Top shape: 25 112 14 14 (548800)
I0309 00:27:49.134399 29592 net.cpp:67] Creating Layer inception_4b/3x3
I0309 00:27:49.134403 29592 net.cpp:394] inception_4b/3x3 <- inception_4b/3x3_reduce
I0309 00:27:49.134410 29592 net.cpp:356] inception_4b/3x3 -> inception_4b/3x3
I0309 00:27:49.134418 29592 net.cpp:96] Setting up inception_4b/3x3
I0309 00:27:49.136320 29592 net.cpp:103] Top shape: 25 224 14 14 (1097600)
I0309 00:27:49.136344 29592 net.cpp:67] Creating Layer inception_4b/relu_3x3
I0309 00:27:49.136350 29592 net.cpp:394] inception_4b/relu_3x3 <- inception_4b/3x3
I0309 00:27:49.136356 29592 net.cpp:345] inception_4b/relu_3x3 -> inception_4b/3x3 (in-place)
I0309 00:27:49.136363 29592 net.cpp:96] Setting up inception_4b/relu_3x3
I0309 00:27:49.136368 29592 net.cpp:103] Top shape: 25 224 14 14 (1097600)
I0309 00:27:49.136379 29592 net.cpp:67] Creating Layer inception_4b/5x5_reduce
I0309 00:27:49.136382 29592 net.cpp:394] inception_4b/5x5_reduce <- inception_4a/output_inception_4a/output_0_split_3
I0309 00:27:49.136389 29592 net.cpp:356] inception_4b/5x5_reduce -> inception_4b/5x5_reduce
I0309 00:27:49.136395 29592 net.cpp:96] Setting up inception_4b/5x5_reduce
I0309 00:27:49.136641 29592 net.cpp:103] Top shape: 25 24 14 14 (117600)
I0309 00:27:49.136664 29592 net.cpp:67] Creating Layer inception_4b/relu_5x5_reduce
I0309 00:27:49.136670 29592 net.cpp:394] inception_4b/relu_5x5_reduce <- inception_4b/5x5_reduce
I0309 00:27:49.136678 29592 net.cpp:345] inception_4b/relu_5x5_reduce -> inception_4b/5x5_reduce (in-place)
I0309 00:27:49.136685 29592 net.cpp:96] Setting up inception_4b/relu_5x5_reduce
I0309 00:27:49.136694 29592 net.cpp:103] Top shape: 25 24 14 14 (117600)
I0309 00:27:49.136703 29592 net.cpp:67] Creating Layer inception_4b/5x5
I0309 00:27:49.136720 29592 net.cpp:394] inception_4b/5x5 <- inception_4b/5x5_reduce
I0309 00:27:49.136729 29592 net.cpp:356] inception_4b/5x5 -> inception_4b/5x5
I0309 00:27:49.136736 29592 net.cpp:96] Setting up inception_4b/5x5
I0309 00:27:49.137101 29592 net.cpp:103] Top shape: 25 64 14 14 (313600)
I0309 00:27:49.137121 29592 net.cpp:67] Creating Layer inception_4b/relu_5x5
I0309 00:27:49.137127 29592 net.cpp:394] inception_4b/relu_5x5 <- inception_4b/5x5
I0309 00:27:49.137135 29592 net.cpp:345] inception_4b/relu_5x5 -> inception_4b/5x5 (in-place)
I0309 00:27:49.137141 29592 net.cpp:96] Setting up inception_4b/relu_5x5
I0309 00:27:49.137148 29592 net.cpp:103] Top shape: 25 64 14 14 (313600)
I0309 00:27:49.137154 29592 net.cpp:67] Creating Layer inception_4b/pool
I0309 00:27:49.137158 29592 net.cpp:394] inception_4b/pool <- inception_4a/output_inception_4a/output_0_split_4
I0309 00:27:49.137164 29592 net.cpp:356] inception_4b/pool -> inception_4b/pool
I0309 00:27:49.137179 29592 net.cpp:96] Setting up inception_4b/pool
I0309 00:27:49.137188 29592 net.cpp:103] Top shape: 25 512 14 14 (2508800)
I0309 00:27:49.137202 29592 net.cpp:67] Creating Layer inception_4b/pool_proj
I0309 00:27:49.137207 29592 net.cpp:394] inception_4b/pool_proj <- inception_4b/pool
I0309 00:27:49.137212 29592 net.cpp:356] inception_4b/pool_proj -> inception_4b/pool_proj
I0309 00:27:49.137218 29592 net.cpp:96] Setting up inception_4b/pool_proj
I0309 00:27:49.137540 29592 net.cpp:103] Top shape: 25 64 14 14 (313600)
I0309 00:27:49.137560 29592 net.cpp:67] Creating Layer inception_4b/relu_pool_proj
I0309 00:27:49.137565 29592 net.cpp:394] inception_4b/relu_pool_proj <- inception_4b/pool_proj
I0309 00:27:49.137574 29592 net.cpp:345] inception_4b/relu_pool_proj -> inception_4b/pool_proj (in-place)
I0309 00:27:49.137580 29592 net.cpp:96] Setting up inception_4b/relu_pool_proj
I0309 00:27:49.137588 29592 net.cpp:103] Top shape: 25 64 14 14 (313600)
I0309 00:27:49.137593 29592 net.cpp:67] Creating Layer inception_4b/output
I0309 00:27:49.137598 29592 net.cpp:394] inception_4b/output <- inception_4b/1x1
I0309 00:27:49.137603 29592 net.cpp:394] inception_4b/output <- inception_4b/3x3
I0309 00:27:49.137608 29592 net.cpp:394] inception_4b/output <- inception_4b/5x5
I0309 00:27:49.137611 29592 net.cpp:394] inception_4b/output <- inception_4b/pool_proj
I0309 00:27:49.137617 29592 net.cpp:356] inception_4b/output -> inception_4b/output
I0309 00:27:49.137624 29592 net.cpp:96] Setting up inception_4b/output
I0309 00:27:49.137629 29592 net.cpp:103] Top shape: 25 512 14 14 (2508800)
I0309 00:27:49.137635 29592 net.cpp:67] Creating Layer inception_4b/output_inception_4b/output_0_split
I0309 00:27:49.137639 29592 net.cpp:394] inception_4b/output_inception_4b/output_0_split <- inception_4b/output
I0309 00:27:49.137645 29592 net.cpp:356] inception_4b/output_inception_4b/output_0_split -> inception_4b/output_inception_4b/output_0_split_0
I0309 00:27:49.137652 29592 net.cpp:356] inception_4b/output_inception_4b/output_0_split -> inception_4b/output_inception_4b/output_0_split_1
I0309 00:27:49.137660 29592 net.cpp:356] inception_4b/output_inception_4b/output_0_split -> inception_4b/output_inception_4b/output_0_split_2
I0309 00:27:49.137665 29592 net.cpp:356] inception_4b/output_inception_4b/output_0_split -> inception_4b/output_inception_4b/output_0_split_3
I0309 00:27:49.137671 29592 net.cpp:96] Setting up inception_4b/output_inception_4b/output_0_split
I0309 00:27:49.137676 29592 net.cpp:103] Top shape: 25 512 14 14 (2508800)
I0309 00:27:49.137681 29592 net.cpp:103] Top shape: 25 512 14 14 (2508800)
I0309 00:27:49.137684 29592 net.cpp:103] Top shape: 25 512 14 14 (2508800)
I0309 00:27:49.137688 29592 net.cpp:103] Top shape: 25 512 14 14 (2508800)
I0309 00:27:49.137696 29592 net.cpp:67] Creating Layer inception_4c/1x1
I0309 00:27:49.137701 29592 net.cpp:394] inception_4c/1x1 <- inception_4b/output_inception_4b/output_0_split_0
I0309 00:27:49.137708 29592 net.cpp:356] inception_4c/1x1 -> inception_4c/1x1
I0309 00:27:49.137714 29592 net.cpp:96] Setting up inception_4c/1x1
I0309 00:27:49.138309 29592 net.cpp:103] Top shape: 25 128 14 14 (627200)
I0309 00:27:49.138329 29592 net.cpp:67] Creating Layer inception_4c/relu_1x1
I0309 00:27:49.138334 29592 net.cpp:394] inception_4c/relu_1x1 <- inception_4c/1x1
I0309 00:27:49.138340 29592 net.cpp:345] inception_4c/relu_1x1 -> inception_4c/1x1 (in-place)
I0309 00:27:49.138346 29592 net.cpp:96] Setting up inception_4c/relu_1x1
I0309 00:27:49.138353 29592 net.cpp:103] Top shape: 25 128 14 14 (627200)
I0309 00:27:49.138362 29592 net.cpp:67] Creating Layer inception_4c/3x3_reduce
I0309 00:27:49.138367 29592 net.cpp:394] inception_4c/3x3_reduce <- inception_4b/output_inception_4b/output_0_split_1
I0309 00:27:49.138376 29592 net.cpp:356] inception_4c/3x3_reduce -> inception_4c/3x3_reduce
I0309 00:27:49.138383 29592 net.cpp:96] Setting up inception_4c/3x3_reduce
I0309 00:27:49.138988 29592 net.cpp:103] Top shape: 25 128 14 14 (627200)
I0309 00:27:49.139009 29592 net.cpp:67] Creating Layer inception_4c/relu_3x3_reduce
I0309 00:27:49.139015 29592 net.cpp:394] inception_4c/relu_3x3_reduce <- inception_4c/3x3_reduce
I0309 00:27:49.139021 29592 net.cpp:345] inception_4c/relu_3x3_reduce -> inception_4c/3x3_reduce (in-place)
I0309 00:27:49.139029 29592 net.cpp:96] Setting up inception_4c/relu_3x3_reduce
I0309 00:27:49.139034 29592 net.cpp:103] Top shape: 25 128 14 14 (627200)
I0309 00:27:49.139044 29592 net.cpp:67] Creating Layer inception_4c/3x3
I0309 00:27:49.139047 29592 net.cpp:394] inception_4c/3x3 <- inception_4c/3x3_reduce
I0309 00:27:49.139055 29592 net.cpp:356] inception_4c/3x3 -> inception_4c/3x3
I0309 00:27:49.139061 29592 net.cpp:96] Setting up inception_4c/3x3
I0309 00:27:49.141620 29592 net.cpp:103] Top shape: 25 256 14 14 (1254400)
I0309 00:27:49.141656 29592 net.cpp:67] Creating Layer inception_4c/relu_3x3
I0309 00:27:49.141665 29592 net.cpp:394] inception_4c/relu_3x3 <- inception_4c/3x3
I0309 00:27:49.141671 29592 net.cpp:345] inception_4c/relu_3x3 -> inception_4c/3x3 (in-place)
I0309 00:27:49.141679 29592 net.cpp:96] Setting up inception_4c/relu_3x3
I0309 00:27:49.141686 29592 net.cpp:103] Top shape: 25 256 14 14 (1254400)
I0309 00:27:49.141693 29592 net.cpp:67] Creating Layer inception_4c/5x5_reduce
I0309 00:27:49.141697 29592 net.cpp:394] inception_4c/5x5_reduce <- inception_4b/output_inception_4b/output_0_split_2
I0309 00:27:49.141705 29592 net.cpp:356] inception_4c/5x5_reduce -> inception_4c/5x5_reduce
I0309 00:27:49.141713 29592 net.cpp:96] Setting up inception_4c/5x5_reduce
I0309 00:27:49.141859 29592 net.cpp:103] Top shape: 25 24 14 14 (117600)
I0309 00:27:49.141880 29592 net.cpp:67] Creating Layer inception_4c/relu_5x5_reduce
I0309 00:27:49.141885 29592 net.cpp:394] inception_4c/relu_5x5_reduce <- inception_4c/5x5_reduce
I0309 00:27:49.141891 29592 net.cpp:345] inception_4c/relu_5x5_reduce -> inception_4c/5x5_reduce (in-place)
I0309 00:27:49.141898 29592 net.cpp:96] Setting up inception_4c/relu_5x5_reduce
I0309 00:27:49.141904 29592 net.cpp:103] Top shape: 25 24 14 14 (117600)
I0309 00:27:49.141911 29592 net.cpp:67] Creating Layer inception_4c/5x5
I0309 00:27:49.141916 29592 net.cpp:394] inception_4c/5x5 <- inception_4c/5x5_reduce
I0309 00:27:49.141923 29592 net.cpp:356] inception_4c/5x5 -> inception_4c/5x5
I0309 00:27:49.141929 29592 net.cpp:96] Setting up inception_4c/5x5
I0309 00:27:49.142302 29592 net.cpp:103] Top shape: 25 64 14 14 (313600)
I0309 00:27:49.142323 29592 net.cpp:67] Creating Layer inception_4c/relu_5x5
I0309 00:27:49.142329 29592 net.cpp:394] inception_4c/relu_5x5 <- inception_4c/5x5
I0309 00:27:49.142335 29592 net.cpp:345] inception_4c/relu_5x5 -> inception_4c/5x5 (in-place)
I0309 00:27:49.142341 29592 net.cpp:96] Setting up inception_4c/relu_5x5
I0309 00:27:49.142348 29592 net.cpp:103] Top shape: 25 64 14 14 (313600)
I0309 00:27:49.142354 29592 net.cpp:67] Creating Layer inception_4c/pool
I0309 00:27:49.142357 29592 net.cpp:394] inception_4c/pool <- inception_4b/output_inception_4b/output_0_split_3
I0309 00:27:49.142365 29592 net.cpp:356] inception_4c/pool -> inception_4c/pool
I0309 00:27:49.142384 29592 net.cpp:96] Setting up inception_4c/pool
I0309 00:27:49.142392 29592 net.cpp:103] Top shape: 25 512 14 14 (2508800)
I0309 00:27:49.142400 29592 net.cpp:67] Creating Layer inception_4c/pool_proj
I0309 00:27:49.142410 29592 net.cpp:394] inception_4c/pool_proj <- inception_4c/pool
I0309 00:27:49.142416 29592 net.cpp:356] inception_4c/pool_proj -> inception_4c/pool_proj
I0309 00:27:49.142423 29592 net.cpp:96] Setting up inception_4c/pool_proj
I0309 00:27:49.142743 29592 net.cpp:103] Top shape: 25 64 14 14 (313600)
I0309 00:27:49.142763 29592 net.cpp:67] Creating Layer inception_4c/relu_pool_proj
I0309 00:27:49.142768 29592 net.cpp:394] inception_4c/relu_pool_proj <- inception_4c/pool_proj
I0309 00:27:49.142776 29592 net.cpp:345] inception_4c/relu_pool_proj -> inception_4c/pool_proj (in-place)
I0309 00:27:49.142783 29592 net.cpp:96] Setting up inception_4c/relu_pool_proj
I0309 00:27:49.142789 29592 net.cpp:103] Top shape: 25 64 14 14 (313600)
I0309 00:27:49.142796 29592 net.cpp:67] Creating Layer inception_4c/output
I0309 00:27:49.142799 29592 net.cpp:394] inception_4c/output <- inception_4c/1x1
I0309 00:27:49.142804 29592 net.cpp:394] inception_4c/output <- inception_4c/3x3
I0309 00:27:49.142809 29592 net.cpp:394] inception_4c/output <- inception_4c/5x5
I0309 00:27:49.142814 29592 net.cpp:394] inception_4c/output <- inception_4c/pool_proj
I0309 00:27:49.142819 29592 net.cpp:356] inception_4c/output -> inception_4c/output
I0309 00:27:49.142825 29592 net.cpp:96] Setting up inception_4c/output
I0309 00:27:49.142830 29592 net.cpp:103] Top shape: 25 512 14 14 (2508800)
I0309 00:27:49.142839 29592 net.cpp:67] Creating Layer inception_4c/output_inception_4c/output_0_split
I0309 00:27:49.142843 29592 net.cpp:394] inception_4c/output_inception_4c/output_0_split <- inception_4c/output
I0309 00:27:49.142849 29592 net.cpp:356] inception_4c/output_inception_4c/output_0_split -> inception_4c/output_inception_4c/output_0_split_0
I0309 00:27:49.142856 29592 net.cpp:356] inception_4c/output_inception_4c/output_0_split -> inception_4c/output_inception_4c/output_0_split_1
I0309 00:27:49.142863 29592 net.cpp:356] inception_4c/output_inception_4c/output_0_split -> inception_4c/output_inception_4c/output_0_split_2
I0309 00:27:49.142869 29592 net.cpp:356] inception_4c/output_inception_4c/output_0_split -> inception_4c/output_inception_4c/output_0_split_3
I0309 00:27:49.142875 29592 net.cpp:96] Setting up inception_4c/output_inception_4c/output_0_split
I0309 00:27:49.142879 29592 net.cpp:103] Top shape: 25 512 14 14 (2508800)
I0309 00:27:49.142884 29592 net.cpp:103] Top shape: 25 512 14 14 (2508800)
I0309 00:27:49.142887 29592 net.cpp:103] Top shape: 25 512 14 14 (2508800)
I0309 00:27:49.142891 29592 net.cpp:103] Top shape: 25 512 14 14 (2508800)
I0309 00:27:49.142899 29592 net.cpp:67] Creating Layer inception_4d/1x1
I0309 00:27:49.142904 29592 net.cpp:394] inception_4d/1x1 <- inception_4c/output_inception_4c/output_0_split_0
I0309 00:27:49.142911 29592 net.cpp:356] inception_4d/1x1 -> inception_4d/1x1
I0309 00:27:49.142917 29592 net.cpp:96] Setting up inception_4d/1x1
I0309 00:27:49.143435 29592 net.cpp:103] Top shape: 25 112 14 14 (548800)
I0309 00:27:49.143455 29592 net.cpp:67] Creating Layer inception_4d/relu_1x1
I0309 00:27:49.143460 29592 net.cpp:394] inception_4d/relu_1x1 <- inception_4d/1x1
I0309 00:27:49.143466 29592 net.cpp:345] inception_4d/relu_1x1 -> inception_4d/1x1 (in-place)
I0309 00:27:49.143472 29592 net.cpp:96] Setting up inception_4d/relu_1x1
I0309 00:27:49.143479 29592 net.cpp:103] Top shape: 25 112 14 14 (548800)
I0309 00:27:49.143488 29592 net.cpp:67] Creating Layer inception_4d/3x3_reduce
I0309 00:27:49.143492 29592 net.cpp:394] inception_4d/3x3_reduce <- inception_4c/output_inception_4c/output_0_split_1
I0309 00:27:49.143501 29592 net.cpp:356] inception_4d/3x3_reduce -> inception_4d/3x3_reduce
I0309 00:27:49.143507 29592 net.cpp:96] Setting up inception_4d/3x3_reduce
I0309 00:27:49.144243 29592 net.cpp:103] Top shape: 25 144 14 14 (705600)
I0309 00:27:49.144264 29592 net.cpp:67] Creating Layer inception_4d/relu_3x3_reduce
I0309 00:27:49.144284 29592 net.cpp:394] inception_4d/relu_3x3_reduce <- inception_4d/3x3_reduce
I0309 00:27:49.144295 29592 net.cpp:345] inception_4d/relu_3x3_reduce -> inception_4d/3x3_reduce (in-place)
I0309 00:27:49.144302 29592 net.cpp:96] Setting up inception_4d/relu_3x3_reduce
I0309 00:27:49.144309 29592 net.cpp:103] Top shape: 25 144 14 14 (705600)
I0309 00:27:49.144317 29592 net.cpp:67] Creating Layer inception_4d/3x3
I0309 00:27:49.144321 29592 net.cpp:394] inception_4d/3x3 <- inception_4d/3x3_reduce
I0309 00:27:49.144330 29592 net.cpp:356] inception_4d/3x3 -> inception_4d/3x3
I0309 00:27:49.144335 29592 net.cpp:96] Setting up inception_4d/3x3
I0309 00:27:49.147451 29592 net.cpp:103] Top shape: 25 288 14 14 (1411200)
I0309 00:27:49.147476 29592 net.cpp:67] Creating Layer inception_4d/relu_3x3
I0309 00:27:49.147482 29592 net.cpp:394] inception_4d/relu_3x3 <- inception_4d/3x3
I0309 00:27:49.147488 29592 net.cpp:345] inception_4d/relu_3x3 -> inception_4d/3x3 (in-place)
I0309 00:27:49.147495 29592 net.cpp:96] Setting up inception_4d/relu_3x3
I0309 00:27:49.147501 29592 net.cpp:103] Top shape: 25 288 14 14 (1411200)
I0309 00:27:49.147511 29592 net.cpp:67] Creating Layer inception_4d/5x5_reduce
I0309 00:27:49.147514 29592 net.cpp:394] inception_4d/5x5_reduce <- inception_4c/output_inception_4c/output_0_split_2
I0309 00:27:49.147521 29592 net.cpp:356] inception_4d/5x5_reduce -> inception_4d/5x5_reduce
I0309 00:27:49.147527 29592 net.cpp:96] Setting up inception_4d/5x5_reduce
I0309 00:27:49.147703 29592 net.cpp:103] Top shape: 25 32 14 14 (156800)
I0309 00:27:49.147722 29592 net.cpp:67] Creating Layer inception_4d/relu_5x5_reduce
I0309 00:27:49.147728 29592 net.cpp:394] inception_4d/relu_5x5_reduce <- inception_4d/5x5_reduce
I0309 00:27:49.147738 29592 net.cpp:345] inception_4d/relu_5x5_reduce -> inception_4d/5x5_reduce (in-place)
I0309 00:27:49.147745 29592 net.cpp:96] Setting up inception_4d/relu_5x5_reduce
I0309 00:27:49.147753 29592 net.cpp:103] Top shape: 25 32 14 14 (156800)
I0309 00:27:49.147758 29592 net.cpp:67] Creating Layer inception_4d/5x5
I0309 00:27:49.147763 29592 net.cpp:394] inception_4d/5x5 <- inception_4d/5x5_reduce
I0309 00:27:49.147770 29592 net.cpp:356] inception_4d/5x5 -> inception_4d/5x5
I0309 00:27:49.147778 29592 net.cpp:96] Setting up inception_4d/5x5
I0309 00:27:49.148247 29592 net.cpp:103] Top shape: 25 64 14 14 (313600)
I0309 00:27:49.148270 29592 net.cpp:67] Creating Layer inception_4d/relu_5x5
I0309 00:27:49.148277 29592 net.cpp:394] inception_4d/relu_5x5 <- inception_4d/5x5
I0309 00:27:49.148283 29592 net.cpp:345] inception_4d/relu_5x5 -> inception_4d/5x5 (in-place)
I0309 00:27:49.148288 29592 net.cpp:96] Setting up inception_4d/relu_5x5
I0309 00:27:49.148295 29592 net.cpp:103] Top shape: 25 64 14 14 (313600)
I0309 00:27:49.148301 29592 net.cpp:67] Creating Layer inception_4d/pool
I0309 00:27:49.148305 29592 net.cpp:394] inception_4d/pool <- inception_4c/output_inception_4c/output_0_split_3
I0309 00:27:49.148313 29592 net.cpp:356] inception_4d/pool -> inception_4d/pool
I0309 00:27:49.148319 29592 net.cpp:96] Setting up inception_4d/pool
I0309 00:27:49.148326 29592 net.cpp:103] Top shape: 25 512 14 14 (2508800)
I0309 00:27:49.148334 29592 net.cpp:67] Creating Layer inception_4d/pool_proj
I0309 00:27:49.148339 29592 net.cpp:394] inception_4d/pool_proj <- inception_4d/pool
I0309 00:27:49.148345 29592 net.cpp:356] inception_4d/pool_proj -> inception_4d/pool_proj
I0309 00:27:49.148352 29592 net.cpp:96] Setting up inception_4d/pool_proj
I0309 00:27:49.148690 29592 net.cpp:103] Top shape: 25 64 14 14 (313600)
I0309 00:27:49.148711 29592 net.cpp:67] Creating Layer inception_4d/relu_pool_proj
I0309 00:27:49.148717 29592 net.cpp:394] inception_4d/relu_pool_proj <- inception_4d/pool_proj
I0309 00:27:49.148726 29592 net.cpp:345] inception_4d/relu_pool_proj -> inception_4d/pool_proj (in-place)
I0309 00:27:49.148733 29592 net.cpp:96] Setting up inception_4d/relu_pool_proj
I0309 00:27:49.148740 29592 net.cpp:103] Top shape: 25 64 14 14 (313600)
I0309 00:27:49.148746 29592 net.cpp:67] Creating Layer inception_4d/output
I0309 00:27:49.148762 29592 net.cpp:394] inception_4d/output <- inception_4d/1x1
I0309 00:27:49.148768 29592 net.cpp:394] inception_4d/output <- inception_4d/3x3
I0309 00:27:49.148773 29592 net.cpp:394] inception_4d/output <- inception_4d/5x5
I0309 00:27:49.148778 29592 net.cpp:394] inception_4d/output <- inception_4d/pool_proj
I0309 00:27:49.148783 29592 net.cpp:356] inception_4d/output -> inception_4d/output
I0309 00:27:49.148790 29592 net.cpp:96] Setting up inception_4d/output
I0309 00:27:49.148794 29592 net.cpp:103] Top shape: 25 528 14 14 (2587200)
I0309 00:27:49.148802 29592 net.cpp:67] Creating Layer inception_4d/output_inception_4d/output_0_split
I0309 00:27:49.148808 29592 net.cpp:394] inception_4d/output_inception_4d/output_0_split <- inception_4d/output
I0309 00:27:49.148813 29592 net.cpp:356] inception_4d/output_inception_4d/output_0_split -> inception_4d/output_inception_4d/output_0_split_0
I0309 00:27:49.148819 29592 net.cpp:356] inception_4d/output_inception_4d/output_0_split -> inception_4d/output_inception_4d/output_0_split_1
I0309 00:27:49.148826 29592 net.cpp:356] inception_4d/output_inception_4d/output_0_split -> inception_4d/output_inception_4d/output_0_split_2
I0309 00:27:49.148833 29592 net.cpp:356] inception_4d/output_inception_4d/output_0_split -> inception_4d/output_inception_4d/output_0_split_3
I0309 00:27:49.148840 29592 net.cpp:356] inception_4d/output_inception_4d/output_0_split -> inception_4d/output_inception_4d/output_0_split_4
I0309 00:27:49.148845 29592 net.cpp:96] Setting up inception_4d/output_inception_4d/output_0_split
I0309 00:27:49.148850 29592 net.cpp:103] Top shape: 25 528 14 14 (2587200)
I0309 00:27:49.148854 29592 net.cpp:103] Top shape: 25 528 14 14 (2587200)
I0309 00:27:49.148859 29592 net.cpp:103] Top shape: 25 528 14 14 (2587200)
I0309 00:27:49.148862 29592 net.cpp:103] Top shape: 25 528 14 14 (2587200)
I0309 00:27:49.148865 29592 net.cpp:103] Top shape: 25 528 14 14 (2587200)
I0309 00:27:49.148874 29592 net.cpp:67] Creating Layer loss2/ave_pool
I0309 00:27:49.148877 29592 net.cpp:394] loss2/ave_pool <- inception_4d/output_inception_4d/output_0_split_0
I0309 00:27:49.148885 29592 net.cpp:356] loss2/ave_pool -> loss2/ave_pool
I0309 00:27:49.148891 29592 net.cpp:96] Setting up loss2/ave_pool
I0309 00:27:49.148902 29592 net.cpp:103] Top shape: 25 528 4 4 (211200)
I0309 00:27:49.148924 29592 net.cpp:67] Creating Layer loss2/conv
I0309 00:27:49.148933 29592 net.cpp:394] loss2/conv <- loss2/ave_pool
I0309 00:27:49.148943 29592 net.cpp:356] loss2/conv -> loss2/conv
I0309 00:27:49.148951 29592 net.cpp:96] Setting up loss2/conv
I0309 00:27:49.149641 29592 net.cpp:103] Top shape: 25 128 4 4 (51200)
I0309 00:27:49.149663 29592 net.cpp:67] Creating Layer loss2/relu_conv
I0309 00:27:49.149669 29592 net.cpp:394] loss2/relu_conv <- loss2/conv
I0309 00:27:49.149677 29592 net.cpp:345] loss2/relu_conv -> loss2/conv (in-place)
I0309 00:27:49.149682 29592 net.cpp:96] Setting up loss2/relu_conv
I0309 00:27:49.149689 29592 net.cpp:103] Top shape: 25 128 4 4 (51200)
I0309 00:27:49.149695 29592 net.cpp:67] Creating Layer loss2/fc
I0309 00:27:49.149700 29592 net.cpp:394] loss2/fc <- loss2/conv
I0309 00:27:49.149706 29592 net.cpp:356] loss2/fc -> loss2/fc
I0309 00:27:49.149713 29592 net.cpp:96] Setting up loss2/fc
I0309 00:27:49.165858 29592 net.cpp:103] Top shape: 25 1024 1 1 (25600)
I0309 00:27:49.165886 29592 net.cpp:67] Creating Layer loss2/relu_fc
I0309 00:27:49.165894 29592 net.cpp:394] loss2/relu_fc <- loss2/fc
I0309 00:27:49.165900 29592 net.cpp:345] loss2/relu_fc -> loss2/fc (in-place)
I0309 00:27:49.165907 29592 net.cpp:96] Setting up loss2/relu_fc
I0309 00:27:49.165916 29592 net.cpp:103] Top shape: 25 1024 1 1 (25600)
I0309 00:27:49.165925 29592 net.cpp:67] Creating Layer loss2/drop_fc
I0309 00:27:49.165928 29592 net.cpp:394] loss2/drop_fc <- loss2/fc
I0309 00:27:49.165935 29592 net.cpp:345] loss2/drop_fc -> loss2/fc (in-place)
I0309 00:27:49.165940 29592 net.cpp:96] Setting up loss2/drop_fc
I0309 00:27:49.165945 29592 net.cpp:103] Top shape: 25 1024 1 1 (25600)
I0309 00:27:49.165968 29592 net.cpp:67] Creating Layer loss2/classifier
I0309 00:27:49.165972 29592 net.cpp:394] loss2/classifier <- loss2/fc
I0309 00:27:49.165981 29592 net.cpp:356] loss2/classifier -> loss2/classifier
I0309 00:27:49.165988 29592 net.cpp:96] Setting up loss2/classifier
I0309 00:27:49.167017 29592 net.cpp:103] Top shape: 25 121 1 1 (3025)
I0309 00:27:49.167042 29592 net.cpp:67] Creating Layer loss2/loss
I0309 00:27:49.167048 29592 net.cpp:394] loss2/loss <- loss2/classifier
I0309 00:27:49.167054 29592 net.cpp:394] loss2/loss <- label_data_1_split_1
I0309 00:27:49.167060 29592 net.cpp:356] loss2/loss -> loss2/loss1
I0309 00:27:49.167067 29592 net.cpp:96] Setting up loss2/loss
I0309 00:27:49.167083 29592 net.cpp:103] Top shape: 1 1 1 1 (1)
I0309 00:27:49.167086 29592 net.cpp:109]     with loss weight 0.3
I0309 00:27:49.167106 29592 net.cpp:67] Creating Layer inception_4e/1x1
I0309 00:27:49.167111 29592 net.cpp:394] inception_4e/1x1 <- inception_4d/output_inception_4d/output_0_split_1
I0309 00:27:49.167117 29592 net.cpp:356] inception_4e/1x1 -> inception_4e/1x1
I0309 00:27:49.167124 29592 net.cpp:96] Setting up inception_4e/1x1
I0309 00:27:49.168287 29592 net.cpp:103] Top shape: 25 256 14 14 (1254400)
I0309 00:27:49.168311 29592 net.cpp:67] Creating Layer inception_4e/relu_1x1
I0309 00:27:49.168316 29592 net.cpp:394] inception_4e/relu_1x1 <- inception_4e/1x1
I0309 00:27:49.168323 29592 net.cpp:345] inception_4e/relu_1x1 -> inception_4e/1x1 (in-place)
I0309 00:27:49.168329 29592 net.cpp:96] Setting up inception_4e/relu_1x1
I0309 00:27:49.168336 29592 net.cpp:103] Top shape: 25 256 14 14 (1254400)
I0309 00:27:49.168346 29592 net.cpp:67] Creating Layer inception_4e/3x3_reduce
I0309 00:27:49.168350 29592 net.cpp:394] inception_4e/3x3_reduce <- inception_4d/output_inception_4d/output_0_split_2
I0309 00:27:49.168356 29592 net.cpp:356] inception_4e/3x3_reduce -> inception_4e/3x3_reduce
I0309 00:27:49.168362 29592 net.cpp:96] Setting up inception_4e/3x3_reduce
I0309 00:27:49.169121 29592 net.cpp:103] Top shape: 25 160 14 14 (784000)
I0309 00:27:49.169150 29592 net.cpp:67] Creating Layer inception_4e/relu_3x3_reduce
I0309 00:27:49.169162 29592 net.cpp:394] inception_4e/relu_3x3_reduce <- inception_4e/3x3_reduce
I0309 00:27:49.169170 29592 net.cpp:345] inception_4e/relu_3x3_reduce -> inception_4e/3x3_reduce (in-place)
I0309 00:27:49.169178 29592 net.cpp:96] Setting up inception_4e/relu_3x3_reduce
I0309 00:27:49.169185 29592 net.cpp:103] Top shape: 25 160 14 14 (784000)
I0309 00:27:49.169195 29592 net.cpp:67] Creating Layer inception_4e/3x3
I0309 00:27:49.169203 29592 net.cpp:394] inception_4e/3x3 <- inception_4e/3x3_reduce
I0309 00:27:49.169209 29592 net.cpp:356] inception_4e/3x3 -> inception_4e/3x3
I0309 00:27:49.169216 29592 net.cpp:96] Setting up inception_4e/3x3
I0309 00:27:49.173043 29592 net.cpp:103] Top shape: 25 320 14 14 (1568000)
I0309 00:27:49.173066 29592 net.cpp:67] Creating Layer inception_4e/relu_3x3
I0309 00:27:49.173074 29592 net.cpp:394] inception_4e/relu_3x3 <- inception_4e/3x3
I0309 00:27:49.173079 29592 net.cpp:345] inception_4e/relu_3x3 -> inception_4e/3x3 (in-place)
I0309 00:27:49.173089 29592 net.cpp:96] Setting up inception_4e/relu_3x3
I0309 00:27:49.173094 29592 net.cpp:103] Top shape: 25 320 14 14 (1568000)
I0309 00:27:49.173101 29592 net.cpp:67] Creating Layer inception_4e/5x5_reduce
I0309 00:27:49.173106 29592 net.cpp:394] inception_4e/5x5_reduce <- inception_4d/output_inception_4d/output_0_split_3
I0309 00:27:49.173115 29592 net.cpp:356] inception_4e/5x5_reduce -> inception_4e/5x5_reduce
I0309 00:27:49.173121 29592 net.cpp:96] Setting up inception_4e/5x5_reduce
I0309 00:27:49.173307 29592 net.cpp:103] Top shape: 25 32 14 14 (156800)
I0309 00:27:49.173326 29592 net.cpp:67] Creating Layer inception_4e/relu_5x5_reduce
I0309 00:27:49.173332 29592 net.cpp:394] inception_4e/relu_5x5_reduce <- inception_4e/5x5_reduce
I0309 00:27:49.173341 29592 net.cpp:345] inception_4e/relu_5x5_reduce -> inception_4e/5x5_reduce (in-place)
I0309 00:27:49.173346 29592 net.cpp:96] Setting up inception_4e/relu_5x5_reduce
I0309 00:27:49.173367 29592 net.cpp:103] Top shape: 25 32 14 14 (156800)
I0309 00:27:49.173390 29592 net.cpp:67] Creating Layer inception_4e/5x5
I0309 00:27:49.173403 29592 net.cpp:394] inception_4e/5x5 <- inception_4e/5x5_reduce
I0309 00:27:49.173410 29592 net.cpp:356] inception_4e/5x5 -> inception_4e/5x5
I0309 00:27:49.173418 29592 net.cpp:96] Setting up inception_4e/5x5
I0309 00:27:49.174408 29592 net.cpp:103] Top shape: 25 128 14 14 (627200)
I0309 00:27:49.174434 29592 net.cpp:67] Creating Layer inception_4e/relu_5x5
I0309 00:27:49.174440 29592 net.cpp:394] inception_4e/relu_5x5 <- inception_4e/5x5
I0309 00:27:49.174446 29592 net.cpp:345] inception_4e/relu_5x5 -> inception_4e/5x5 (in-place)
I0309 00:27:49.174453 29592 net.cpp:96] Setting up inception_4e/relu_5x5
I0309 00:27:49.174460 29592 net.cpp:103] Top shape: 25 128 14 14 (627200)
I0309 00:27:49.174466 29592 net.cpp:67] Creating Layer inception_4e/pool
I0309 00:27:49.174471 29592 net.cpp:394] inception_4e/pool <- inception_4d/output_inception_4d/output_0_split_4
I0309 00:27:49.174479 29592 net.cpp:356] inception_4e/pool -> inception_4e/pool
I0309 00:27:49.174485 29592 net.cpp:96] Setting up inception_4e/pool
I0309 00:27:49.174495 29592 net.cpp:103] Top shape: 25 528 14 14 (2587200)
I0309 00:27:49.174510 29592 net.cpp:67] Creating Layer inception_4e/pool_proj
I0309 00:27:49.174515 29592 net.cpp:394] inception_4e/pool_proj <- inception_4e/pool
I0309 00:27:49.174526 29592 net.cpp:356] inception_4e/pool_proj -> inception_4e/pool_proj
I0309 00:27:49.174535 29592 net.cpp:96] Setting up inception_4e/pool_proj
I0309 00:27:49.175142 29592 net.cpp:103] Top shape: 25 128 14 14 (627200)
I0309 00:27:49.175164 29592 net.cpp:67] Creating Layer inception_4e/relu_pool_proj
I0309 00:27:49.175170 29592 net.cpp:394] inception_4e/relu_pool_proj <- inception_4e/pool_proj
I0309 00:27:49.175175 29592 net.cpp:345] inception_4e/relu_pool_proj -> inception_4e/pool_proj (in-place)
I0309 00:27:49.175182 29592 net.cpp:96] Setting up inception_4e/relu_pool_proj
I0309 00:27:49.175192 29592 net.cpp:103] Top shape: 25 128 14 14 (627200)
I0309 00:27:49.175200 29592 net.cpp:67] Creating Layer inception_4e/output
I0309 00:27:49.175204 29592 net.cpp:394] inception_4e/output <- inception_4e/1x1
I0309 00:27:49.175210 29592 net.cpp:394] inception_4e/output <- inception_4e/3x3
I0309 00:27:49.175215 29592 net.cpp:394] inception_4e/output <- inception_4e/5x5
I0309 00:27:49.175220 29592 net.cpp:394] inception_4e/output <- inception_4e/pool_proj
I0309 00:27:49.175225 29592 net.cpp:356] inception_4e/output -> inception_4e/output
I0309 00:27:49.175231 29592 net.cpp:96] Setting up inception_4e/output
I0309 00:27:49.175236 29592 net.cpp:103] Top shape: 25 832 14 14 (4076800)
I0309 00:27:49.175242 29592 net.cpp:67] Creating Layer pool4/3x3_s2
I0309 00:27:49.175246 29592 net.cpp:394] pool4/3x3_s2 <- inception_4e/output
I0309 00:27:49.175253 29592 net.cpp:356] pool4/3x3_s2 -> pool4/3x3_s2
I0309 00:27:49.175261 29592 net.cpp:96] Setting up pool4/3x3_s2
I0309 00:27:49.175267 29592 net.cpp:103] Top shape: 25 832 7 7 (1019200)
I0309 00:27:49.175273 29592 net.cpp:67] Creating Layer pool4/3x3_s2_pool4/3x3_s2_0_split
I0309 00:27:49.175277 29592 net.cpp:394] pool4/3x3_s2_pool4/3x3_s2_0_split <- pool4/3x3_s2
I0309 00:27:49.175286 29592 net.cpp:356] pool4/3x3_s2_pool4/3x3_s2_0_split -> pool4/3x3_s2_pool4/3x3_s2_0_split_0
I0309 00:27:49.175292 29592 net.cpp:356] pool4/3x3_s2_pool4/3x3_s2_0_split -> pool4/3x3_s2_pool4/3x3_s2_0_split_1
I0309 00:27:49.175298 29592 net.cpp:356] pool4/3x3_s2_pool4/3x3_s2_0_split -> pool4/3x3_s2_pool4/3x3_s2_0_split_2
I0309 00:27:49.175305 29592 net.cpp:356] pool4/3x3_s2_pool4/3x3_s2_0_split -> pool4/3x3_s2_pool4/3x3_s2_0_split_3
I0309 00:27:49.175310 29592 net.cpp:96] Setting up pool4/3x3_s2_pool4/3x3_s2_0_split
I0309 00:27:49.175315 29592 net.cpp:103] Top shape: 25 832 7 7 (1019200)
I0309 00:27:49.175319 29592 net.cpp:103] Top shape: 25 832 7 7 (1019200)
I0309 00:27:49.175323 29592 net.cpp:103] Top shape: 25 832 7 7 (1019200)
I0309 00:27:49.175328 29592 net.cpp:103] Top shape: 25 832 7 7 (1019200)
I0309 00:27:49.175346 29592 net.cpp:67] Creating Layer inception_5a/1x1
I0309 00:27:49.175351 29592 net.cpp:394] inception_5a/1x1 <- pool4/3x3_s2_pool4/3x3_s2_0_split_0
I0309 00:27:49.175359 29592 net.cpp:356] inception_5a/1x1 -> inception_5a/1x1
I0309 00:27:49.175364 29592 net.cpp:96] Setting up inception_5a/1x1
I0309 00:27:49.177193 29592 net.cpp:103] Top shape: 25 256 7 7 (313600)
I0309 00:27:49.177218 29592 net.cpp:67] Creating Layer inception_5a/relu_1x1
I0309 00:27:49.177224 29592 net.cpp:394] inception_5a/relu_1x1 <- inception_5a/1x1
I0309 00:27:49.177230 29592 net.cpp:345] inception_5a/relu_1x1 -> inception_5a/1x1 (in-place)
I0309 00:27:49.177237 29592 net.cpp:96] Setting up inception_5a/relu_1x1
I0309 00:27:49.177243 29592 net.cpp:103] Top shape: 25 256 7 7 (313600)
I0309 00:27:49.177250 29592 net.cpp:67] Creating Layer inception_5a/3x3_reduce
I0309 00:27:49.177254 29592 net.cpp:394] inception_5a/3x3_reduce <- pool4/3x3_s2_pool4/3x3_s2_0_split_1
I0309 00:27:49.177263 29592 net.cpp:356] inception_5a/3x3_reduce -> inception_5a/3x3_reduce
I0309 00:27:49.177269 29592 net.cpp:96] Setting up inception_5a/3x3_reduce
I0309 00:27:49.178426 29592 net.cpp:103] Top shape: 25 160 7 7 (196000)
I0309 00:27:49.178449 29592 net.cpp:67] Creating Layer inception_5a/relu_3x3_reduce
I0309 00:27:49.178455 29592 net.cpp:394] inception_5a/relu_3x3_reduce <- inception_5a/3x3_reduce
I0309 00:27:49.178462 29592 net.cpp:345] inception_5a/relu_3x3_reduce -> inception_5a/3x3_reduce (in-place)
I0309 00:27:49.178467 29592 net.cpp:96] Setting up inception_5a/relu_3x3_reduce
I0309 00:27:49.178474 29592 net.cpp:103] Top shape: 25 160 7 7 (196000)
I0309 00:27:49.178483 29592 net.cpp:67] Creating Layer inception_5a/3x3
I0309 00:27:49.178488 29592 net.cpp:394] inception_5a/3x3 <- inception_5a/3x3_reduce
I0309 00:27:49.178494 29592 net.cpp:356] inception_5a/3x3 -> inception_5a/3x3
I0309 00:27:49.178500 29592 net.cpp:96] Setting up inception_5a/3x3
I0309 00:27:49.182356 29592 net.cpp:103] Top shape: 25 320 7 7 (392000)
I0309 00:27:49.182381 29592 net.cpp:67] Creating Layer inception_5a/relu_3x3
I0309 00:27:49.182387 29592 net.cpp:394] inception_5a/relu_3x3 <- inception_5a/3x3
I0309 00:27:49.182394 29592 net.cpp:345] inception_5a/relu_3x3 -> inception_5a/3x3 (in-place)
I0309 00:27:49.182399 29592 net.cpp:96] Setting up inception_5a/relu_3x3
I0309 00:27:49.182406 29592 net.cpp:103] Top shape: 25 320 7 7 (392000)
I0309 00:27:49.182415 29592 net.cpp:67] Creating Layer inception_5a/5x5_reduce
I0309 00:27:49.182420 29592 net.cpp:394] inception_5a/5x5_reduce <- pool4/3x3_s2_pool4/3x3_s2_0_split_2
I0309 00:27:49.182425 29592 net.cpp:356] inception_5a/5x5_reduce -> inception_5a/5x5_reduce
I0309 00:27:49.182432 29592 net.cpp:96] Setting up inception_5a/5x5_reduce
I0309 00:27:49.182853 29592 net.cpp:103] Top shape: 25 32 7 7 (39200)
I0309 00:27:49.182875 29592 net.cpp:67] Creating Layer inception_5a/relu_5x5_reduce
I0309 00:27:49.182881 29592 net.cpp:394] inception_5a/relu_5x5_reduce <- inception_5a/5x5_reduce
I0309 00:27:49.182890 29592 net.cpp:345] inception_5a/relu_5x5_reduce -> inception_5a/5x5_reduce (in-place)
I0309 00:27:49.182898 29592 net.cpp:96] Setting up inception_5a/relu_5x5_reduce
I0309 00:27:49.182906 29592 net.cpp:103] Top shape: 25 32 7 7 (39200)
I0309 00:27:49.182914 29592 net.cpp:67] Creating Layer inception_5a/5x5
I0309 00:27:49.182919 29592 net.cpp:394] inception_5a/5x5 <- inception_5a/5x5_reduce
I0309 00:27:49.182924 29592 net.cpp:356] inception_5a/5x5 -> inception_5a/5x5
I0309 00:27:49.182934 29592 net.cpp:96] Setting up inception_5a/5x5
I0309 00:27:49.183820 29592 net.cpp:103] Top shape: 25 128 7 7 (156800)
I0309 00:27:49.183840 29592 net.cpp:67] Creating Layer inception_5a/relu_5x5
I0309 00:27:49.183846 29592 net.cpp:394] inception_5a/relu_5x5 <- inception_5a/5x5
I0309 00:27:49.183852 29592 net.cpp:345] inception_5a/relu_5x5 -> inception_5a/5x5 (in-place)
I0309 00:27:49.183858 29592 net.cpp:96] Setting up inception_5a/relu_5x5
I0309 00:27:49.183864 29592 net.cpp:103] Top shape: 25 128 7 7 (156800)
I0309 00:27:49.183887 29592 net.cpp:67] Creating Layer inception_5a/pool
I0309 00:27:49.183892 29592 net.cpp:394] inception_5a/pool <- pool4/3x3_s2_pool4/3x3_s2_0_split_3
I0309 00:27:49.183898 29592 net.cpp:356] inception_5a/pool -> inception_5a/pool
I0309 00:27:49.183904 29592 net.cpp:96] Setting up inception_5a/pool
I0309 00:27:49.183912 29592 net.cpp:103] Top shape: 25 832 7 7 (1019200)
I0309 00:27:49.183922 29592 net.cpp:67] Creating Layer inception_5a/pool_proj
I0309 00:27:49.183926 29592 net.cpp:394] inception_5a/pool_proj <- inception_5a/pool
I0309 00:27:49.183933 29592 net.cpp:356] inception_5a/pool_proj -> inception_5a/pool_proj
I0309 00:27:49.183939 29592 net.cpp:96] Setting up inception_5a/pool_proj
I0309 00:27:49.184873 29592 net.cpp:103] Top shape: 25 128 7 7 (156800)
I0309 00:27:49.184897 29592 net.cpp:67] Creating Layer inception_5a/relu_pool_proj
I0309 00:27:49.184903 29592 net.cpp:394] inception_5a/relu_pool_proj <- inception_5a/pool_proj
I0309 00:27:49.184909 29592 net.cpp:345] inception_5a/relu_pool_proj -> inception_5a/pool_proj (in-place)
I0309 00:27:49.184916 29592 net.cpp:96] Setting up inception_5a/relu_pool_proj
I0309 00:27:49.184922 29592 net.cpp:103] Top shape: 25 128 7 7 (156800)
I0309 00:27:49.184928 29592 net.cpp:67] Creating Layer inception_5a/output
I0309 00:27:49.184932 29592 net.cpp:394] inception_5a/output <- inception_5a/1x1
I0309 00:27:49.184938 29592 net.cpp:394] inception_5a/output <- inception_5a/3x3
I0309 00:27:49.184944 29592 net.cpp:394] inception_5a/output <- inception_5a/5x5
I0309 00:27:49.184948 29592 net.cpp:394] inception_5a/output <- inception_5a/pool_proj
I0309 00:27:49.184954 29592 net.cpp:356] inception_5a/output -> inception_5a/output
I0309 00:27:49.184960 29592 net.cpp:96] Setting up inception_5a/output
I0309 00:27:49.184965 29592 net.cpp:103] Top shape: 25 832 7 7 (1019200)
I0309 00:27:49.184970 29592 net.cpp:67] Creating Layer inception_5a/output_inception_5a/output_0_split
I0309 00:27:49.184975 29592 net.cpp:394] inception_5a/output_inception_5a/output_0_split <- inception_5a/output
I0309 00:27:49.184980 29592 net.cpp:356] inception_5a/output_inception_5a/output_0_split -> inception_5a/output_inception_5a/output_0_split_0
I0309 00:27:49.184988 29592 net.cpp:356] inception_5a/output_inception_5a/output_0_split -> inception_5a/output_inception_5a/output_0_split_1
I0309 00:27:49.184998 29592 net.cpp:356] inception_5a/output_inception_5a/output_0_split -> inception_5a/output_inception_5a/output_0_split_2
I0309 00:27:49.185008 29592 net.cpp:356] inception_5a/output_inception_5a/output_0_split -> inception_5a/output_inception_5a/output_0_split_3
I0309 00:27:49.185014 29592 net.cpp:96] Setting up inception_5a/output_inception_5a/output_0_split
I0309 00:27:49.185019 29592 net.cpp:103] Top shape: 25 832 7 7 (1019200)
I0309 00:27:49.185022 29592 net.cpp:103] Top shape: 25 832 7 7 (1019200)
I0309 00:27:49.185026 29592 net.cpp:103] Top shape: 25 832 7 7 (1019200)
I0309 00:27:49.185029 29592 net.cpp:103] Top shape: 25 832 7 7 (1019200)
I0309 00:27:49.185040 29592 net.cpp:67] Creating Layer inception_5b/1x1
I0309 00:27:49.185045 29592 net.cpp:394] inception_5b/1x1 <- inception_5a/output_inception_5a/output_0_split_0
I0309 00:27:49.185051 29592 net.cpp:356] inception_5b/1x1 -> inception_5b/1x1
I0309 00:27:49.185057 29592 net.cpp:96] Setting up inception_5b/1x1
I0309 00:27:49.187747 29592 net.cpp:103] Top shape: 25 384 7 7 (470400)
I0309 00:27:49.187770 29592 net.cpp:67] Creating Layer inception_5b/relu_1x1
I0309 00:27:49.187777 29592 net.cpp:394] inception_5b/relu_1x1 <- inception_5b/1x1
I0309 00:27:49.187783 29592 net.cpp:345] inception_5b/relu_1x1 -> inception_5b/1x1 (in-place)
I0309 00:27:49.187790 29592 net.cpp:96] Setting up inception_5b/relu_1x1
I0309 00:27:49.187796 29592 net.cpp:103] Top shape: 25 384 7 7 (470400)
I0309 00:27:49.187809 29592 net.cpp:67] Creating Layer inception_5b/3x3_reduce
I0309 00:27:49.187813 29592 net.cpp:394] inception_5b/3x3_reduce <- inception_5a/output_inception_5a/output_0_split_1
I0309 00:27:49.187820 29592 net.cpp:356] inception_5b/3x3_reduce -> inception_5b/3x3_reduce
I0309 00:27:49.187839 29592 net.cpp:96] Setting up inception_5b/3x3_reduce
I0309 00:27:49.189209 29592 net.cpp:103] Top shape: 25 192 7 7 (235200)
I0309 00:27:49.189231 29592 net.cpp:67] Creating Layer inception_5b/relu_3x3_reduce
I0309 00:27:49.189239 29592 net.cpp:394] inception_5b/relu_3x3_reduce <- inception_5b/3x3_reduce
I0309 00:27:49.189246 29592 net.cpp:345] inception_5b/relu_3x3_reduce -> inception_5b/3x3_reduce (in-place)
I0309 00:27:49.189252 29592 net.cpp:96] Setting up inception_5b/relu_3x3_reduce
I0309 00:27:49.189260 29592 net.cpp:103] Top shape: 25 192 7 7 (235200)
I0309 00:27:49.189270 29592 net.cpp:67] Creating Layer inception_5b/3x3
I0309 00:27:49.189275 29592 net.cpp:394] inception_5b/3x3 <- inception_5b/3x3_reduce
I0309 00:27:49.189280 29592 net.cpp:356] inception_5b/3x3 -> inception_5b/3x3
I0309 00:27:49.189306 29592 net.cpp:96] Setting up inception_5b/3x3
I0309 00:27:49.194972 29592 net.cpp:103] Top shape: 25 384 7 7 (470400)
I0309 00:27:49.194998 29592 net.cpp:67] Creating Layer inception_5b/relu_3x3
I0309 00:27:49.195005 29592 net.cpp:394] inception_5b/relu_3x3 <- inception_5b/3x3
I0309 00:27:49.195011 29592 net.cpp:345] inception_5b/relu_3x3 -> inception_5b/3x3 (in-place)
I0309 00:27:49.195019 29592 net.cpp:96] Setting up inception_5b/relu_3x3
I0309 00:27:49.195025 29592 net.cpp:103] Top shape: 25 384 7 7 (470400)
I0309 00:27:49.195034 29592 net.cpp:67] Creating Layer inception_5b/5x5_reduce
I0309 00:27:49.195039 29592 net.cpp:394] inception_5b/5x5_reduce <- inception_5a/output_inception_5a/output_0_split_2
I0309 00:27:49.195045 29592 net.cpp:356] inception_5b/5x5_reduce -> inception_5b/5x5_reduce
I0309 00:27:49.195052 29592 net.cpp:96] Setting up inception_5b/5x5_reduce
I0309 00:27:49.195432 29592 net.cpp:103] Top shape: 25 48 7 7 (58800)
I0309 00:27:49.195456 29592 net.cpp:67] Creating Layer inception_5b/relu_5x5_reduce
I0309 00:27:49.195461 29592 net.cpp:394] inception_5b/relu_5x5_reduce <- inception_5b/5x5_reduce
I0309 00:27:49.195467 29592 net.cpp:345] inception_5b/relu_5x5_reduce -> inception_5b/5x5_reduce (in-place)
I0309 00:27:49.195473 29592 net.cpp:96] Setting up inception_5b/relu_5x5_reduce
I0309 00:27:49.195480 29592 net.cpp:103] Top shape: 25 48 7 7 (58800)
I0309 00:27:49.195487 29592 net.cpp:67] Creating Layer inception_5b/5x5
I0309 00:27:49.195492 29592 net.cpp:394] inception_5b/5x5 <- inception_5b/5x5_reduce
I0309 00:27:49.195499 29592 net.cpp:356] inception_5b/5x5 -> inception_5b/5x5
I0309 00:27:49.195507 29592 net.cpp:96] Setting up inception_5b/5x5
I0309 00:27:49.196826 29592 net.cpp:103] Top shape: 25 128 7 7 (156800)
I0309 00:27:49.196847 29592 net.cpp:67] Creating Layer inception_5b/relu_5x5
I0309 00:27:49.196853 29592 net.cpp:394] inception_5b/relu_5x5 <- inception_5b/5x5
I0309 00:27:49.196861 29592 net.cpp:345] inception_5b/relu_5x5 -> inception_5b/5x5 (in-place)
I0309 00:27:49.196867 29592 net.cpp:96] Setting up inception_5b/relu_5x5
I0309 00:27:49.196874 29592 net.cpp:103] Top shape: 25 128 7 7 (156800)
I0309 00:27:49.196880 29592 net.cpp:67] Creating Layer inception_5b/pool
I0309 00:27:49.196885 29592 net.cpp:394] inception_5b/pool <- inception_5a/output_inception_5a/output_0_split_3
I0309 00:27:49.196892 29592 net.cpp:356] inception_5b/pool -> inception_5b/pool
I0309 00:27:49.196897 29592 net.cpp:96] Setting up inception_5b/pool
I0309 00:27:49.196904 29592 net.cpp:103] Top shape: 25 832 7 7 (1019200)
I0309 00:27:49.196913 29592 net.cpp:67] Creating Layer inception_5b/pool_proj
I0309 00:27:49.196918 29592 net.cpp:394] inception_5b/pool_proj <- inception_5b/pool
I0309 00:27:49.196925 29592 net.cpp:356] inception_5b/pool_proj -> inception_5b/pool_proj
I0309 00:27:49.196931 29592 net.cpp:96] Setting up inception_5b/pool_proj
I0309 00:27:49.197863 29592 net.cpp:103] Top shape: 25 128 7 7 (156800)
I0309 00:27:49.197887 29592 net.cpp:67] Creating Layer inception_5b/relu_pool_proj
I0309 00:27:49.197893 29592 net.cpp:394] inception_5b/relu_pool_proj <- inception_5b/pool_proj
I0309 00:27:49.197899 29592 net.cpp:345] inception_5b/relu_pool_proj -> inception_5b/pool_proj (in-place)
I0309 00:27:49.197921 29592 net.cpp:96] Setting up inception_5b/relu_pool_proj
I0309 00:27:49.197929 29592 net.cpp:103] Top shape: 25 128 7 7 (156800)
I0309 00:27:49.197935 29592 net.cpp:67] Creating Layer inception_5b/output
I0309 00:27:49.197939 29592 net.cpp:394] inception_5b/output <- inception_5b/1x1
I0309 00:27:49.197944 29592 net.cpp:394] inception_5b/output <- inception_5b/3x3
I0309 00:27:49.197949 29592 net.cpp:394] inception_5b/output <- inception_5b/5x5
I0309 00:27:49.197954 29592 net.cpp:394] inception_5b/output <- inception_5b/pool_proj
I0309 00:27:49.197962 29592 net.cpp:356] inception_5b/output -> inception_5b/output
I0309 00:27:49.197983 29592 net.cpp:96] Setting up inception_5b/output
I0309 00:27:49.197991 29592 net.cpp:103] Top shape: 25 1024 7 7 (1254400)
I0309 00:27:49.197999 29592 net.cpp:67] Creating Layer pool5/7x7_s1
I0309 00:27:49.198003 29592 net.cpp:394] pool5/7x7_s1 <- inception_5b/output
I0309 00:27:49.198010 29592 net.cpp:356] pool5/7x7_s1 -> pool5/7x7_s1
I0309 00:27:49.198017 29592 net.cpp:96] Setting up pool5/7x7_s1
I0309 00:27:49.198024 29592 net.cpp:103] Top shape: 25 1024 1 1 (25600)
I0309 00:27:49.198035 29592 net.cpp:67] Creating Layer pool5/drop_7x7_s1
I0309 00:27:49.198038 29592 net.cpp:394] pool5/drop_7x7_s1 <- pool5/7x7_s1
I0309 00:27:49.198043 29592 net.cpp:345] pool5/drop_7x7_s1 -> pool5/7x7_s1 (in-place)
I0309 00:27:49.198050 29592 net.cpp:96] Setting up pool5/drop_7x7_s1
I0309 00:27:49.198055 29592 net.cpp:103] Top shape: 25 1024 1 1 (25600)
I0309 00:27:49.198062 29592 net.cpp:67] Creating Layer loss3/classifier
I0309 00:27:49.198066 29592 net.cpp:394] loss3/classifier <- pool5/7x7_s1
I0309 00:27:49.198072 29592 net.cpp:356] loss3/classifier -> loss3/classifier
I0309 00:27:49.198079 29592 net.cpp:96] Setting up loss3/classifier
I0309 00:27:49.199100 29592 net.cpp:103] Top shape: 25 121 1 1 (3025)
I0309 00:27:49.199121 29592 net.cpp:67] Creating Layer loss3/loss3
I0309 00:27:49.199126 29592 net.cpp:394] loss3/loss3 <- loss3/classifier
I0309 00:27:49.199132 29592 net.cpp:394] loss3/loss3 <- label_data_1_split_2
I0309 00:27:49.199141 29592 net.cpp:356] loss3/loss3 -> loss3/loss3
I0309 00:27:49.199147 29592 net.cpp:96] Setting up loss3/loss3
I0309 00:27:49.199162 29592 net.cpp:103] Top shape: 1 1 1 1 (1)
I0309 00:27:49.199167 29592 net.cpp:109]     with loss weight 1
I0309 00:27:49.199178 29592 net.cpp:170] loss3/loss3 needs backward computation.
I0309 00:27:49.199183 29592 net.cpp:170] loss3/classifier needs backward computation.
I0309 00:27:49.199187 29592 net.cpp:170] pool5/drop_7x7_s1 needs backward computation.
I0309 00:27:49.199190 29592 net.cpp:170] pool5/7x7_s1 needs backward computation.
…
I0309 00:27:49.203186 29592 solver.cpp:151] Creating test net (#0) specified by net file: caffe/256_scale_aug2/gnet/train.prototxt
I0309 00:27:49.203349 29592 net.cpp:275] The NetState phase (1) differed from the phase (0) specified by a rule in layer data
I0309 00:27:49.204319 29592 net.cpp:39] Initializing net from parameters: 
name: "GoogleNet"
layers {
  top: "data"
  top: "label"
  name: "data"
  type: DATA
  data_param {
    source: "data/256_scale_aug2/val_lmdb"
    batch_size: 50
    backend: LMDB
  }
  include {
    phase: TEST
  }
  transform_param {
    mirror: false
    crop_size: 224
    mean_file: "data/256_scale_aug2/val_mean.binaryproto"
  }
}
layers {
  bottom: "data"
  top: "conv1/7x7_s2"
  name: "conv1/7x7_s2"
  type: CONVOLUTION
  blobs_lr: 1
  blobs_lr: 2
  weight_decay: 1
  weight_decay: 0
  convolution_param {
    num_output: 64
    pad: 3
    kernel_size: 7
    stride: 2
    weight_filler {
      type: "xavier"
      std: 0.1
    }
    bias_filler {
      type: "constant"
      value: 0.2
    }
  }
}
layers {
  bottom: "conv1/7x7_s2"
  top: "conv1/7x7_s2"
  name: "conv1/relu_7x7"
  type: RELU
}
layers {
  bottom: "conv1/7x7_s2"
  top: "pool1/3x3_s2"
  name: "pool1/3x3_s2"
  type: POOLING
  pooling_param {
    pool: MAX
    kernel_size: 3
    stride: 2
  }
}
layers {
  bottom: "pool1/3x3_s2"
  top: "pool1/norm1"
  name: "pool1/norm1"
  type: LRN
  lrn_param {
    local_size: 5
    alpha: 0.0001
    beta: 0.75
  }
}
layers {
  bottom: "pool1/norm1"
  top: "conv2/3x3_reduce"
  name: "conv2/3x3_reduce"
  type: CONVOLUTION
  blobs_lr: 1
  blobs_lr: 2
  weight_decay: 1
  weight_decay: 0
  convolution_param {
    num_output: 64
    kernel_size: 1
    weight_filler {
      type: "xavier"
      std: 0.1
    }
    bias_filler {
      type: "constant"
      value: 0.2
    }
  }
}
layers {
  bottom: "conv2/3x3_reduce"
  top: "conv2/3x3_reduce"
  name: "conv2/relu_3x3_reduce"
  type: RELU
}
layers {
  bottom: "conv2/3x3_reduce"
  top: "conv2/3x3"
  name: "conv2/3x3"
  type: CONVOLUTION
  blobs_lr: 1
  blobs_lr: 2
  weight_decay: 1
  weight_decay: 0
  convolution_param {
    num_output: 192
    pad: 1
    kernel_size: 3
    weight_filler {
      type: "xavier"
      std: 0.03
    }
    bias_filler {
      type: "constant"
      value: 0.2
    }
  }
}
layers {
  bottom: "conv2/3x3"
  top: "conv2/3x3"
  name: "conv2/relu_3x3"
  type: RELU
}
layers {
  bottom: "conv2/3x3"
  top: "conv2/norm2"
  name: "conv2/norm2"
  type: LRN
  lrn_param {
    local_size: 5
    alpha: 0.0001
    beta: 0.75
  }
}
layers {
  bottom: "conv2/norm2"
  top: "pool2/3x3_s2"
  name: "pool2/3x3_s2"
  type: POOLING
  pooling_param {
    pool: MAX
    kernel_size: 3
    stride: 2
  }
}
layers {
  bottom: "pool2/3x3_s2"
  top: "inception_3a/1x1"
  name: "inception_3a/1x1"
  type: CONVOLUTION
  blobs_lr: 1
  blobs_lr: 2
  weight_decay: 1
  weight_decay: 0
  convolution_param {
    num_output: 64
    kernel_size: 1
    weight_filler {
      type: "xavier"
      std: 0.03
    }
    bias_filler {
      type: "constant"
      value: 0.2
    }
  }
}
layers {
  bottom: "inception_3a/1x1"
  top: "inception_3a/1x1"
  name: "inception_3a/relu_1x1"
  type: RELU
}
layers {
  bottom: "pool2/3x3_s2"
  top: "inception_3a/3x3_reduce"
  name: "inception_3a/3x3_reduce"
  type: CONVOLUTION
  blobs_lr: 1
  blobs_lr: 2
  weight_decay: 1
  weight_decay: 0
  convolution_param {
    num_output: 96
    kernel_size: 1
    weight_filler {
      type: "xavier"
      std: 0.09
    }
    bias_filler {
      type: "constant"
      value: 0.2
    }
  }
}
layers {
  bottom: "inception_3a/3x3_reduce"
  top: "inception_3a/3x3_reduce"
  name: "inception_3a/relu_3x3_reduce"
  type: RELU
}
layers {
  bottom: "inception_3a/3x3_reduce"
  top: "inception_3a/3x3"
  name: "inception_3a/3x3"
  type: CONVOLUTION
  blobs_lr: 1
  blobs_lr: 2
  weight_decay: 1
  weight_decay: 0
  convolution_param {
    num_output: 128
    pad: 1
    kernel_size: 3
    weight_filler {
      type: "xavier"
      std: 0.03
    }
    bias_filler {
      type: "constant"
      value: 0.2
    }
  }
}
layers {
  bottom: "inception_3a/3x3"
  top: "inception_3a/3x3"
  name: "inception_3a/relu_3x3"
  type: RELU
}
layers {
  bottom: "pool2/3x3_s2"
  top: "inception_3a/5x5_reduce"
  name: "inception_3a/5x5_reduce"
  type: CONVOLUTION
  blobs_lr: 1
  blobs_lr: 2
  weight_decay: 1
  weight_decay: 0
  convolution_param {
    num_output: 16
    kernel_size: 1
    weight_filler {
      type: "xavier"
      std: 0.2
    }
    bias_filler {
      type: "constant"
      value: 0.2
    }
  }
}
layers {
  bottom: "inception_3a/5x5_reduce"
  top: "inception_3a/5x5_reduce"
  name: "inception_3a/relu_5x5_reduce"
  type: RELU
}
layers {
  bottom: "inception_3a/5x5_reduce"
  top: "inception_3a/5x5"
  name: "inception_3a/5x5"
  type: CONVOLUTION
  blobs_lr: 1
  blobs_lr: 2
  weight_decay: 1
  weight_decay: 0
  convolution_param {
    num_output: 32
    pad: 2
    kernel_size: 5
    weight_filler {
      type: "xavier"
      std: 0.03
    }
    bias_filler {
      type: "constant"
      value: 0.2
    }
  }
}
layers {
  bottom: "inception_3a/5x5"
  top: "inception_3a/5x5"
  name: "inception_3a/relu_5x5"
  type: RELU
}
layers {
  bottom: "pool2/3x3_s2"
  top: "inception_3a/pool"
  name: "inception_3a/pool"
  type: POOLING
  pooling_param {
    pool: MAX
    kernel_size: 3
    stride: 1
    pad: 1
  }
}
layers {
  bottom: "inception_3a/pool"
  top: "inception_3a/pool_proj"
  name: "inception_3a/pool_proj"
  type: CONVOLUTION
  blobs_lr: 1
  blobs_lr: 2
  weight_decay: 1
  weight_decay: 0
  convolution_param {
    num_output: 32
    kernel_size: 1
    weight_filler {
      type: "xavier"
      std: 0.1
    }
    bias_filler {
      type: "constant"
      value: 0.2
    }
  }
}
layers {
  bottom: "inception_3a/pool_proj"
  top: "inception_3a/pool_proj"
  name: "inception_3a/relu_pool_proj"
  type: RELU
}
layers {
  bottom: "inception_3a/1x1"
  bottom: "inception_3a/3x3"
  bottom: "inception_3a/5x5"
  bottom: "inception_3a/pool_proj"
  top: "inception_3a/output"
  name: "inception_3a/output"
  type: CONCAT
}
layers {
  bottom: "inception_3a/output"
  top: "inception_3b/1x1"
  name: "inception_3b/1x1"
  type: CONVOLUTION
  blobs_lr: 1
  blobs_lr: 2
  weight_decay: 1
  weight_decay: 0
  convolution_param {
    num_output: 128
    kernel_size: 1
    weight_filler {
      type: "xavier"
      std: 0.03
    }
    bias_filler {
      type: "constant"
      value: 0.2
    }
  }
}
layers {
  bottom: "inception_3b/1x1"
  top: "inception_3b/1x1"
  name: "inception_3b/relu_1x1"
  type: RELU
}
layers {
  bottom: "inception_3a/output"
  top: "inception_3b/3x3_reduce"
  name: "inception_3b/3x3_reduce"
  type: CONVOLUTION
  blobs_lr: 1
  blobs_lr: 2
  weight_decay: 1
  weight_decay: 0
  convolution_param {
    num_output: 128
    kernel_size: 1
    weight_filler {
      type: "xavier"
      std: 0.09
    }
    bias_filler {
      type: "constant"
      value: 0.2
    }
  }
}
layers {
  bottom: "inception_3b/3x3_reduce"
  top: "inception_3b/3x3_reduce"
  name: "inception_3b/relu_3x3_reduce"
  type: RELU
}
layers {
  bottom: "inception_3b/3x3_reduce"
  top: "inception_3b/3x3"
  name: "inception_3b/3x3"
  type: CONVOLUTION
  blobs_lr: 1
  blobs_lr: 2
  weight_decay: 1
  weight_decay: 0
  convolution_param {
    num_output: 192
    pad: 1
    kernel_size: 3
    weight_filler {
      type: "xavier"
      std: 0.03
    }
    bias_filler {
      type: "constant"
      value: 0.2
    }
  }
}
layers {
  bottom: "inception_3b/3x3"
  top: "inception_3b/3x3"
  name: "inception_3b/relu_3x3"
  type: RELU
}
layers {
  bottom: "inception_3a/output"
  top: "inception_3b/5x5_reduce"
  name: "inception_3b/5x5_reduce"
  type: CONVOLUTION
  blobs_lr: 1
  blobs_lr: 2
  weight_decay: 1
  weight_decay: 0
  convolution_param {
    num_output: 32
    kernel_size: 1
    weight_filler {
      type: "xavier"
      std: 0.2
    }
    bias_filler {
      type: "constant"
      value: 0.2
    }
  }
}
layers {
  bottom: "inception_3b/5x5_reduce"
  top: "inception_3b/5x5_reduce"
  name: "inception_3b/relu_5x5_reduce"
  type: RELU
}
layers {
  bottom: "inception_3b/5x5_reduce"
  top: "inception_3b/5x5"
  name: "inception_3b/5x5"
  type: CONVOLUTION
  blobs_lr: 1
  blobs_lr: 2
  weight_decay: 1
  weight_decay: 0
  convolution_param {
    num_output: 96
    pad: 2
    kernel_size: 5
    weight_filler {
      type: "xavier"
      std: 0.03
    }
    bias_filler {
      type: "constant"
      value: 0.2
    }
  }
}
layers {
  bottom: "inception_3b/5x5"
  top: "inception_3b/5x5"
  name: "inception_3b/relu_5x5"
  type: RELU
}
layers {
  bottom: "inception_3a/output"
  top: "inception_3b/pool"
  name: "inception_3b/pool"
  type: POOLING
  pooling_param {
    pool: MAX
    kernel_size: 3
    stride: 1
    pad: 1
  }
}
layers {
  bottom: "inception_3b/pool"
  top: "inception_3b/pool_proj"
  name: "inception_3b/pool_proj"
  type: CONVOLUTION
  blobs_lr: 1
  blobs_lr: 2
  weight_decay: 1
  weight_decay: 0
  convolution_param {
    num_output: 64
    kernel_size: 1
    weight_filler {
      type: "xavier"
      std: 0.1
    }
    bias_filler {
      type: "constant"
      value: 0.2
    }
  }
}
layers {
  bottom: "inception_3b/pool_proj"
  top: "inception_3b/pool_proj"
  name: "inception_3b/relu_pool_proj"
  type: RELU
}
layers {
  bottom: "inception_3b/1x1"
  bottom: "inception_3b/3x3"
  bottom: "inception_3b/5x5"
  bottom: "inception_3b/pool_proj"
  top: "inception_3b/output"
  name: "inception_3b/output"
  type: CONCAT
}
layers {
  bottom: "inception_3b/output"
  top: "pool3/3x3_s2"
  name: "pool3/3x3_s2"
  type: POOLING
  pooling_param {
    pool: MAX
    kernel_size: 3
    stride: 2
  }
}
layers {
  bottom: "pool3/3x3_s2"
  top: "inception_4a/1x1"
  name: "inception_4a/1x1"
  type: CONVOLUTION
  blobs_lr: 1
  blobs_lr: 2
  weight_decay: 1
  weight_decay: 0
  convolution_param {
    num_output: 192
    kernel_size: 1
    weight_filler {
      type: "xavier"
      std: 0.03
    }
    bias_filler {
      type: "constant"
      value: 0.2
    }
  }
}
layers {
  bottom: "inception_4a/1x1"
  top: "inception_4a/1x1"
  name: "inception_4a/relu_1x1"
  type: RELU
}
layers {
  bottom: "pool3/3x3_s2"
  top: "inception_4a/3x3_reduce"
  name: "inception_4a/3x3_reduce"
  type: CONVOLUTION
  blobs_lr: 1
  blobs_lr: 2
  weight_decay: 1
  weight_decay: 0
  convolution_param {
    num_output: 96
    kernel_size: 1
    weight_filler {
      type: "xavier"
      std: 0.09
    }
    bias_filler {
      type: "constant"
      value: 0.2
    }
  }
}
layers {
  bottom: "inception_4a/3x3_reduce"
  top: "inception_4a/3x3_reduce"
  name: "inception_4a/relu_3x3_reduce"
  type: RELU
}
layers {
  bottom: "inception_4a/3x3_reduce"
  top: "inception_4a/3x3"
  name: "inception_4a/3x3"
  type: CONVOLUTION
  blobs_lr: 1
  blobs_lr: 2
  weight_decay: 1
  weight_decay: 0
  convolution_param {
    num_output: 208
    pad: 1
    kernel_size: 3
    weight_filler {
      type: "xavier"
      std: 0.03
    }
    bias_filler {
      type: "constant"
      value: 0.2
    }
  }
}
layers {
  bottom: "inception_4a/3x3"
  top: "inception_4a/3x3"
  name: "inception_4a/relu_3x3"
  type: RELU
}
layers {
  bottom: "pool3/3x3_s2"
  top: "inception_4a/5x5_reduce"
  name: "inception_4a/5x5_reduce"
  type: CONVOLUTION
  blobs_lr: 1
  blobs_lr: 2
  weight_decay: 1
  weight_decay: 0
  convolution_param {
    num_output: 16
    kernel_size: 1
    weight_filler {
      type: "xavier"
      std: 0.2
    }
    bias_filler {
      type: "constant"
      value: 0.2
    }
  }
}
layers {
  bottom: "inception_4a/5x5_reduce"
  top: "inception_4a/5x5_reduce"
  name: "inception_4a/relu_5x5_reduce"
  type: RELU
}
layers {
  bottom: "inception_4a/5x5_reduce"
  top: "inception_4a/5x5"
  name: "inception_4a/5x5"
  type: CONVOLUTION
  blobs_lr: 1
  blobs_lr: 2
  weight_decay: 1
  weight_decay: 0
  convolution_param {
    num_output: 48
    pad: 2
    kernel_size: 5
    weight_filler {
      type: "xavier"
      std: 0.03
    }
    bias_filler {
      type: "constant"
      value: 0.2
    }
  }
}
layers {
  bottom: "inception_4a/5x5"
  top: "inception_4a/5x5"
  name: "inception_4a/relu_5x5"
  type: RELU
}
layers {
  bottom: "pool3/3x3_s2"
  top: "inception_4a/pool"
  name: "inception_4a/pool"
  type: POOLING
  pooling_param {
    pool: MAX
    kernel_size: 3
    stride: 1
    pad: 1
  }
}
layers {
  bottom: "inception_4a/pool"
  top: "inception_4a/pool_proj"
  name: "inception_4a/pool_proj"
  type: CONVOLUTION
  blobs_lr: 1
  blobs_lr: 2
  weight_decay: 1
  weight_decay: 0
  convolution_param {
    num_output: 64
    kernel_size: 1
    weight_filler {
      type: "xavier"
      std: 0.1
    }
    bias_filler {
      type: "constant"
      value: 0.2
    }
  }
}
layers {
  bottom: "inception_4a/pool_proj"
  top: "inception_4a/pool_proj"
  name: "inception_4a/relu_pool_proj"
  type: RELU
}
layers {
  bottom: "inception_4a/1x1"
  bottom: "inception_4a/3x3"
  bottom: "inception_4a/5x5"
  bottom: "inception_4a/pool_proj"
  top: "inception_4a/output"
  name: "inception_4a/output"
  type: CONCAT
}
layers {
  bottom: "inception_4a/output"
  top: "loss1/ave_pool"
  name: "loss1/ave_pool"
  type: POOLING
  pooling_param {
    pool: AVE
    kernel_size: 5
    stride: 3
  }
}
layers {
  bottom: "loss1/ave_pool"
  top: "loss1/conv"
  name: "loss1/conv"
  type: CONVOLUTION
  blobs_lr: 1
  blobs_lr: 2
  weight_decay: 1
  weight_decay: 0
  convolution_param {
    num_output: 128
    kernel_size: 1
    weight_filler {
      type: "xavier"
      std: 0.08
    }
    bias_filler {
      type: "constant"
      value: 0.2
    }
  }
}
layers {
  bottom: "loss1/conv"
  top: "loss1/conv"
  name: "loss1/relu_conv"
  type: RELU
}
layers {
  bottom: "loss1/conv"
  top: "loss1/fc"
  name: "loss1/fc"
  type: INNER_PRODUCT
  blobs_lr: 1
  blobs_lr: 2
  weight_decay: 1
  weight_decay: 0
  inner_product_param {
    num_output: 1024
    weight_filler {
      type: "xavier"
      std: 0.02
    }
    bias_filler {
      type: "constant"
      value: 0.2
    }
  }
}
layers {
  bottom: "loss1/fc"
  top: "loss1/fc"
  name: "loss1/relu_fc"
  type: RELU
}
layers {
  bottom: "loss1/fc"
  top: "loss1/fc"
  name: "loss1/drop_fc"
  type: DROPOUT
  dropout_param {
    dropout_ratio: 0.7
  }
}
layers {
  bottom: "loss1/fc"
  top: "loss1/classifier"
  name: "loss1/classifier"
  type: INNER_PRODUCT
  blobs_lr: 1
  blobs_lr: 2
  weight_decay: 1
  weight_decay: 0
  inner_product_param {
    num_output: 121
    weight_filler {
      type: "xavier"
      std: 0.0009765625
    }
    bias_filler {
      type: "constant"
      value: 0
    }
  }
}
layers {
  bottom: "loss1/classifier"
  bottom: "label"
  top: "loss1/loss1"
  name: "loss1/loss"
  type: SOFTMAX_LOSS
  loss_weight: 0.3
}
layers {
  bottom: "loss1/classifier"
  bottom: "label"
  top: "loss1/top-1"
  name: "loss1/top-1"
  type: ACCURACY
  include {
    phase: TEST
  }
}
layers {
  bottom: "loss1/classifier"
  bottom: "label"
  top: "loss1/top-5"
  name: "loss1/top-5"
  type: ACCURACY
  accuracy_param {
    top_k: 5
  }
  include {
    phase: TEST
  }
}
layers {
  bottom: "inception_4a/output"
  top: "inception_4b/1x1"
  name: "inception_4b/1x1"
  type: CONVOLUTION
  blobs_lr: 1
  blobs_lr: 2
  weight_decay: 1
  weight_decay: 0
  convolution_param {
    num_output: 160
    kernel_size: 1
    weight_filler {
      type: "xavier"
      std: 0.03
    }
    bias_filler {
      type: "constant"
      value: 0.2
    }
  }
}
layers {
  bottom: "inception_4b/1x1"
  top: "inception_4b/1x1"
  name: "inception_4b/relu_1x1"
  type: RELU
}
layers {
  bottom: "inception_4a/output"
  top: "inception_4b/3x3_reduce"
  name: "inception_4b/3x3_reduce"
  type: CONVOLUTION
  blobs_lr: 1
  blobs_lr: 2
  weight_decay: 1
  weight_decay: 0
  convolution_param {
    num_output: 112
    kernel_size: 1
    weight_filler {
      type: "xavier"
      std: 0.09
    }
    bias_filler {
      type: "constant"
      value: 0.2
    }
  }
}
layers {
  bottom: "inception_4b/3x3_reduce"
  top: "inception_4b/3x3_reduce"
  name: "inception_4b/relu_3x3_reduce"
  type: RELU
}
layers {
  bottom: "inception_4b/3x3_reduce"
  top: "inception_4b/3x3"
  name: "inception_4b/3x3"
  type: CONVOLUTION
  blobs_lr: 1
  blobs_lr: 2
  weight_decay: 1
  weight_decay: 0
  convolution_param {
    num_output: 224
    pad: 1
    kernel_size: 3
    weight_filler {
      type: "xavier"
      std: 0.03
    }
    bias_filler {
      type: "constant"
      value: 0.2
    }
  }
}
layers {
  bottom: "inception_4b/3x3"
  top: "inception_4b/3x3"
  name: "inception_4b/relu_3x3"
  type: RELU
}
layers {
  bottom: "inception_4a/output"
  top: "inception_4b/5x5_reduce"
  name: "inception_4b/5x5_reduce"
  type: CONVOLUTION
  blobs_lr: 1
  blobs_lr: 2
  weight_decay: 1
  weight_decay: 0
  convolution_param {
    num_output: 24
    kernel_size: 1
    weight_filler {
      type: "xavier"
      std: 0.2
    }
    bias_filler {
      type: "constant"
      value: 0.2
    }
  }
}
layers {
  bottom: "inception_4b/5x5_reduce"
  top: "inception_4b/5x5_reduce"
  name: "inception_4b/relu_5x5_reduce"
  type: RELU
}
layers {
  bottom: "inception_4b/5x5_reduce"
  top: "inception_4b/5x5"
  name: "inception_4b/5x5"
  type: CONVOLUTION
  blobs_lr: 1
  blobs_lr: 2
  weight_decay: 1
  weight_decay: 0
  convolution_param {
    num_output: 64
    pad: 2
    kernel_size: 5
    weight_filler {
      type: "xavier"
      std: 0.03
    }
    bias_filler {
      type: "constant"
      value: 0.2
    }
  }
}
layers {
  bottom: "inception_4b/5x5"
  top: "inception_4b/5x5"
  name: "inception_4b/relu_5x5"
  type: RELU
}
layers {
  bottom: "inception_4a/output"
  top: "inception_4b/pool"
  name: "inception_4b/pool"
  type: POOLING
  pooling_param {
    pool: MAX
    kernel_size: 3
    stride: 1
    pad: 1
  }
}
layers {
  bottom: "inception_4b/pool"
  top: "inception_4b/pool_proj"
  name: "inception_4b/pool_proj"
  type: CONVOLUTION
  blobs_lr: 1
  blobs_lr: 2
  weight_decay: 1
  weight_decay: 0
  convolution_param {
    num_output: 64
    kernel_size: 1
    weight_filler {
      type: "xavier"
      std: 0.1
    }
    bias_filler {
      type: "constant"
      value: 0.2
    }
  }
}
layers {
  bottom: "inception_4b/pool_proj"
  top: "inception_4b/pool_proj"
  name: "inception_4b/relu_pool_proj"
  type: RELU
}
layers {
  bottom: "inception_4b/1x1"
  bottom: "inception_4b/3x3"
  bottom: "inception_4b/5x5"
  bottom: "inception_4b/pool_proj"
  top: "inception_4b/output"
  name: "inception_4b/output"
  type: CONCAT
}
layers {
  bottom: "inception_4b/output"
  top: "inception_4c/1x1"
  name: "inception_4c/1x1"
  type: CONVOLUTION
  blobs_lr: 1
  blobs_lr: 2
  weight_decay: 1
  weight_decay: 0
  convolution_param {
    num_output: 128
    kernel_size: 1
    weight_filler {
      type: "xavier"
      std: 0.03
    }
    bias_filler {
      type: "constant"
      value: 0.2
    }
  }
}
layers {
  bottom: "inception_4c/1x1"
  top: "inception_4c/1x1"
  name: "inception_4c/relu_1x1"
  type: RELU
}
layers {
  bottom: "inception_4b/output"
  top: "inception_4c/3x3_reduce"
  name: "inception_4c/3x3_reduce"
  type: CONVOLUTION
  blobs_lr: 1
  blobs_lr: 2
  weight_decay: 1
  weight_decay: 0
  convolution_param {
    num_output: 128
    kernel_size: 1
    weight_filler {
      type: "xavier"
      std: 0.09
    }
    bias_filler {
      type: "constant"
      value: 0.2
    }
  }
}
layers {
  bottom: "inception_4c/3x3_reduce"
  top: "inception_4c/3x3_reduce"
  name: "inception_4c/relu_3x3_reduce"
  type: RELU
}
layers {
  bottom: "inception_4c/3x3_reduce"
  top: "inception_4c/3x3"
  name: "inception_4c/3x3"
  type: CONVOLUTION
  blobs_lr: 1
  blobs_lr: 2
  weight_decay: 1
  weight_decay: 0
  convolution_param {
    num_output: 256
    pad: 1
    kernel_size: 3
    weight_filler {
      type: "xavier"
      std: 0.03
    }
    bias_filler {
      type: "constant"
      value: 0.2
    }
  }
}
layers {
  bottom: "inception_4c/3x3"
  top: "inception_4c/3x3"
  name: "inception_4c/relu_3x3"
  type: RELU
}
layers {
  bottom: "inception_4b/output"
  top: "inception_4c/5x5_reduce"
  name: "inception_4c/5x5_reduce"
  type: CONVOLUTION
  blobs_lr: 1
  blobs_lr: 2
  weight_decay: 1
  weight_decay: 0
  convolution_param {
    num_output: 24
    kernel_size: 1
    weight_filler {
      type: "xavier"
      std: 0.2
    }
    bias_filler {
      type: "constant"
      value: 0.2
    }
  }
}
layers {
  bottom: "inception_4c/5x5_reduce"
  top: "inception_4c/5x5_reduce"
  name: "inception_4c/relu_5x5_reduce"
  type: RELU
}
layers {
  bottom: "inception_4c/5x5_reduce"
  top: "inception_4c/5x5"
  name: "inception_4c/5x5"
  type: CONVOLUTION
  blobs_lr: 1
  blobs_lr: 2
  weight_decay: 1
  weight_decay: 0
  convolution_param {
    num_output: 64
    pad: 2
    kernel_size: 5
    weight_filler {
      type: "xavier"
      std: 0.03
    }
    bias_filler {
      type: "constant"
      value: 0.2
    }
  }
}
layers {
  bottom: "inception_4c/5x5"
  top: "inception_4c/5x5"
  name: "inception_4c/relu_5x5"
  type: RELU
}
layers {
  bottom: "inception_4b/output"
  top: "inception_4c/pool"
  name: "inception_4c/pool"
  type: POOLING
  pooling_param {
    pool: MAX
    kernel_size: 3
    stride: 1
    pad: 1
  }
}
layers {
  bottom: "inception_4c/pool"
  top: "inception_4c/pool_proj"
  name: "inception_4c/pool_proj"
  type: CONVOLUTION
  blobs_lr: 1
  blobs_lr: 2
  weight_decay: 1
  weight_decay: 0
  convolution_param {
    num_output: 64
    kernel_size: 1
    weight_filler {
      type: "xavier"
      std: 0.1
    }
    bias_filler {
      type: "constant"
      value: 0.2
    }
  }
}
layers {
  bottom: "inception_4c/pool_proj"
  top: "inception_4c/pool_proj"
  name: "inception_4c/relu_pool_proj"
  type: RELU
}
layers {
  bottom: "inception_4c/1x1"
  bottom: "inception_4c/3x3"
  bottom: "inception_4c/5x5"
  bottom: "inception_4c/pool_proj"
  top: "inception_4c/output"
  name: "inception_4c/output"
  type: CONCAT
}
layers {
  bottom: "inception_4c/output"
  top: "inception_4d/1x1"
  name: "inception_4d/1x1"
  type: CONVOLUTION
  blobs_lr: 1
  blobs_lr: 2
  weight_decay: 1
  weight_decay: 0
  convolution_param {
    num_output: 112
    kernel_size: 1
    weight_filler {
      type: "xavier"
      std: 0.03
    }
    bias_filler {
      type: "constant"
      value: 0.2
    }
  }
}
layers {
  bottom: "inception_4d/1x1"
  top: "inception_4d/1x1"
  name: "inception_4d/relu_1x1"
  type: RELU
}
layers {
  bottom: "inception_4c/output"
  top: "inception_4d/3x3_reduce"
  name: "inception_4d/3x3_reduce"
  type: CONVOLUTION
  blobs_lr: 1
  blobs_lr: 2
  weight_decay: 1
  weight_decay: 0
  convolution_param {
    num_output: 144
    kernel_size: 1
    weight_filler {
      type: "xavier"
      std: 0.09
    }
    bias_filler {
      type: "constant"
      value: 0.2
    }
  }
}
layers {
  bottom: "inception_4d/3x3_reduce"
  top: "inception_4d/3x3_reduce"
  name: "inception_4d/relu_3x3_reduce"
  type: RELU
}
layers {
  bottom: "inception_4d/3x3_reduce"
  top: "inception_4d/3x3"
  name: "inception_4d/3x3"
  type: CONVOLUTION
  blobs_lr: 1
  blobs_lr: 2
  weight_decay: 1
  weight_decay: 0
  convolution_param {
    num_output: 288
    pad: 1
    kernel_size: 3
    weight_filler {
      type: "xavier"
      std: 0.03
    }
    bias_filler {
      type: "constant"
      value: 0.2
    }
  }
}
layers {
  bottom: "inception_4d/3x3"
  top: "inception_4d/3x3"
  name: "inception_4d/relu_3x3"
  type: RELU
}
layers {
  bottom: "inception_4c/output"
  top: "inception_4d/5x5_reduce"
  name: "inception_4d/5x5_reduce"
  type: CONVOLUTION
  blobs_lr: 1
  blobs_lr: 2
  weight_decay: 1
  weight_decay: 0
  convolution_param {
    num_output: 32
    kernel_size: 1
    weight_filler {
      type: "xavier"
      std: 0.2
    }
    bias_filler {
      type: "constant"
      value: 0.2
    }
  }
}
layers {
  bottom: "inception_4d/5x5_reduce"
  top: "inception_4d/5x5_reduce"
  name: "inception_4d/relu_5x5_reduce"
  type: RELU
}
layers {
  bottom: "inception_4d/5x5_reduce"
  top: "inception_4d/5x5"
  name: "inception_4d/5x5"
  type: CONVOLUTION
  blobs_lr: 1
  blobs_lr: 2
  weight_decay: 1
  weight_decay: 0
  convolution_param {
    num_output: 64
    pad: 2
    kernel_size: 5
    weight_filler {
      type: "xavier"
      std: 0.03
    }
    bias_filler {
      type: "constant"
      value: 0.2
    }
  }
}
layers {
  bottom: "inception_4d/5x5"
  top: "inception_4d/5x5"
  name: "inception_4d/relu_5x5"
  type: RELU
}
layers {
  bottom: "inception_4c/output"
  top: "inception_4d/pool"
  name: "inception_4d/pool"
  type: POOLING
  pooling_param {
    pool: MAX
    kernel_size: 3
    stride: 1
    pad: 1
  }
}
layers {
  bottom: "inception_4d/pool"
  top: "inception_4d/pool_proj"
  name: "inception_4d/pool_proj"
  type: CONVOLUTION
  blobs_lr: 1
  blobs_lr: 2
  weight_decay: 1
  weight_decay: 0
  convolution_param {
    num_output: 64
    kernel_size: 1
    weight_filler {
      type: "xavier"
      std: 0.1
    }
    bias_filler {
      type: "constant"
      value: 0.2
    }
  }
}
layers {
  bottom: "inception_4d/pool_proj"
  top: "inception_4d/pool_proj"
  name: "inception_4d/relu_pool_proj"
  type: RELU
}
layers {
  bottom: "inception_4d/1x1"
  bottom: "inception_4d/3x3"
  bottom: "inception_4d/5x5"
  bottom: "inception_4d/pool_proj"
  top: "inception_4d/output"
  name: "inception_4d/output"
  type: CONCAT
}
layers {
  bottom: "inception_4d/output"
  top: "loss2/ave_pool"
  name: "loss2/ave_pool"
  type: POOLING
  pooling_param {
    pool: AVE
    kernel_size: 5
    stride: 3
  }
}
layers {
  bottom: "loss2/ave_pool"
  top: "loss2/conv"
  name: "loss2/conv"
  type: CONVOLUTION
  blobs_lr: 1
  blobs_lr: 2
  weight_decay: 1
  weight_decay: 0
  convolution_param {
    num_output: 128
    kernel_size: 1
    weight_filler {
      type: "xavier"
      std: 0.08
    }
    bias_filler {
      type: "constant"
      value: 0.2
    }
  }
}
layers {
  bottom: "loss2/conv"
  top: "loss2/conv"
  name: "loss2/relu_conv"
  type: RELU
}
layers {
  bottom: "loss2/conv"
  top: "loss2/fc"
  name: "loss2/fc"
  type: INNER_PRODUCT
  blobs_lr: 1
  blobs_lr: 2
  weight_decay: 1
  weight_decay: 0
  inner_product_param {
    num_output: 1024
    weight_filler {
      type: "xavier"
      std: 0.02
    }
    bias_filler {
      type: "constant"
      value: 0.2
    }
  }
}
layers {
  bottom: "loss2/fc"
  top: "loss2/fc"
  name: "loss2/relu_fc"
  type: RELU
}
layers {
  bottom: "loss2/fc"
  top: "loss2/fc"
  name: "loss2/drop_fc"
  type: DROPOUT
  dropout_param {
    dropout_ratio: 0.7
  }
}
layers {
  bottom: "loss2/fc"
  top: "loss2/classifier"
  name: "loss2/classifier"
  type: INNER_PRODUCT
  blobs_lr: 1
  blobs_lr: 2
  weight_decay: 1
  weight_decay: 0
  inner_product_param {
    num_output: 121
    weight_filler {
      type: "xavier"
      std: 0.0009765625
    }
    bias_filler {
      type: "constant"
      value: 0
    }
  }
}
layers {
  bottom: "loss2/classifier"
  bottom: "label"
  top: "loss2/loss1"
  name: "loss2/loss"
  type: SOFTMAX_LOSS
  loss_weight: 0.3
}
layers {
  bottom: "loss2/classifier"
  bottom: "label"
  top: "loss2/top-1"
  name: "loss2/top-1"
  type: ACCURACY
  include {
    phase: TEST
  }
}
layers {
  bottom: "loss2/classifier"
  bottom: "label"
  top: "loss2/top-5"
  name: "loss2/top-5"
  type: ACCURACY
  accuracy_param {
    top_k: 5
  }
  include {
    phase: TEST
  }
}
layers {
  bottom: "inception_4d/output"
  top: "inception_4e/1x1"
  name: "inception_4e/1x1"
  type: CONVOLUTION
  blobs_lr: 1
  blobs_lr: 2
  weight_decay: 1
  weight_decay: 0
  convolution_param {
    num_output: 256
    kernel_size: 1
    weight_filler {
      type: "xavier"
      std: 0.03
    }
    bias_filler {
      type: "constant"
      value: 0.2
    }
  }
}
layers {
  bottom: "inception_4e/1x1"
  top: "inception_4e/1x1"
  name: "inception_4e/relu_1x1"
  type: RELU
}
layers {
  bottom: "inception_4d/output"
  top: "inception_4e/3x3_reduce"
  name: "inception_4e/3x3_reduce"
  type: CONVOLUTION
  blobs_lr: 1
  blobs_lr: 2
  weight_decay: 1
  weight_decay: 0
  convolution_param {
    num_output: 160
    kernel_size: 1
    weight_filler {
      type: "xavier"
      std: 0.09
    }
    bias_filler {
      type: "constant"
      value: 0.2
    }
  }
}
layers {
  bottom: "inception_4e/3x3_reduce"
  top: "inception_4e/3x3_reduce"
  name: "inception_4e/relu_3x3_reduce"
  type: RELU
}
layers {
  bottom: "inception_4e/3x3_reduce"
  top: "inception_4e/3x3"
  name: "inception_4e/3x3"
  type: CONVOLUTION
  blobs_lr: 1
  blobs_lr: 2
  weight_decay: 1
  weight_decay: 0
  convolution_param {
    num_output: 320
    pad: 1
    kernel_size: 3
    weight_filler {
      type: "xavier"
      std: 0.03
    }
    bias_filler {
      type: "constant"
      value: 0.2
    }
  }
}
layers {
  bottom: "inception_4e/3x3"
  top: "inception_4e/3x3"
  name: "inception_4e/relu_3x3"
  type: RELU
}
layers {
  bottom: "inception_4d/output"
  top: "inception_4e/5x5_reduce"
  name: "inception_4e/5x5_reduce"
  type: CONVOLUTION
  blobs_lr: 1
  blobs_lr: 2
  weight_decay: 1
  weight_decay: 0
  convolution_param {
    num_output: 32
    kernel_size: 1
    weight_filler {
      type: "xavier"
      std: 0.2
    }
    bias_filler {
      type: "constant"
      value: 0.2
    }
  }
}
layers {
  bottom: "inception_4e/5x5_reduce"
  top: "inception_4e/5x5_reduce"
  name: "inception_4e/relu_5x5_reduce"
  type: RELU
}
layers {
  bottom: "inception_4e/5x5_reduce"
  top: "inception_4e/5x5"
  name: "inception_4e/5x5"
  type: CONVOLUTION
  blobs_lr: 1
  blobs_lr: 2
  weight_decay: 1
  weight_decay: 0
  convolution_param {
    num_output: 128
    pad: 2
    kernel_size: 5
    weight_filler {
      type: "xavier"
      std: 0.03
    }
    bias_filler {
      type: "constant"
      value: 0.2
    }
  }
}
layers {
  bottom: "inception_4e/5x5"
  top: "inception_4e/5x5"
  name: "inception_4e/relu_5x5"
  type: RELU
}
layers {
  bottom: "inception_4d/output"
  top: "inception_4e/pool"
  name: "inception_4e/pool"
  type: POOLING
  pooling_param {
    pool: MAX
    kernel_size: 3
    stride: 1
    pad: 1
  }
}
layers {
  bottom: "inception_4e/pool"
  top: "inception_4e/pool_proj"
  name: "inception_4e/pool_proj"
  type: CONVOLUTION
  blobs_lr: 1
  blobs_lr: 2
  weight_decay: 1
  w
I0309 00:27:49.205036 29592 net.cpp:67] Creating Layer data
I0309 00:27:49.205047 29592 net.cpp:356] data -> data
I0309 00:27:49.205056 29592 net.cpp:356] data -> label
I0309 00:27:49.205065 29592 net.cpp:96] Setting up data
I0309 00:27:49.205113 29592 data_layer.cpp:68] Opening lmdb data/256_scale_aug2/val_lmdb
I0309 00:27:49.205174 29592 data_layer.cpp:128] output data size: 50,1,224,224
I0309 00:27:49.205183 29592 base_data_layer.cpp:36] Loading mean file fromdata/256_scale_aug2/val_mean.binaryproto
I0309 00:27:49.208742 29592 net.cpp:103] Top shape: 50 1 224 224 (2508800)
I0309 00:27:49.208757 29592 net.cpp:103] Top shape: 50 1 1 1 (50)
I0309 00:27:49.208766 29592 net.cpp:67] Creating Layer label_data_1_split
I0309 00:27:49.208786 29592 net.cpp:394] label_data_1_split <- label
I0309 00:27:49.208796 29592 net.cpp:356] label_data_1_split -> label_data_1_split_0
I0309 00:27:49.208804 29592 net.cpp:356] label_data_1_split -> label_data_1_split_1
I0309 00:27:49.208811 29592 net.cpp:356] label_data_1_split -> label_data_1_split_2
I0309 00:27:49.208818 29592 net.cpp:356] label_data_1_split -> label_data_1_split_3
I0309 00:27:49.208828 29592 net.cpp:356] label_data_1_split -> label_data_1_split_4
I0309 00:27:49.208834 29592 net.cpp:356] label_data_1_split -> label_data_1_split_5
I0309 00:27:49.208840 29592 net.cpp:356] label_data_1_split -> label_data_1_split_6
I0309 00:27:49.208847 29592 net.cpp:356] label_data_1_split -> label_data_1_split_7
I0309 00:27:49.208853 29592 net.cpp:356] label_data_1_split -> label_data_1_split_8
I0309 00:27:49.208859 29592 net.cpp:96] Setting up label_data_1_split
I0309 00:27:49.208866 29592 net.cpp:103] Top shape: 50 1 1 1 (50)
I0309 00:27:49.208870 29592 net.cpp:103] Top shape: 50 1 1 1 (50)
I0309 00:27:49.208874 29592 net.cpp:103] Top shape: 50 1 1 1 (50)
I0309 00:27:49.208878 29592 net.cpp:103] Top shape: 50 1 1 1 (50)
I0309 00:27:49.208883 29592 net.cpp:103] Top shape: 50 1 1 1 (50)
I0309 00:27:49.208885 29592 net.cpp:103] Top shape: 50 1 1 1 (50)
I0309 00:27:49.208889 29592 net.cpp:103] Top shape: 50 1 1 1 (50)
I0309 00:27:49.208894 29592 net.cpp:103] Top shape: 50 1 1 1 (50)
I0309 00:27:49.208897 29592 net.cpp:103] Top shape: 50 1 1 1 (50)
I0309 00:27:49.208904 29592 net.cpp:67] Creating Layer conv1/7x7_s2
I0309 00:27:49.208909 29592 net.cpp:394] conv1/7x7_s2 <- data
I0309 00:27:49.208915 29592 net.cpp:356] conv1/7x7_s2 -> conv1/7x7_s2
I0309 00:27:49.208922 29592 net.cpp:96] Setting up conv1/7x7_s2
I0309 00:27:49.209020 29592 net.cpp:103] Top shape: 50 64 112 112 (40140800)
I0309 00:27:49.209036 29592 net.cpp:67] Creating Layer conv1/relu_7x7
I0309 00:27:49.209041 29592 net.cpp:394] conv1/relu_7x7 <- conv1/7x7_s2
I0309 00:27:49.209048 29592 net.cpp:345] conv1/relu_7x7 -> conv1/7x7_s2 (in-place)
I0309 00:27:49.209053 29592 net.cpp:96] Setting up conv1/relu_7x7
I0309 00:27:49.209060 29592 net.cpp:103] Top shape: 50 64 112 112 (40140800)
I0309 00:27:49.209067 29592 net.cpp:67] Creating Layer pool1/3x3_s2
I0309 00:27:49.209071 29592 net.cpp:394] pool1/3x3_s2 <- conv1/7x7_s2
I0309 00:27:49.209077 29592 net.cpp:356] pool1/3x3_s2 -> pool1/3x3_s2
I0309 00:27:49.209084 29592 net.cpp:96] Setting up pool1/3x3_s2
I0309 00:27:49.209090 29592 net.cpp:103] Top shape: 50 64 56 56 (10035200)
I0309 00:27:49.209097 29592 net.cpp:67] Creating Layer pool1/norm1
I0309 00:27:49.209101 29592 net.cpp:394] pool1/norm1 <- pool1/3x3_s2
I0309 00:27:49.209106 29592 net.cpp:356] pool1/norm1 -> pool1/norm1
I0309 00:27:49.209112 29592 net.cpp:96] Setting up pool1/norm1
I0309 00:27:49.209117 29592 net.cpp:103] Top shape: 50 64 56 56 (10035200)
I0309 00:27:49.209123 29592 net.cpp:67] Creating Layer conv2/3x3_reduce
I0309 00:27:49.209127 29592 net.cpp:394] conv2/3x3_reduce <- pool1/norm1
I0309 00:27:49.209133 29592 net.cpp:356] conv2/3x3_reduce -> conv2/3x3_reduce
I0309 00:27:49.209139 29592 net.cpp:96] Setting up conv2/3x3_reduce
I0309 00:27:49.209317 29592 net.cpp:103] Top shape: 50 64 56 56 (10035200)
I0309 00:27:49.209333 29592 net.cpp:67] Creating Layer conv2/relu_3x3_reduce
I0309 00:27:49.209339 29592 net.cpp:394] conv2/relu_3x3_reduce <- conv2/3x3_reduce
I0309 00:27:49.209345 29592 net.cpp:345] conv2/relu_3x3_reduce -> conv2/3x3_reduce (in-place)
I0309 00:27:49.209352 29592 net.cpp:96] Setting up conv2/relu_3x3_reduce
I0309 00:27:49.209357 29592 net.cpp:103] Top shape: 50 64 56 56 (10035200)
I0309 00:27:49.209364 29592 net.cpp:67] Creating Layer conv2/3x3
I0309 00:27:49.209368 29592 net.cpp:394] conv2/3x3 <- conv2/3x3_reduce
I0309 00:27:49.209374 29592 net.cpp:356] conv2/3x3 -> conv2/3x3
I0309 00:27:49.209381 29592 net.cpp:96] Setting up conv2/3x3
I0309 00:27:49.210348 29592 net.cpp:103] Top shape: 50 192 56 56 (30105600)
I0309 00:27:49.210364 29592 net.cpp:67] Creating Layer conv2/relu_3x3
I0309 00:27:49.210381 29592 net.cpp:394] conv2/relu_3x3 <- conv2/3x3
I0309 00:27:49.210388 29592 net.cpp:345] conv2/relu_3x3 -> conv2/3x3 (in-place)
I0309 00:27:49.210396 29592 net.cpp:96] Setting up conv2/relu_3x3
I0309 00:27:49.210402 29592 net.cpp:103] Top shape: 50 192 56 56 (30105600)
I0309 00:27:49.210408 29592 net.cpp:67] Creating Layer conv2/norm2
I0309 00:27:49.210412 29592 net.cpp:394] conv2/norm2 <- conv2/3x3
I0309 00:27:49.210417 29592 net.cpp:356] conv2/norm2 -> conv2/norm2
I0309 00:27:49.210424 29592 net.cpp:96] Setting up conv2/norm2
I0309 00:27:49.210429 29592 net.cpp:103] Top shape: 50 192 56 56 (30105600)
I0309 00:27:49.210435 29592 net.cpp:67] Creating Layer pool2/3x3_s2
I0309 00:27:49.210439 29592 net.cpp:394] pool2/3x3_s2 <- conv2/norm2
I0309 00:27:49.210444 29592 net.cpp:356] pool2/3x3_s2 -> pool2/3x3_s2
I0309 00:27:49.210450 29592 net.cpp:96] Setting up pool2/3x3_s2
I0309 00:27:49.210458 29592 net.cpp:103] Top shape: 50 192 28 28 (7526400)
I0309 00:27:49.210464 29592 net.cpp:67] Creating Layer pool2/3x3_s2_pool2/3x3_s2_0_split
I0309 00:27:49.210468 29592 net.cpp:394] pool2/3x3_s2_pool2/3x3_s2_0_split <- pool2/3x3_s2
I0309 00:27:49.210472 29592 net.cpp:356] pool2/3x3_s2_pool2/3x3_s2_0_split -> pool2/3x3_s2_pool2/3x3_s2_0_split_0
I0309 00:27:49.210479 29592 net.cpp:356] pool2/3x3_s2_pool2/3x3_s2_0_split -> pool2/3x3_s2_pool2/3x3_s2_0_split_1
I0309 00:27:49.210486 29592 net.cpp:356] pool2/3x3_s2_pool2/3x3_s2_0_split -> pool2/3x3_s2_pool2/3x3_s2_0_split_2
I0309 00:27:49.210492 29592 net.cpp:356] pool2/3x3_s2_pool2/3x3_s2_0_split -> pool2/3x3_s2_pool2/3x3_s2_0_split_3
I0309 00:27:49.210497 29592 net.cpp:96] Setting up pool2/3x3_s2_pool2/3x3_s2_0_split
I0309 00:27:49.210502 29592 net.cpp:103] Top shape: 50 192 28 28 (7526400)
I0309 00:27:49.210506 29592 net.cpp:103] Top shape: 50 192 28 28 (7526400)
I0309 00:27:49.210510 29592 net.cpp:103] Top shape: 50 192 28 28 (7526400)
I0309 00:27:49.210515 29592 net.cpp:103] Top shape: 50 192 28 28 (7526400)
I0309 00:27:49.210520 29592 net.cpp:67] Creating Layer inception_3a/1x1
I0309 00:27:49.210525 29592 net.cpp:394] inception_3a/1x1 <- pool2/3x3_s2_pool2/3x3_s2_0_split_0
I0309 00:27:49.210530 29592 net.cpp:356] inception_3a/1x1 -> inception_3a/1x1
I0309 00:27:49.210536 29592 net.cpp:96] Setting up inception_3a/1x1
I0309 00:27:49.210667 29592 net.cpp:103] Top shape: 50 64 28 28 (2508800)
I0309 00:27:49.210680 29592 net.cpp:67] Creating Layer inception_3a/relu_1x1
I0309 00:27:49.210685 29592 net.cpp:394] inception_3a/relu_1x1 <- inception_3a/1x1
I0309 00:27:49.210690 29592 net.cpp:345] inception_3a/relu_1x1 -> inception_3a/1x1 (in-place)
I0309 00:27:49.210696 29592 net.cpp:96] Setting up inception_3a/relu_1x1
I0309 00:27:49.210702 29592 net.cpp:103] Top shape: 50 64 28 28 (2508800)
I0309 00:27:49.210708 29592 net.cpp:67] Creating Layer inception_3a/3x3_reduce
I0309 00:27:49.210712 29592 net.cpp:394] inception_3a/3x3_reduce <- pool2/3x3_s2_pool2/3x3_s2_0_split_1
I0309 00:27:49.210718 29592 net.cpp:356] inception_3a/3x3_reduce -> inception_3a/3x3_reduce
I0309 00:27:49.210726 29592 net.cpp:96] Setting up inception_3a/3x3_reduce
I0309 00:27:49.210894 29592 net.cpp:103] Top shape: 50 96 28 28 (3763200)
I0309 00:27:49.210908 29592 net.cpp:67] Creating Layer inception_3a/relu_3x3_reduce
I0309 00:27:49.210913 29592 net.cpp:394] inception_3a/relu_3x3_reduce <- inception_3a/3x3_reduce
I0309 00:27:49.210919 29592 net.cpp:345] inception_3a/relu_3x3_reduce -> inception_3a/3x3_reduce (in-place)
I0309 00:27:49.210929 29592 net.cpp:96] Setting up inception_3a/relu_3x3_reduce
I0309 00:27:49.210935 29592 net.cpp:103] Top shape: 50 96 28 28 (3763200)
I0309 00:27:49.210942 29592 net.cpp:67] Creating Layer inception_3a/3x3
I0309 00:27:49.210947 29592 net.cpp:394] inception_3a/3x3 <- inception_3a/3x3_reduce
I0309 00:27:49.210952 29592 net.cpp:356] inception_3a/3x3 -> inception_3a/3x3
I0309 00:27:49.210959 29592 net.cpp:96] Setting up inception_3a/3x3
I0309 00:27:49.211951 29592 net.cpp:103] Top shape: 50 128 28 28 (5017600)
I0309 00:27:49.211973 29592 net.cpp:67] Creating Layer inception_3a/relu_3x3
I0309 00:27:49.211998 29592 net.cpp:394] inception_3a/relu_3x3 <- inception_3a/3x3
I0309 00:27:49.212007 29592 net.cpp:345] inception_3a/relu_3x3 -> inception_3a/3x3 (in-place)
I0309 00:27:49.212013 29592 net.cpp:96] Setting up inception_3a/relu_3x3
I0309 00:27:49.212019 29592 net.cpp:103] Top shape: 50 128 28 28 (5017600)
I0309 00:27:49.212026 29592 net.cpp:67] Creating Layer inception_3a/5x5_reduce
I0309 00:27:49.212030 29592 net.cpp:394] inception_3a/5x5_reduce <- pool2/3x3_s2_pool2/3x3_s2_0_split_2
I0309 00:27:49.212036 29592 net.cpp:356] inception_3a/5x5_reduce -> inception_3a/5x5_reduce
I0309 00:27:49.212044 29592 net.cpp:96] Setting up inception_3a/5x5_reduce
I0309 00:27:49.212189 29592 net.cpp:103] Top shape: 50 16 28 28 (627200)
I0309 00:27:49.212211 29592 net.cpp:67] Creating Layer inception_3a/relu_5x5_reduce
I0309 00:27:49.212218 29592 net.cpp:394] inception_3a/relu_5x5_reduce <- inception_3a/5x5_reduce
I0309 00:27:49.212224 29592 net.cpp:345] inception_3a/relu_5x5_reduce -> inception_3a/5x5_reduce (in-place)
I0309 00:27:49.212229 29592 net.cpp:96] Setting up inception_3a/relu_5x5_reduce
I0309 00:27:49.212236 29592 net.cpp:103] Top shape: 50 16 28 28 (627200)
I0309 00:27:49.212244 29592 net.cpp:67] Creating Layer inception_3a/5x5
I0309 00:27:49.212247 29592 net.cpp:394] inception_3a/5x5 <- inception_3a/5x5_reduce
I0309 00:27:49.212254 29592 net.cpp:356] inception_3a/5x5 -> inception_3a/5x5
I0309 00:27:49.212260 29592 net.cpp:96] Setting up inception_3a/5x5
I0309 00:27:49.212399 29592 net.cpp:103] Top shape: 50 32 28 28 (1254400)
I0309 00:27:49.212417 29592 net.cpp:67] Creating Layer inception_3a/relu_5x5
I0309 00:27:49.212424 29592 net.cpp:394] inception_3a/relu_5x5 <- inception_3a/5x5
I0309 00:27:49.212429 29592 net.cpp:345] inception_3a/relu_5x5 -> inception_3a/5x5 (in-place)
I0309 00:27:49.212435 29592 net.cpp:96] Setting up inception_3a/relu_5x5
I0309 00:27:49.212441 29592 net.cpp:103] Top shape: 50 32 28 28 (1254400)
I0309 00:27:49.212448 29592 net.cpp:67] Creating Layer inception_3a/pool
I0309 00:27:49.212452 29592 net.cpp:394] inception_3a/pool <- pool2/3x3_s2_pool2/3x3_s2_0_split_3
I0309 00:27:49.212458 29592 net.cpp:356] inception_3a/pool -> inception_3a/pool
I0309 00:27:49.212465 29592 net.cpp:96] Setting up inception_3a/pool
I0309 00:27:49.212471 29592 net.cpp:103] Top shape: 50 192 28 28 (7526400)
I0309 00:27:49.212478 29592 net.cpp:67] Creating Layer inception_3a/pool_proj
I0309 00:27:49.212502 29592 net.cpp:394] inception_3a/pool_proj <- inception_3a/pool
I0309 00:27:49.212514 29592 net.cpp:356] inception_3a/pool_proj -> inception_3a/pool_proj
I0309 00:27:49.212527 29592 net.cpp:96] Setting up inception_3a/pool_proj
I0309 00:27:49.212616 29592 net.cpp:103] Top shape: 50 32 28 28 (1254400)
I0309 00:27:49.212636 29592 net.cpp:67] Creating Layer inception_3a/relu_pool_proj
…
I0309 00:27:49.240309 29592 net.cpp:103] Top shape: 50 160 14 14 (1568000)
I0309 00:27:49.240319 29592 net.cpp:67] Creating Layer inception_4b/3x3_reduce
I0309 00:27:49.240322 29592 net.cpp:394] inception_4b/3x3_reduce <- inception_4a/output_inception_4a/output_0_split_2
I0309 00:27:49.240329 29592 net.cpp:356] inception_4b/3x3_reduce -> inception_4b/3x3_reduce
I0309 00:27:49.240336 29592 net.cpp:96] Setting up inception_4b/3x3_reduce
I0309 00:27:49.240874 29592 net.cpp:103] Top shape: 50 112 14 14 (1097600)
I0309 00:27:49.240896 29592 net.cpp:67] Creating Layer inception_4b/relu_3x3_reduce
I0309 00:27:49.240902 29592 net.cpp:394] inception_4b/relu_3x3_reduce <- inception_4b/3x3_reduce
I0309 00:27:49.240908 29592 net.cpp:345] inception_4b/relu_3x3_reduce -> inception_4b/3x3_reduce (in-place)
I0309 00:27:49.240916 29592 net.cpp:96] Setting up inception_4b/relu_3x3_reduce
I0309 00:27:49.240921 29592 net.cpp:103] Top shape: 50 112 14 14 (1097600)
I0309 00:27:49.240931 29592 net.cpp:67] Creating Layer inception_4b/3x3
I0309 00:27:49.240936 29592 net.cpp:394] inception_4b/3x3 <- inception_4b/3x3_reduce
I0309 00:27:49.240942 29592 net.cpp:356] inception_4b/3x3 -> inception_4b/3x3
I0309 00:27:49.240947 29592 net.cpp:96] Setting up inception_4b/3x3
I0309 00:27:49.242861 29592 net.cpp:103] Top shape: 50 224 14 14 (2195200)
I0309 00:27:49.242882 29592 net.cpp:67] Creating Layer inception_4b/relu_3x3
I0309 00:27:49.242887 29592 net.cpp:394] inception_4b/relu_3x3 <- inception_4b/3x3
I0309 00:27:49.242893 29592 net.cpp:345] inception_4b/relu_3x3 -> inception_4b/3x3 (in-place)
I0309 00:27:49.242899 29592 net.cpp:96] Setting up inception_4b/relu_3x3
I0309 00:27:49.242907 29592 net.cpp:103] Top shape: 50 224 14 14 (2195200)
I0309 00:27:49.242913 29592 net.cpp:67] Creating Layer inception_4b/5x5_reduce
I0309 00:27:49.242918 29592 net.cpp:394] inception_4b/5x5_reduce <- inception_4a/output_inception_4a/output_0_split_3
I0309 00:27:49.242924 29592 net.cpp:356] inception_4b/5x5_reduce -> inception_4b/5x5_reduce
I0309 00:27:49.242930 29592 net.cpp:96] Setting up inception_4b/5x5_reduce
I0309 00:27:49.243082 29592 net.cpp:103] Top shape: 50 24 14 14 (235200)
I0309 00:27:49.243103 29592 net.cpp:67] Creating Layer inception_4b/relu_5x5_reduce
I0309 00:27:49.243108 29592 net.cpp:394] inception_4b/relu_5x5_reduce <- inception_4b/5x5_reduce
I0309 00:27:49.243114 29592 net.cpp:345] inception_4b/relu_5x5_reduce -> inception_4b/5x5_reduce (in-place)
I0309 00:27:49.243123 29592 net.cpp:96] Setting up inception_4b/relu_5x5_reduce
I0309 00:27:49.243129 29592 net.cpp:103] Top shape: 50 24 14 14 (235200)
I0309 00:27:49.243135 29592 net.cpp:67] Creating Layer inception_4b/5x5
I0309 00:27:49.243139 29592 net.cpp:394] inception_4b/5x5 <- inception_4b/5x5_reduce
I0309 00:27:49.243145 29592 net.cpp:356] inception_4b/5x5 -> inception_4b/5x5
I0309 00:27:49.243151 29592 net.cpp:96] Setting up inception_4b/5x5
I0309 00:27:49.243608 29592 net.cpp:103] Top shape: 50 64 14 14 (627200)
I0309 00:27:49.243634 29592 net.cpp:67] Creating Layer inception_4b/relu_5x5
I0309 00:27:49.243640 29592 net.cpp:394] inception_4b/relu_5x5 <- inception_4b/5x5
I0309 00:27:49.243646 29592 net.cpp:345] inception_4b/relu_5x5 -> inception_4b/5x5 (in-place)
I0309 00:27:49.243652 29592 net.cpp:96] Setting up inception_4b/relu_5x5
I0309 00:27:49.243659 29592 net.cpp:103] Top shape: 50 64 14 14 (627200)
I0309 00:27:49.243665 29592 net.cpp:67] Creating Layer inception_4b/pool
I0309 00:27:49.243690 29592 net.cpp:394] inception_4b/pool <- inception_4a/output_inception_4a/output_0_split_4
I0309 00:27:49.243713 29592 net.cpp:356] inception_4b/pool -> inception_4b/pool
I0309 00:27:49.243722 29592 net.cpp:96] Setting up inception_4b/pool
I0309 00:27:49.243731 29592 net.cpp:103] Top shape: 50 512 14 14 (5017600)
I0309 00:27:49.243742 29592 net.cpp:67] Creating Layer inception_4b/pool_proj
I0309 00:27:49.243746 29592 net.cpp:394] inception_4b/pool_proj <- inception_4b/pool
I0309 00:27:49.243755 29592 net.cpp:356] inception_4b/pool_proj -> inception_4b/pool_proj
I0309 00:27:49.243762 29592 net.cpp:96] Setting up inception_4b/pool_proj
I0309 00:27:49.244084 29592 net.cpp:103] Top shape: 50 64 14 14 (627200)
I0309 00:27:49.244107 29592 net.cpp:67] Creating Layer inception_4b/relu_pool_proj
I0309 00:27:49.244112 29592 net.cpp:394] inception_4b/relu_pool_proj <- inception_4b/pool_proj
I0309 00:27:49.244118 29592 net.cpp:345] inception_4b/relu_pool_proj -> inception_4b/pool_proj (in-place)
I0309 00:27:49.244124 29592 net.cpp:96] Setting up inception_4b/relu_pool_proj
I0309 00:27:49.244132 29592 net.cpp:103] Top shape: 50 64 14 14 (627200)
I0309 00:27:49.244139 29592 net.cpp:67] Creating Layer inception_4b/output
I0309 00:27:49.244143 29592 net.cpp:394] inception_4b/output <- inception_4b/1x1
I0309 00:27:49.244148 29592 net.cpp:394] inception_4b/output <- inception_4b/3x3
I0309 00:27:49.244153 29592 net.cpp:394] inception_4b/output <- inception_4b/5x5
I0309 00:27:49.244158 29592 net.cpp:394] inception_4b/output <- inception_4b/pool_proj
I0309 00:27:49.244164 29592 net.cpp:356] inception_4b/output -> inception_4b/output
I0309 00:27:49.244170 29592 net.cpp:96] Setting up inception_4b/output
I0309 00:27:49.244174 29592 net.cpp:103] Top shape: 50 512 14 14 (5017600)
I0309 00:27:49.244180 29592 net.cpp:67] Creating Layer inception_4b/output_inception_4b/output_0_split
I0309 00:27:49.244185 29592 net.cpp:394] inception_4b/output_inception_4b/output_0_split <- inception_4b/output
I0309 00:27:49.244190 29592 net.cpp:356] inception_4b/output_inception_4b/output_0_split -> inception_4b/output_inception_4b/output_0_split_0
I0309 00:27:49.244200 29592 net.cpp:356] inception_4b/output_inception_4b/output_0_split -> inception_4b/output_inception_4b/output_0_split_1
I0309 00:27:49.244207 29592 net.cpp:356] inception_4b/output_inception_4b/output_0_split -> inception_4b/output_inception_4b/output_0_split_2
I0309 00:27:49.244215 29592 net.cpp:356] inception_4b/output_inception_4b/output_0_split -> inception_4b/output_inception_4b/output_0_split_3
I0309 00:27:49.244220 29592 net.cpp:96] Setting up inception_4b/output_inception_4b/output_0_split
I0309 00:27:49.244225 29592 net.cpp:103] Top shape: 50 512 14 14 (5017600)
I0309 00:27:49.244230 29592 net.cpp:103] Top shape: 50 512 14 14 (5017600)
I0309 00:27:49.244232 29592 net.cpp:103] Top shape: 50 512 14 14 (5017600)
I0309 00:27:49.244236 29592 net.cpp:103] Top shape: 50 512 14 14 (5017600)
I0309 00:27:49.244245 29592 net.cpp:67] Creating Layer inception_4c/1x1
I0309 00:27:49.244248 29592 net.cpp:394] inception_4c/1x1 <- inception_4b/output_inception_4b/output_0_split_0
I0309 00:27:49.244254 29592 net.cpp:356] inception_4c/1x1 -> inception_4c/1x1
I0309 00:27:49.244261 29592 net.cpp:96] Setting up inception_4c/1x1
I0309 00:27:49.244855 29592 net.cpp:103] Top shape: 50 128 14 14 (1254400)
I0309 00:27:49.244879 29592 net.cpp:67] Creating Layer inception_4c/relu_1x1
I0309 00:27:49.244884 29592 net.cpp:394] inception_4c/relu_1x1 <- inception_4c/1x1
I0309 00:27:49.244892 29592 net.cpp:345] inception_4c/relu_1x1 -> inception_4c/1x1 (in-place)
I0309 00:27:49.244899 29592 net.cpp:96] Setting up inception_4c/relu_1x1
I0309 00:27:49.244906 29592 net.cpp:103] Top shape: 50 128 14 14 (1254400)
I0309 00:27:49.244915 29592 net.cpp:67] Creating Layer inception_4c/3x3_reduce
I0309 00:27:49.244920 29592 net.cpp:394] inception_4c/3x3_reduce <- inception_4b/output_inception_4b/output_0_split_1
I0309 00:27:49.244925 29592 net.cpp:356] inception_4c/3x3_reduce -> inception_4c/3x3_reduce
I0309 00:27:49.244946 29592 net.cpp:96] Setting up inception_4c/3x3_reduce
I0309 00:27:49.245532 29592 net.cpp:103] Top shape: 50 128 14 14 (1254400)
I0309 00:27:49.245551 29592 net.cpp:67] Creating Layer inception_4c/relu_3x3_reduce
I0309 00:27:49.245558 29592 net.cpp:394] inception_4c/relu_3x3_reduce <- inception_4c/3x3_reduce
I0309 00:27:49.245563 29592 net.cpp:345] inception_4c/relu_3x3_reduce -> inception_4c/3x3_reduce (in-place)
I0309 00:27:49.245569 29592 net.cpp:96] Setting up inception_4c/relu_3x3_reduce
I0309 00:27:49.245576 29592 net.cpp:103] Top shape: 50 128 14 14 (1254400)
I0309 00:27:49.245585 29592 net.cpp:67] Creating Layer inception_4c/3x3
I0309 00:27:49.245589 29592 net.cpp:394] inception_4c/3x3 <- inception_4c/3x3_reduce
I0309 00:27:49.245595 29592 net.cpp:356] inception_4c/3x3 -> inception_4c/3x3
I0309 00:27:49.245602 29592 net.cpp:96] Setting up inception_4c/3x3
I0309 00:27:49.248049 29592 net.cpp:103] Top shape: 50 256 14 14 (2508800)
I0309 00:27:49.248081 29592 net.cpp:67] Creating Layer inception_4c/relu_3x3
I0309 00:27:49.248090 29592 net.cpp:394] inception_4c/relu_3x3 <- inception_4c/3x3
I0309 00:27:49.248095 29592 net.cpp:345] inception_4c/relu_3x3 -> inception_4c/3x3 (in-place)
I0309 00:27:49.248102 29592 net.cpp:96] Setting up inception_4c/relu_3x3
I0309 00:27:49.248109 29592 net.cpp:103] Top shape: 50 256 14 14 (2508800)
I0309 00:27:49.248116 29592 net.cpp:67] Creating Layer inception_4c/5x5_reduce
I0309 00:27:49.248121 29592 net.cpp:394] inception_4c/5x5_reduce <- inception_4b/output_inception_4b/output_0_split_2
I0309 00:27:49.248129 29592 net.cpp:356] inception_4c/5x5_reduce -> inception_4c/5x5_reduce
I0309 00:27:49.248136 29592 net.cpp:96] Setting up inception_4c/5x5_reduce
I0309 00:27:49.248363 29592 net.cpp:103] Top shape: 50 24 14 14 (235200)
I0309 00:27:49.248386 29592 net.cpp:67] Creating Layer inception_4c/relu_5x5_reduce
I0309 00:27:49.248392 29592 net.cpp:394] inception_4c/relu_5x5_reduce <- inception_4c/5x5_reduce
I0309 00:27:49.248399 29592 net.cpp:345] inception_4c/relu_5x5_reduce -> inception_4c/5x5_reduce (in-place)
I0309 00:27:49.248405 29592 net.cpp:96] Setting up inception_4c/relu_5x5_reduce
I0309 00:27:49.248412 29592 net.cpp:103] Top shape: 50 24 14 14 (235200)
I0309 00:27:49.248421 29592 net.cpp:67] Creating Layer inception_4c/5x5
I0309 00:27:49.248425 29592 net.cpp:394] inception_4c/5x5 <- inception_4c/5x5_reduce
I0309 00:27:49.248431 29592 net.cpp:356] inception_4c/5x5 -> inception_4c/5x5
I0309 00:27:49.248438 29592 net.cpp:96] Setting up inception_4c/5x5
I0309 00:27:49.248846 29592 net.cpp:103] Top shape: 50 64 14 14 (627200)
I0309 00:27:49.248867 29592 net.cpp:67] Creating Layer inception_4c/relu_5x5
I0309 00:27:49.248872 29592 net.cpp:394] inception_4c/relu_5x5 <- inception_4c/5x5
I0309 00:27:49.248878 29592 net.cpp:345] inception_4c/relu_5x5 -> inception_4c/5x5 (in-place)
I0309 00:27:49.248885 29592 net.cpp:96] Setting up inception_4c/relu_5x5
I0309 00:27:49.248891 29592 net.cpp:103] Top shape: 50 64 14 14 (627200)
I0309 00:27:49.248899 29592 net.cpp:67] Creating Layer inception_4c/pool
I0309 00:27:49.248904 29592 net.cpp:394] inception_4c/pool <- inception_4b/output_inception_4b/output_0_split_3
I0309 00:27:49.248910 29592 net.cpp:356] inception_4c/pool -> inception_4c/pool
I0309 00:27:49.248916 29592 net.cpp:96] Setting up inception_4c/pool
I0309 00:27:49.248924 29592 net.cpp:103] Top shape: 50 512 14 14 (5017600)
I0309 00:27:49.248934 29592 net.cpp:67] Creating Layer inception_4c/pool_proj
I0309 00:27:49.248939 29592 net.cpp:394] inception_4c/pool_proj <- inception_4c/pool
I0309 00:27:49.248944 29592 net.cpp:356] inception_4c/pool_proj -> inception_4c/pool_proj
I0309 00:27:49.248952 29592 net.cpp:96] Setting up inception_4c/pool_proj
I0309 00:27:49.249275 29592 net.cpp:103] Top shape: 50 64 14 14 (627200)
I0309 00:27:49.249299 29592 net.cpp:67] Creating Layer inception_4c/relu_pool_proj
I0309 00:27:49.249305 29592 net.cpp:394] inception_4c/relu_pool_proj <- inception_4c/pool_proj
I0309 00:27:49.249310 29592 net.cpp:345] inception_4c/relu_pool_proj -> inception_4c/pool_proj (in-place)
I0309 00:27:49.249332 29592 net.cpp:96] Setting up inception_4c/relu_pool_proj
I0309 00:27:49.249339 29592 net.cpp:103] Top shape: 50 64 14 14 (627200)
I0309 00:27:49.249351 29592 net.cpp:67] Creating Layer inception_4c/output
I0309 00:27:49.249354 29592 net.cpp:394] inception_4c/output <- inception_4c/1x1
I0309 00:27:49.249359 29592 net.cpp:394] inception_4c/output <- inception_4c/3x3
I0309 00:27:49.249364 29592 net.cpp:394] inception_4c/output <- inception_4c/5x5
I0309 00:27:49.249369 29592 net.cpp:394] inception_4c/output <- inception_4c/pool_proj
I0309 00:27:49.249375 29592 net.cpp:356] inception_4c/output -> inception_4c/output
I0309 00:27:49.249382 29592 net.cpp:96] Setting up inception_4c/output
I0309 00:27:49.249387 29592 net.cpp:103] Top shape: 50 512 14 14 (5017600)
I0309 00:27:49.249392 29592 net.cpp:67] Creating Layer inception_4c/output_inception_4c/output_0_split
I0309 00:27:49.249395 29592 net.cpp:394] inception_4c/output_inception_4c/output_0_split <- inception_4c/output
I0309 00:27:49.249402 29592 net.cpp:356] inception_4c/output_inception_4c/output_0_split -> inception_4c/output_inception_4c/output_0_split_0
I0309 00:27:49.249410 29592 net.cpp:356] inception_4c/output_inception_4c/output_0_split -> inception_4c/output_inception_4c/output_0_split_1
I0309 00:27:49.249416 29592 net.cpp:356] inception_4c/output_inception_4c/output_0_split -> inception_4c/output_inception_4c/output_0_split_2
I0309 00:27:49.249423 29592 net.cpp:356] inception_4c/output_inception_4c/output_0_split -> inception_4c/output_inception_4c/output_0_split_3
I0309 00:27:49.249429 29592 net.cpp:96] Setting up inception_4c/output_inception_4c/output_0_split
I0309 00:27:49.249434 29592 net.cpp:103] Top shape: 50 512 14 14 (5017600)
I0309 00:27:49.249438 29592 net.cpp:103] Top shape: 50 512 14 14 (5017600)
I0309 00:27:49.249441 29592 net.cpp:103] Top shape: 50 512 14 14 (5017600)
I0309 00:27:49.249445 29592 net.cpp:103] Top shape: 50 512 14 14 (5017600)
I0309 00:27:49.249454 29592 net.cpp:67] Creating Layer inception_4d/1x1
I0309 00:27:49.249457 29592 net.cpp:394] inception_4d/1x1 <- inception_4c/output_inception_4c/output_0_split_0
I0309 00:27:49.249464 29592 net.cpp:356] inception_4d/1x1 -> inception_4d/1x1
I0309 00:27:49.249469 29592 net.cpp:96] Setting up inception_4d/1x1
I0309 00:27:49.249982 29592 net.cpp:103] Top shape: 50 112 14 14 (1097600)
I0309 00:27:49.250006 29592 net.cpp:67] Creating Layer inception_4d/relu_1x1
I0309 00:27:49.250013 29592 net.cpp:394] inception_4d/relu_1x1 <- inception_4d/1x1
I0309 00:27:49.250020 29592 net.cpp:345] inception_4d/relu_1x1 -> inception_4d/1x1 (in-place)
I0309 00:27:49.250025 29592 net.cpp:96] Setting up inception_4d/relu_1x1
I0309 00:27:49.250032 29592 net.cpp:103] Top shape: 50 112 14 14 (1097600)
I0309 00:27:49.250041 29592 net.cpp:67] Creating Layer inception_4d/3x3_reduce
I0309 00:27:49.250046 29592 net.cpp:394] inception_4d/3x3_reduce <- inception_4c/output_inception_4c/output_0_split_1
I0309 00:27:49.250051 29592 net.cpp:356] inception_4d/3x3_reduce -> inception_4d/3x3_reduce
I0309 00:27:49.250057 29592 net.cpp:96] Setting up inception_4d/3x3_reduce
I0309 00:27:49.250726 29592 net.cpp:103] Top shape: 50 144 14 14 (1411200)
I0309 00:27:49.250748 29592 net.cpp:67] Creating Layer inception_4d/relu_3x3_reduce
I0309 00:27:49.250753 29592 net.cpp:394] inception_4d/relu_3x3_reduce <- inception_4d/3x3_reduce
I0309 00:27:49.250759 29592 net.cpp:345] inception_4d/relu_3x3_reduce -> inception_4d/3x3_reduce (in-place)
I0309 00:27:49.250766 29592 net.cpp:96] Setting up inception_4d/relu_3x3_reduce
I0309 00:27:49.250772 29592 net.cpp:103] Top shape: 50 144 14 14 (1411200)
I0309 00:27:49.250782 29592 net.cpp:67] Creating Layer inception_4d/3x3
I0309 00:27:49.250787 29592 net.cpp:394] inception_4d/3x3 <- inception_4d/3x3_reduce
I0309 00:27:49.250792 29592 net.cpp:356] inception_4d/3x3 -> inception_4d/3x3
I0309 00:27:49.250799 29592 net.cpp:96] Setting up inception_4d/3x3
I0309 00:27:49.253999 29592 net.cpp:103] Top shape: 50 288 14 14 (2822400)
I0309 00:27:49.254024 29592 net.cpp:67] Creating Layer inception_4d/relu_3x3
I0309 00:27:49.254051 29592 net.cpp:394] inception_4d/relu_3x3 <- inception_4d/3x3
I0309 00:27:49.254061 29592 net.cpp:345] inception_4d/relu_3x3 -> inception_4d/3x3 (in-place)
I0309 00:27:49.254068 29592 net.cpp:96] Setting up inception_4d/relu_3x3
I0309 00:27:49.254076 29592 net.cpp:103] Top shape: 50 288 14 14 (2822400)
I0309 00:27:49.254082 29592 net.cpp:67] Creating Layer inception_4d/5x5_reduce
I0309 00:27:49.254087 29592 net.cpp:394] inception_4d/5x5_reduce <- inception_4c/output_inception_4c/output_0_split_2
I0309 00:27:49.254093 29592 net.cpp:356] inception_4d/5x5_reduce -> inception_4d/5x5_reduce
I0309 00:27:49.254101 29592 net.cpp:96] Setting up inception_4d/5x5_reduce
I0309 00:27:49.254288 29592 net.cpp:103] Top shape: 50 32 14 14 (313600)
I0309 00:27:49.254309 29592 net.cpp:67] Creating Layer inception_4d/relu_5x5_reduce
I0309 00:27:49.254315 29592 net.cpp:394] inception_4d/relu_5x5_reduce <- inception_4d/5x5_reduce
I0309 00:27:49.254323 29592 net.cpp:345] inception_4d/relu_5x5_reduce -> inception_4d/5x5_reduce (in-place)
I0309 00:27:49.254330 29592 net.cpp:96] Setting up inception_4d/relu_5x5_reduce
I0309 00:27:49.254338 29592 net.cpp:103] Top shape: 50 32 14 14 (313600)
I0309 00:27:49.254344 29592 net.cpp:67] Creating Layer inception_4d/5x5
I0309 00:27:49.254350 29592 net.cpp:394] inception_4d/5x5 <- inception_4d/5x5_reduce
I0309 00:27:49.254360 29592 net.cpp:356] inception_4d/5x5 -> inception_4d/5x5
I0309 00:27:49.254367 29592 net.cpp:96] Setting up inception_4d/5x5
I0309 00:27:49.254832 29592 net.cpp:103] Top shape: 50 64 14 14 (627200)
I0309 00:27:49.254851 29592 net.cpp:67] Creating Layer inception_4d/relu_5x5
I0309 00:27:49.254858 29592 net.cpp:394] inception_4d/relu_5x5 <- inception_4d/5x5
I0309 00:27:49.254863 29592 net.cpp:345] inception_4d/relu_5x5 -> inception_4d/5x5 (in-place)
I0309 00:27:49.254868 29592 net.cpp:96] Setting up inception_4d/relu_5x5
I0309 00:27:49.254875 29592 net.cpp:103] Top shape: 50 64 14 14 (627200)
I0309 00:27:49.254884 29592 net.cpp:67] Creating Layer inception_4d/pool
I0309 00:27:49.254889 29592 net.cpp:394] inception_4d/pool <- inception_4c/output_inception_4c/output_0_split_3
I0309 00:27:49.254894 29592 net.cpp:356] inception_4d/pool -> inception_4d/pool
I0309 00:27:49.254900 29592 net.cpp:96] Setting up inception_4d/pool
I0309 00:27:49.254907 29592 net.cpp:103] Top shape: 50 512 14 14 (5017600)
I0309 00:27:49.254916 29592 net.cpp:67] Creating Layer inception_4d/pool_proj
I0309 00:27:49.254921 29592 net.cpp:394] inception_4d/pool_proj <- inception_4d/pool
I0309 00:27:49.254927 29592 net.cpp:356] inception_4d/pool_proj -> inception_4d/pool_proj
I0309 00:27:49.254933 29592 net.cpp:96] Setting up inception_4d/pool_proj
I0309 00:27:49.255249 29592 net.cpp:103] Top shape: 50 64 14 14 (627200)
I0309 00:27:49.255273 29592 net.cpp:67] Creating Layer inception_4d/relu_pool_proj
I0309 00:27:49.255280 29592 net.cpp:394] inception_4d/relu_pool_proj <- inception_4d/pool_proj
I0309 00:27:49.255285 29592 net.cpp:345] inception_4d/relu_pool_proj -> inception_4d/pool_proj (in-place)
I0309 00:27:49.255291 29592 net.cpp:96] Setting up inception_4d/relu_pool_proj
I0309 00:27:49.255298 29592 net.cpp:103] Top shape: 50 64 14 14 (627200)
I0309 00:27:49.255306 29592 net.cpp:67] Creating Layer inception_4d/output
I0309 00:27:49.255311 29592 net.cpp:394] inception_4d/output <- inception_4d/1x1
I0309 00:27:49.255316 29592 net.cpp:394] inception_4d/output <- inception_4d/3x3
I0309 00:27:49.255321 29592 net.cpp:394] inception_4d/output <- inception_4d/5x5
I0309 00:27:49.255326 29592 net.cpp:394] inception_4d/output <- inception_4d/pool_proj
I0309 00:27:49.255331 29592 net.cpp:356] inception_4d/output -> inception_4d/output
I0309 00:27:49.255336 29592 net.cpp:96] Setting up inception_4d/output
I0309 00:27:49.255342 29592 net.cpp:103] Top shape: 50 528 14 14 (5174400)
I0309 00:27:49.255347 29592 net.cpp:67] Creating Layer inception_4d/output_inception_4d/output_0_split
I0309 00:27:49.255353 29592 net.cpp:394] inception_4d/output_inception_4d/output_0_split <- inception_4d/output
I0309 00:27:49.255373 29592 net.cpp:356] inception_4d/output_inception_4d/output_0_split -> inception_4d/output_inception_4d/output_0_split_0
I0309 00:27:49.255380 29592 net.cpp:356] inception_4d/output_inception_4d/output_0_split -> inception_4d/output_inception_4d/output_0_split_1
I0309 00:27:49.255388 29592 net.cpp:356] inception_4d/output_inception_4d/output_0_split -> inception_4d/output_inception_4d/output_0_split_2
I0309 00:27:49.255395 29592 net.cpp:356] inception_4d/output_inception_4d/output_0_split -> inception_4d/output_inception_4d/output_0_split_3
I0309 00:27:49.255404 29592 net.cpp:356] inception_4d/output_inception_4d/output_0_split -> inception_4d/output_inception_4d/output_0_split_4
I0309 00:27:49.255410 29592 net.cpp:96] Setting up inception_4d/output_inception_4d/output_0_split
I0309 00:27:49.255415 29592 net.cpp:103] Top shape: 50 528 14 14 (5174400)
I0309 00:27:49.255419 29592 net.cpp:103] Top shape: 50 528 14 14 (5174400)
I0309 00:27:49.255424 29592 net.cpp:103] Top shape: 50 528 14 14 (5174400)
I0309 00:27:49.255427 29592 net.cpp:103] Top shape: 50 528 14 14 (5174400)
I0309 00:27:49.255430 29592 net.cpp:103] Top shape: 50 528 14 14 (5174400)
I0309 00:27:49.255437 29592 net.cpp:67] Creating Layer loss2/ave_pool
I0309 00:27:49.255442 29592 net.cpp:394] loss2/ave_pool <- inception_4d/output_inception_4d/output_0_split_0
I0309 00:27:49.255448 29592 net.cpp:356] loss2/ave_pool -> loss2/ave_pool
I0309 00:27:49.255455 29592 net.cpp:96] Setting up loss2/ave_pool
I0309 00:27:49.255462 29592 net.cpp:103] Top shape: 50 528 4 4 (422400)
I0309 00:27:49.255470 29592 net.cpp:67] Creating Layer loss2/conv
I0309 00:27:49.255475 29592 net.cpp:394] loss2/conv <- loss2/ave_pool
I0309 00:27:49.255481 29592 net.cpp:356] loss2/conv -> loss2/conv
I0309 00:27:49.255488 29592 net.cpp:96] Setting up loss2/conv
I0309 00:27:49.256086 29592 net.cpp:103] Top shape: 50 128 4 4 (102400)
I0309 00:27:49.256109 29592 net.cpp:67] Creating Layer loss2/relu_conv
I0309 00:27:49.256115 29592 net.cpp:394] loss2/relu_conv <- loss2/conv
I0309 00:27:49.256121 29592 net.cpp:345] loss2/relu_conv -> loss2/conv (in-place)
I0309 00:27:49.256127 29592 net.cpp:96] Setting up loss2/relu_conv
I0309 00:27:49.256134 29592 net.cpp:103] Top shape: 50 128 4 4 (102400)
I0309 00:27:49.256142 29592 net.cpp:67] Creating Layer loss2/fc
I0309 00:27:49.256146 29592 net.cpp:394] loss2/fc <- loss2/conv
I0309 00:27:49.256152 29592 net.cpp:356] loss2/fc -> loss2/fc
I0309 00:27:49.256160 29592 net.cpp:96] Setting up loss2/fc
I0309 00:27:49.272289 29592 net.cpp:103] Top shape: 50 1024 1 1 (51200)
I0309 00:27:49.272315 29592 net.cpp:67] Creating Layer loss2/relu_fc
I0309 00:27:49.272321 29592 net.cpp:394] loss2/relu_fc <- loss2/fc
I0309 00:27:49.272328 29592 net.cpp:345] loss2/relu_fc -> loss2/fc (in-place)
I0309 00:27:49.272335 29592 net.cpp:96] Setting up loss2/relu_fc
I0309 00:27:49.272342 29592 net.cpp:103] Top shape: 50 1024 1 1 (51200)
I0309 00:27:49.272348 29592 net.cpp:67] Creating Layer loss2/drop_fc
I0309 00:27:49.272352 29592 net.cpp:394] loss2/drop_fc <- loss2/fc
I0309 00:27:49.272361 29592 net.cpp:345] loss2/drop_fc -> loss2/fc (in-place)
I0309 00:27:49.272367 29592 net.cpp:96] Setting up loss2/drop_fc
I0309 00:27:49.272372 29592 net.cpp:103] Top shape: 50 1024 1 1 (51200)
I0309 00:27:49.272377 29592 net.cpp:67] Creating Layer loss2/classifier
I0309 00:27:49.272382 29592 net.cpp:394] loss2/classifier <- loss2/fc
I0309 00:27:49.272387 29592 net.cpp:356] loss2/classifier -> loss2/classifier
I0309 00:27:49.272393 29592 net.cpp:96] Setting up loss2/classifier
I0309 00:27:49.273416 29592 net.cpp:103] Top shape: 50 121 1 1 (6050)
I0309 00:27:49.273437 29592 net.cpp:67] Creating Layer loss2/classifier_loss2/classifier_0_split
I0309 00:27:49.273442 29592 net.cpp:394] loss2/classifier_loss2/classifier_0_split <- loss2/classifier
I0309 00:27:49.273450 29592 net.cpp:356] loss2/classifier_loss2/classifier_0_split -> loss2/classifier_loss2/classifier_0_split_0
I0309 00:27:49.273458 29592 net.cpp:356] loss2/classifier_loss2/classifier_0_split -> loss2/classifier_loss2/classifier_0_split_1
I0309 00:27:49.273486 29592 net.cpp:356] loss2/classifier_loss2/classifier_0_split -> loss2/classifier_loss2/classifier_0_split_2
I0309 00:27:49.273494 29592 net.cpp:96] Setting up loss2/classifier_loss2/classifier_0_split
I0309 00:27:49.273499 29592 net.cpp:103] Top shape: 50 121 1 1 (6050)
I0309 00:27:49.273504 29592 net.cpp:103] Top shape: 50 121 1 1 (6050)
I0309 00:27:49.273506 29592 net.cpp:103] Top shape: 50 121 1 1 (6050)
I0309 00:27:49.273515 29592 net.cpp:67] Creating Layer loss2/loss
I0309 00:27:49.273519 29592 net.cpp:394] loss2/loss <- loss2/classifier_loss2/classifier_0_split_0
I0309 00:27:49.273525 29592 net.cpp:394] loss2/loss <- label_data_1_split_3
I0309 00:27:49.273530 29592 net.cpp:356] loss2/loss -> loss2/loss1
I0309 00:27:49.273537 29592 net.cpp:96] Setting up loss2/loss
I0309 00:27:49.273558 29592 net.cpp:103] Top shape: 1 1 1 1 (1)
I0309 00:27:49.273569 29592 net.cpp:109]     with loss weight 0.3
I0309 00:27:49.273583 29592 net.cpp:67] Creating Layer loss2/top-1
I0309 00:27:49.273588 29592 net.cpp:394] loss2/top-1 <- loss2/classifier_loss2/classifier_0_split_1
I0309 00:27:49.273593 29592 net.cpp:394] loss2/top-1 <- label_data_1_split_4
I0309 00:27:49.273599 29592 net.cpp:356] loss2/top-1 -> loss2/top-1
I0309 00:27:49.273605 29592 net.cpp:96] Setting up loss2/top-1
I0309 00:27:49.273610 29592 net.cpp:103] Top shape: 1 1 1 1 (1)
I0309 00:27:49.273619 29592 net.cpp:67] Creating Layer loss2/top-5
I0309 00:27:49.273623 29592 net.cpp:394] loss2/top-5 <- loss2/classifier_loss2/classifier_0_split_2
I0309 00:27:49.273628 29592 net.cpp:394] loss2/top-5 <- label_data_1_split_5
I0309 00:27:49.273633 29592 net.cpp:356] loss2/top-5 -> loss2/top-5
I0309 00:27:49.273640 29592 net.cpp:96] Setting up loss2/top-5
I0309 00:27:49.273644 29592 net.cpp:103] Top shape: 1 1 1 1 (1)
I0309 00:27:49.273650 29592 net.cpp:67] Creating Layer inception_4e/1x1
I0309 00:27:49.273655 29592 net.cpp:394] inception_4e/1x1 <- inception_4d/output_inception_4d/output_0_split_1
I0309 00:27:49.273661 29592 net.cpp:356] inception_4e/1x1 -> inception_4e/1x1
I0309 00:27:49.273668 29592 net.cpp:96] Setting up inception_4e/1x1
I0309 00:27:49.274924 29592 net.cpp:103] Top shape: 50 256 14 14 (2508800)
I0309 00:27:49.274950 29592 net.cpp:67] Creating Layer inception_4e/relu_1x1
I0309 00:27:49.274955 29592 net.cpp:394] inception_4e/relu_1x1 <- inception_4e/1x1
I0309 00:27:49.274961 29592 net.cpp:345] inception_4e/relu_1x1 -> inception_4e/1x1 (in-place)
I0309 00:27:49.274968 29592 net.cpp:96] Setting up inception_4e/relu_1x1
I0309 00:27:49.274976 29592 net.cpp:103] Top shape: 50 256 14 14 (2508800)
I0309 00:27:49.274998 29592 net.cpp:67] Creating Layer inception_4e/3x3_reduce
I0309 00:27:49.275009 29592 net.cpp:394] inception_4e/3x3_reduce <- inception_4d/output_inception_4d/output_0_split_2
I0309 00:27:49.275019 29592 net.cpp:356] inception_4e/3x3_reduce -> inception_4e/3x3_reduce
I0309 00:27:49.275027 29592 net.cpp:96] Setting up inception_4e/3x3_reduce
I0309 00:27:49.275771 29592 net.cpp:103] Top shape: 50 160 14 14 (1568000)
I0309 00:27:49.275794 29592 net.cpp:67] Creating Layer inception_4e/relu_3x3_reduce
I0309 00:27:49.275799 29592 net.cpp:394] inception_4e/relu_3x3_reduce <- inception_4e/3x3_reduce
I0309 00:27:49.275806 29592 net.cpp:345] inception_4e/relu_3x3_reduce -> inception_4e/3x3_reduce (in-place)
I0309 00:27:49.275813 29592 net.cpp:96] Setting up inception_4e/relu_3x3_reduce
I0309 00:27:49.275820 29592 net.cpp:103] Top shape: 50 160 14 14 (1568000)
I0309 00:27:49.275827 29592 net.cpp:67] Creating Layer inception_4e/3x3
I0309 00:27:49.275831 29592 net.cpp:394] inception_4e/3x3 <- inception_4e/3x3_reduce
I0309 00:27:49.275840 29592 net.cpp:356] inception_4e/3x3 -> inception_4e/3x3
I0309 00:27:49.275846 29592 net.cpp:96] Setting up inception_4e/3x3
I0309 00:27:49.279659 29592 net.cpp:103] Top shape: 50 320 14 14 (3136000)
I0309 00:27:49.279681 29592 net.cpp:67] Creating Layer inception_4e/relu_3x3
I0309 00:27:49.279687 29592 net.cpp:394] inception_4e/relu_3x3 <- inception_4e/3x3
I0309 00:27:49.279706 29592 net.cpp:345] inception_4e/relu_3x3 -> inception_4e/3x3 (in-place)
I0309 00:27:49.279713 29592 net.cpp:96] Setting up inception_4e/relu_3x3
I0309 00:27:49.279721 29592 net.cpp:103] Top shape: 50 320 14 14 (3136000)
I0309 00:27:49.279731 29592 net.cpp:67] Creating Layer inception_4e/5x5_reduce
I0309 00:27:49.279736 29592 net.cpp:394] inception_4e/5x5_reduce <- inception_4d/output_inception_4d/output_0_split_3
I0309 00:27:49.279742 29592 net.cpp:356] inception_4e/5x5_reduce -> inception_4e/5x5_reduce
I0309 00:27:49.279750 29592 net.cpp:96] Setting up inception_4e/5x5_reduce
I0309 00:27:49.279932 29592 net.cpp:103] Top shape: 50 32 14 14 (313600)
I0309 00:27:49.279956 29592 net.cpp:67] Creating Layer inception_4e/relu_5x5_reduce
I0309 00:27:49.279963 29592 net.cpp:394] inception_4e/relu_5x5_reduce <- inception_4e/5x5_reduce
I0309 00:27:49.279968 29592 net.cpp:345] inception_4e/relu_5x5_reduce -> inception_4e/5x5_reduce (in-place)
I0309 00:27:49.279975 29592 net.cpp:96] Setting up inception_4e/relu_5x5_reduce
I0309 00:27:49.279981 29592 net.cpp:103] Top shape: 50 32 14 14 (313600)
I0309 00:27:49.279990 29592 net.cpp:67] Creating Layer inception_4e/5x5
I0309 00:27:49.279994 29592 net.cpp:394] inception_4e/5x5 <- inception_4e/5x5_reduce
I0309 00:27:49.280000 29592 net.cpp:356] inception_4e/5x5 -> inception_4e/5x5
I0309 00:27:49.280007 29592 net.cpp:96] Setting up inception_4e/5x5
I0309 00:27:49.280918 29592 net.cpp:103] Top shape: 50 128 14 14 (1254400)
I0309 00:27:49.280941 29592 net.cpp:67] Creating Layer inception_4e/relu_5x5
I0309 00:27:49.280946 29592 net.cpp:394] inception_4e/relu_5x5 <- inception_4e/5x5
I0309 00:27:49.280952 29592 net.cpp:345] inception_4e/relu_5x5 -> inception_4e/5x5 (in-place)
I0309 00:27:49.280958 29592 net.cpp:96] Setting up inception_4e/relu_5x5
I0309 00:27:49.280966 29592 net.cpp:103] Top shape: 50 128 14 14 (1254400)
I0309 00:27:49.280973 29592 net.cpp:67] Creating Layer inception_4e/pool
I0309 00:27:49.280977 29592 net.cpp:394] inception_4e/pool <- inception_4d/output_inception_4d/output_0_split_4
I0309 00:27:49.280983 29592 net.cpp:356] inception_4e/pool -> inception_4e/pool
I0309 00:27:49.280990 29592 net.cpp:96] Setting up inception_4e/pool
I0309 00:27:49.280997 29592 net.cpp:103] Top shape: 50 528 14 14 (5174400)
I0309 00:27:49.281007 29592 net.cpp:67] Creating Layer inception_4e/pool_proj
I0309 00:27:49.281011 29592 net.cpp:394] inception_4e/pool_proj <- inception_4e/pool
I0309 00:27:49.281018 29592 net.cpp:356] inception_4e/pool_proj -> inception_4e/pool_proj
I0309 00:27:49.281023 29592 net.cpp:96] Setting up inception_4e/pool_proj
I0309 00:27:49.281787 29592 net.cpp:103] Top shape: 50 128 14 14 (1254400)
I0309 00:27:49.281812 29592 net.cpp:67] Creating Layer inception_4e/relu_pool_proj
I0309 00:27:49.281818 29592 net.cpp:394] inception_4e/relu_pool_proj <- inception_4e/pool_proj
I0309 00:27:49.281824 29592 net.cpp:345] inception_4e/relu_pool_proj -> inception_4e/pool_proj (in-place)
I0309 00:27:49.281831 29592 net.cpp:96] Setting up inception_4e/relu_pool_proj
I0309 00:27:49.281837 29592 net.cpp:103] Top shape: 50 128 14 14 (1254400)
I0309 00:27:49.281844 29592 net.cpp:67] Creating Layer inception_4e/output
I0309 00:27:49.281848 29592 net.cpp:394] inception_4e/output <- inception_4e/1x1
I0309 00:27:49.281853 29592 net.cpp:394] inception_4e/output <- inception_4e/3x3
I0309 00:27:49.281858 29592 net.cpp:394] inception_4e/output <- inception_4e/5x5
I0309 00:27:49.281863 29592 net.cpp:394] inception_4e/output <- inception_4e/pool_proj
I0309 00:27:49.281872 29592 net.cpp:356] inception_4e/output -> inception_4e/output
I0309 00:27:49.281877 29592 net.cpp:96] Setting up inception_4e/output
I0309 00:27:49.281883 29592 net.cpp:103] Top shape: 50 832 14 14 (8153600)
I0309 00:27:49.281888 29592 net.cpp:67] Creating Layer pool4/3x3_s2
I0309 00:27:49.281893 29592 net.cpp:394] pool4/3x3_s2 <- inception_4e/output
I0309 00:27:49.281900 29592 net.cpp:356] pool4/3x3_s2 -> pool4/3x3_s2
I0309 00:27:49.281906 29592 net.cpp:96] Setting up pool4/3x3_s2
I0309 00:27:49.281914 29592 net.cpp:103] Top shape: 50 832 7 7 (2038400)
I0309 00:27:49.281934 29592 net.cpp:67] Creating Layer pool4/3x3_s2_pool4/3x3_s2_0_split
I0309 00:27:49.281939 29592 net.cpp:394] pool4/3x3_s2_pool4/3x3_s2_0_split <- pool4/3x3_s2
I0309 00:27:49.281944 29592 net.cpp:356] pool4/3x3_s2_pool4/3x3_s2_0_split -> pool4/3x3_s2_pool4/3x3_s2_0_split_0
I0309 00:27:49.281950 29592 net.cpp:356] pool4/3x3_s2_pool4/3x3_s2_0_split -> pool4/3x3_s2_pool4/3x3_s2_0_split_1
I0309 00:27:49.281960 29592 net.cpp:356] pool4/3x3_s2_pool4/3x3_s2_0_split -> pool4/3x3_s2_pool4/3x3_s2_0_split_2
I0309 00:27:49.281980 29592 net.cpp:356] pool4/3x3_s2_pool4/3x3_s2_0_split -> pool4/3x3_s2_pool4/3x3_s2_0_split_3
I0309 00:27:49.281990 29592 net.cpp:96] Setting up pool4/3x3_s2_pool4/3x3_s2_0_split
I0309 00:27:49.281994 29592 net.cpp:103] Top shape: 50 832 7 7 (2038400)
I0309 00:27:49.281998 29592 net.cpp:103] Top shape: 50 832 7 7 (2038400)
I0309 00:27:49.282004 29592 net.cpp:103] Top shape: 50 832 7 7 (2038400)
I0309 00:27:49.282009 29592 net.cpp:103] Top shape: 50 832 7 7 (2038400)
I0309 00:27:49.282018 29592 net.cpp:67] Creating Layer inception_5a/1x1
I0309 00:27:49.282023 29592 net.cpp:394] inception_5a/1x1 <- pool4/3x3_s2_pool4/3x3_s2_0_split_0
I0309 00:27:49.282029 29592 net.cpp:356] inception_5a/1x1 -> inception_5a/1x1
I0309 00:27:49.282037 29592 net.cpp:96] Setting up inception_5a/1x1
I0309 00:27:49.283823 29592 net.cpp:103] Top shape: 50 256 7 7 (627200)
I0309 00:27:49.283845 29592 net.cpp:67] Creating Layer inception_5a/relu_1x1
I0309 00:27:49.283850 29592 net.cpp:394] inception_5a/relu_1x1 <- inception_5a/1x1
I0309 00:27:49.283859 29592 net.cpp:345] inception_5a/relu_1x1 -> inception_5a/1x1 (in-place)
I0309 00:27:49.283865 29592 net.cpp:96] Setting up inception_5a/relu_1x1
I0309 00:27:49.283871 29592 net.cpp:103] Top shape: 50 256 7 7 (627200)
I0309 00:27:49.283879 29592 net.cpp:67] Creating Layer inception_5a/3x3_reduce
I0309 00:27:49.283884 29592 net.cpp:394] inception_5a/3x3_reduce <- pool4/3x3_s2_pool4/3x3_s2_0_split_1
I0309 00:27:49.283891 29592 net.cpp:356] inception_5a/3x3_reduce -> inception_5a/3x3_reduce
I0309 00:27:49.283898 29592 net.cpp:96] Setting up inception_5a/3x3_reduce
I0309 00:27:49.285064 29592 net.cpp:103] Top shape: 50 160 7 7 (392000)
I0309 00:27:49.285089 29592 net.cpp:67] Creating Layer inception_5a/relu_3x3_reduce
I0309 00:27:49.285094 29592 net.cpp:394] inception_5a/relu_3x3_reduce <- inception_5a/3x3_reduce
I0309 00:27:49.285100 29592 net.cpp:345] inception_5a/relu_3x3_reduce -> inception_5a/3x3_reduce (in-place)
I0309 00:27:49.285107 29592 net.cpp:96] Setting up inception_5a/relu_3x3_reduce
I0309 00:27:49.285115 29592 net.cpp:103] Top shape: 50 160 7 7 (392000)
I0309 00:27:49.285121 29592 net.cpp:67] Creating Layer inception_5a/3x3
I0309 00:27:49.285125 29592 net.cpp:394] inception_5a/3x3 <- inception_5a/3x3_reduce
I0309 00:27:49.285133 29592 net.cpp:356] inception_5a/3x3 -> inception_5a/3x3
I0309 00:27:49.285140 29592 net.cpp:96] Setting up inception_5a/3x3
I0309 00:27:49.288939 29592 net.cpp:103] Top shape: 50 320 7 7 (784000)
I0309 00:27:49.288964 29592 net.cpp:67] Creating Layer inception_5a/relu_3x3
I0309 00:27:49.288970 29592 net.cpp:394] inception_5a/relu_3x3 <- inception_5a/3x3
I0309 00:27:49.288977 29592 net.cpp:345] inception_5a/relu_3x3 -> inception_5a/3x3 (in-place)
I0309 00:27:49.288983 29592 net.cpp:96] Setting up inception_5a/relu_3x3
I0309 00:27:49.288990 29592 net.cpp:103] Top shape: 50 320 7 7 (784000)
I0309 00:27:49.288997 29592 net.cpp:67] Creating Layer inception_5a/5x5_reduce
I0309 00:27:49.289002 29592 net.cpp:394] inception_5a/5x5_reduce <- pool4/3x3_s2_pool4/3x3_s2_0_split_2
I0309 00:27:49.289011 29592 net.cpp:356] inception_5a/5x5_reduce -> inception_5a/5x5_reduce
I0309 00:27:49.289017 29592 net.cpp:96] Setting up inception_5a/5x5_reduce
I0309 00:27:49.289285 29592 net.cpp:103] Top shape: 50 32 7 7 (78400)
I0309 00:27:49.289307 29592 net.cpp:67] Creating Layer inception_5a/relu_5x5_reduce
I0309 00:27:49.289314 29592 net.cpp:394] inception_5a/relu_5x5_reduce <- inception_5a/5x5_reduce
I0309 00:27:49.289319 29592 net.cpp:345] inception_5a/relu_5x5_reduce -> inception_5a/5x5_reduce (in-place)
I0309 00:27:49.289341 29592 net.cpp:96] Setting up inception_5a/relu_5x5_reduce
I0309 00:27:49.289348 29592 net.cpp:103] Top shape: 50 32 7 7 (78400)
I0309 00:27:49.289358 29592 net.cpp:67] Creating Layer inception_5a/5x5
I0309 00:27:49.289363 29592 net.cpp:394] inception_5a/5x5 <- inception_5a/5x5_reduce
I0309 00:27:49.289369 29592 net.cpp:356] inception_5a/5x5 -> inception_5a/5x5
I0309 00:27:49.289376 29592 net.cpp:96] Setting up inception_5a/5x5
I0309 00:27:49.290357 29592 net.cpp:103] Top shape: 50 128 7 7 (313600)
I0309 00:27:49.290382 29592 net.cpp:67] Creating Layer inception_5a/relu_5x5
I0309 00:27:49.290388 29592 net.cpp:394] inception_5a/relu_5x5 <- inception_5a/5x5
I0309 00:27:49.290395 29592 net.cpp:345] inception_5a/relu_5x5 -> inception_5a/5x5 (in-place)
I0309 00:27:49.290400 29592 net.cpp:96] Setting up inception_5a/relu_5x5
I0309 00:27:49.290407 29592 net.cpp:103] Top shape: 50 128 7 7 (313600)
I0309 00:27:49.290416 29592 net.cpp:67] Creating Layer inception_5a/pool
I0309 00:27:49.290421 29592 net.cpp:394] inception_5a/pool <- pool4/3x3_s2_pool4/3x3_s2_0_split_3
I0309 00:27:49.290426 29592 net.cpp:356] inception_5a/pool -> inception_5a/pool
I0309 00:27:49.290432 29592 net.cpp:96] Setting up inception_5a/pool
I0309 00:27:49.290439 29592 net.cpp:103] Top shape: 50 832 7 7 (2038400)
I0309 00:27:49.290446 29592 net.cpp:67] Creating Layer inception_5a/pool_proj
I0309 00:27:49.290452 29592 net.cpp:394] inception_5a/pool_proj <- inception_5a/pool
I0309 00:27:49.290458 29592 net.cpp:356] inception_5a/pool_proj -> inception_5a/pool_proj
I0309 00:27:49.290465 29592 net.cpp:96] Setting up inception_5a/pool_proj
I0309 00:27:49.291441 29592 net.cpp:103] Top shape: 50 128 7 7 (313600)
I0309 00:27:49.291463 29592 net.cpp:67] Creating Layer inception_5a/relu_pool_proj
I0309 00:27:49.291470 29592 net.cpp:394] inception_5a/relu_pool_proj <- inception_5a/pool_proj
I0309 00:27:49.291478 29592 net.cpp:345] inception_5a/relu_pool_proj -> inception_5a/pool_proj (in-place)
I0309 00:27:49.291484 29592 net.cpp:96] Setting up inception_5a/relu_pool_proj
I0309 00:27:49.291491 29592 net.cpp:103] Top shape: 50 128 7 7 (313600)
I0309 00:27:49.291497 29592 net.cpp:67] Creating Layer inception_5a/output
I0309 00:27:49.291501 29592 net.cpp:394] inception_5a/output <- inception_5a/1x1
I0309 00:27:49.291507 29592 net.cpp:394] inception_5a/output <- inception_5a/3x3
I0309 00:27:49.291512 29592 net.cpp:394] inception_5a/output <- inception_5a/5x5
I0309 00:27:49.291517 29592 net.cpp:394] inception_5a/output <- inception_5a/pool_proj
I0309 00:27:49.291522 29592 net.cpp:356] inception_5a/output -> inception_5a/output
I0309 00:27:49.291529 29592 net.cpp:96] Setting up inception_5a/output
I0309 00:27:49.291533 29592 net.cpp:103] Top shape: 50 832 7 7 (2038400)
I0309 00:27:49.291542 29592 net.cpp:67] Creating Layer inception_5a/output_inception_5a/output_0_split
I0309 00:27:49.291545 29592 net.cpp:394] inception_5a/output_inception_5a/output_0_split <- inception_5a/output
I0309 00:27:49.291551 29592 net.cpp:356] inception_5a/output_inception_5a/output_0_split -> inception_5a/output_inception_5a/output_0_split_0
I0309 00:27:49.291558 29592 net.cpp:356] inception_5a/output_inception_5a/output_0_split -> inception_5a/output_inception_5a/output_0_split_1
I0309 00:27:49.291565 29592 net.cpp:356] inception_5a/output_inception_5a/output_0_split -> inception_5a/output_inception_5a/output_0_split_2
I0309 00:27:49.291571 29592 net.cpp:356] inception_5a/output_inception_5a/output_0_split -> inception_5a/output_inception_5a/output_0_split_3
I0309 00:27:49.291578 29592 net.cpp:96] Setting up inception_5a/output_inception_5a/output_0_split
I0309 00:27:49.291582 29592 net.cpp:103] Top shape: 50 832 7 7 (2038400)
I0309 00:27:49.291586 29592 net.cpp:103] Top shape: 50 832 7 7 (2038400)
I0309 00:27:49.291589 29592 net.cpp:103] Top shape: 50 832 7 7 (2038400)
I0309 00:27:49.291594 29592 net.cpp:103] Top shape: 50 832 7 7 (2038400)
I0309 00:27:49.291601 29592 net.cpp:67] Creating Layer inception_5b/1x1
I0309 00:27:49.291617 29592 net.cpp:394] inception_5b/1x1 <- inception_5a/output_inception_5a/output_0_split_0
I0309 00:27:49.291625 29592 net.cpp:356] inception_5b/1x1 -> inception_5b/1x1
I0309 00:27:49.291631 29592 net.cpp:96] Setting up inception_5b/1x1
I0309 00:27:49.294312 29592 net.cpp:103] Top shape: 50 384 7 7 (940800)
I0309 00:27:49.294335 29592 net.cpp:67] Creating Layer inception_5b/relu_1x1
I0309 00:27:49.294342 29592 net.cpp:394] inception_5b/relu_1x1 <- inception_5b/1x1
I0309 00:27:49.294348 29592 net.cpp:345] inception_5b/relu_1x1 -> inception_5b/1x1 (in-place)
I0309 00:27:49.294355 29592 net.cpp:96] Setting up inception_5b/relu_1x1
I0309 00:27:49.294361 29592 net.cpp:103] Top shape: 50 384 7 7 (940800)
I0309 00:27:49.294373 29592 net.cpp:67] Creating Layer inception_5b/3x3_reduce
I0309 00:27:49.294376 29592 net.cpp:394] inception_5b/3x3_reduce <- inception_5a/output_inception_5a/output_0_split_1
I0309 00:27:49.294384 29592 net.cpp:356] inception_5b/3x3_reduce -> inception_5b/3x3_reduce
I0309 00:27:49.294390 29592 net.cpp:96] Setting up inception_5b/3x3_reduce
I0309 00:27:49.295753 29592 net.cpp:103] Top shape: 50 192 7 7 (470400)
I0309 00:27:49.295773 29592 net.cpp:67] Creating Layer inception_5b/relu_3x3_reduce
I0309 00:27:49.295780 29592 net.cpp:394] inception_5b/relu_3x3_reduce <- inception_5b/3x3_reduce
I0309 00:27:49.295789 29592 net.cpp:345] inception_5b/relu_3x3_reduce -> inception_5b/3x3_reduce (in-place)
I0309 00:27:49.295795 29592 net.cpp:96] Setting up inception_5b/relu_3x3_reduce
I0309 00:27:49.295802 29592 net.cpp:103] Top shape: 50 192 7 7 (470400)
I0309 00:27:49.295809 29592 net.cpp:67] Creating Layer inception_5b/3x3
I0309 00:27:49.295814 29592 net.cpp:394] inception_5b/3x3 <- inception_5b/3x3_reduce
I0309 00:27:49.295821 29592 net.cpp:356] inception_5b/3x3 -> inception_5b/3x3
I0309 00:27:49.295828 29592 net.cpp:96] Setting up inception_5b/3x3
I0309 00:27:49.301370 29592 net.cpp:103] Top shape: 50 384 7 7 (940800)
I0309 00:27:49.301395 29592 net.cpp:67] Creating Layer inception_5b/relu_3x3
I0309 00:27:49.301403 29592 net.cpp:394] inception_5b/relu_3x3 <- inception_5b/3x3
I0309 00:27:49.301409 29592 net.cpp:345] inception_5b/relu_3x3 -> inception_5b/3x3 (in-place)
I0309 00:27:49.301415 29592 net.cpp:96] Setting up inception_5b/relu_3x3
I0309 00:27:49.301422 29592 net.cpp:103] Top shape: 50 384 7 7 (940800)
I0309 00:27:49.301431 29592 net.cpp:67] Creating Layer inception_5b/5x5_reduce
I0309 00:27:49.301436 29592 net.cpp:394] inception_5b/5x5_reduce <- inception_5a/output_inception_5a/output_0_split_2
I0309 00:27:49.301442 29592 net.cpp:356] inception_5b/5x5_reduce -> inception_5b/5x5_reduce
I0309 00:27:49.301450 29592 net.cpp:96] Setting up inception_5b/5x5_reduce
I0309 00:27:49.301915 29592 net.cpp:103] Top shape: 50 48 7 7 (117600)
I0309 00:27:49.301937 29592 net.cpp:67] Creating Layer inception_5b/relu_5x5_reduce
I0309 00:27:49.301944 29592 net.cpp:394] inception_5b/relu_5x5_reduce <- inception_5b/5x5_reduce
I0309 00:27:49.301952 29592 net.cpp:345] inception_5b/relu_5x5_reduce -> inception_5b/5x5_reduce (in-place)
I0309 00:27:49.301959 29592 net.cpp:96] Setting up inception_5b/relu_5x5_reduce
I0309 00:27:49.301966 29592 net.cpp:103] Top shape: 50 48 7 7 (117600)
I0309 00:27:49.301973 29592 net.cpp:67] Creating Layer inception_5b/5x5
I0309 00:27:49.301978 29592 net.cpp:394] inception_5b/5x5 <- inception_5b/5x5_reduce
I0309 00:27:49.301987 29592 net.cpp:356] inception_5b/5x5 -> inception_5b/5x5
I0309 00:27:49.301993 29592 net.cpp:96] Setting up inception_5b/5x5
I0309 00:27:49.303293 29592 net.cpp:103] Top shape: 50 128 7 7 (313600)
I0309 00:27:49.303314 29592 net.cpp:67] Creating Layer inception_5b/relu_5x5
I0309 00:27:49.303320 29592 net.cpp:394] inception_5b/relu_5x5 <- inception_5b/5x5
I0309 00:27:49.303326 29592 net.cpp:345] inception_5b/relu_5x5 -> inception_5b/5x5 (in-place)
I0309 00:27:49.303333 29592 net.cpp:96] Setting up inception_5b/relu_5x5
I0309 00:27:49.303339 29592 net.cpp:103] Top shape: 50 128 7 7 (313600)
I0309 00:27:49.303347 29592 net.cpp:67] Creating Layer inception_5b/pool
I0309 00:27:49.303365 29592 net.cpp:394] inception_5b/pool <- inception_5a/output_inception_5a/output_0_split_3
I0309 00:27:49.303372 29592 net.cpp:356] inception_5b/pool -> inception_5b/pool
I0309 00:27:49.303380 29592 net.cpp:96] Setting up inception_5b/pool
I0309 00:27:49.303387 29592 net.cpp:103] Top shape: 50 832 7 7 (2038400)
I0309 00:27:49.303396 29592 net.cpp:67] Creating Layer inception_5b/pool_proj
I0309 00:27:49.303401 29592 net.cpp:394] inception_5b/pool_proj <- inception_5b/pool
I0309 00:27:49.303407 29592 net.cpp:356] inception_5b/pool_proj -> inception_5b/pool_proj
I0309 00:27:49.303413 29592 net.cpp:96] Setting up inception_5b/pool_proj
I0309 00:27:49.304335 29592 net.cpp:103] Top shape: 50 128 7 7 (313600)
I0309 00:27:49.304358 29592 net.cpp:67] Creating Layer inception_5b/relu_pool_proj
I0309 00:27:49.304364 29592 net.cpp:394] inception_5b/relu_pool_proj <- inception_5b/pool_proj
I0309 00:27:49.304370 29592 net.cpp:345] inception_5b/relu_pool_proj -> inception_5b/pool_proj (in-place)
I0309 00:27:49.304378 29592 net.cpp:96] Setting up inception_5b/relu_pool_proj
I0309 00:27:49.304384 29592 net.cpp:103] Top shape: 50 128 7 7 (313600)
I0309 00:27:49.304390 29592 net.cpp:67] Creating Layer inception_5b/output
I0309 00:27:49.304394 29592 net.cpp:394] inception_5b/output <- inception_5b/1x1
I0309 00:27:49.304399 29592 net.cpp:394] inception_5b/output <- inception_5b/3x3
I0309 00:27:49.304404 29592 net.cpp:394] inception_5b/output <- inception_5b/5x5
I0309 00:27:49.304409 29592 net.cpp:394] inception_5b/output <- inception_5b/pool_proj
I0309 00:27:49.304416 29592 net.cpp:356] inception_5b/output -> inception_5b/output
I0309 00:27:49.304424 29592 net.cpp:96] Setting up inception_5b/output
I0309 00:27:49.304429 29592 net.cpp:103] Top shape: 50 1024 7 7 (2508800)
I0309 00:27:49.304433 29592 net.cpp:67] Creating Layer pool5/7x7_s1
I0309 00:27:49.304438 29592 net.cpp:394] pool5/7x7_s1 <- inception_5b/output
I0309 00:27:49.304445 29592 net.cpp:356] pool5/7x7_s1 -> pool5/7x7_s1
I0309 00:27:49.304450 29592 net.cpp:96] Setting up pool5/7x7_s1
I0309 00:27:49.304457 29592 net.cpp:103] Top shape: 50 1024 1 1 (51200)
I0309 00:27:49.304464 29592 net.cpp:67] Creating Layer pool5/drop_7x7_s1
I0309 00:27:49.304469 29592 net.cpp:394] pool5/drop_7x7_s1 <- pool5/7x7_s1
I0309 00:27:49.304474 29592 net.cpp:345] pool5/drop_7x7_s1 -> pool5/7x7_s1 (in-place)
I0309 00:27:49.304479 29592 net.cpp:96] Setting up pool5/drop_7x7_s1
I0309 00:27:49.304499 29592 net.cpp:103] Top shape: 50 1024 1 1 (51200)
I0309 00:27:49.304509 29592 net.cpp:67] Creating Layer loss3/classifier
I0309 00:27:49.304513 29592 net.cpp:394] loss3/classifier <- pool5/7x7_s1
I0309 00:27:49.304520 29592 net.cpp:356] loss3/classifier -> loss3/classifier
I0309 00:27:49.304527 29592 net.cpp:96] Setting up loss3/classifier
I0309 00:27:49.305562 29592 net.cpp:103] Top shape: 50 121 1 1 (6050)
I0309 00:27:49.305585 29592 net.cpp:67] Creating Layer loss3/classifier_loss3/classifier_0_split
I0309 00:27:49.305591 29592 net.cpp:394] loss3/classifier_loss3/classifier_0_split <- loss3/classifier
I0309 00:27:49.305598 29592 net.cpp:356] loss3/classifier_loss3/classifier_0_split -> loss3/classifier_loss3/classifier_0_split_0
I0309 00:27:49.305604 29592 net.cpp:356] loss3/classifier_loss3/classifier_0_split -> loss3/classifier_loss3/classifier_0_split_1
I0309 00:27:49.305613 29592 net.cpp:356] loss3/classifier_loss3/classifier_0_split -> loss3/classifier_loss3/classifier_0_split_2
I0309 00:27:49.305620 29592 net.cpp:96] Setting up loss3/classifier_loss3/classifier_0_split
I0309 00:27:49.305625 29592 net.cpp:103] Top shape: 50 121 1 1 (6050)
I0309 00:27:49.305629 29592 net.cpp:103] Top shape: 50 121 1 1 (6050)
I0309 00:27:49.305632 29592 net.cpp:103] Top shape: 50 121 1 1 (6050)
I0309 00:27:49.305639 29592 net.cpp:67] Creating Layer loss3/loss3
I0309 00:27:49.305642 29592 net.cpp:394] loss3/loss3 <- loss3/classifier_loss3/classifier_0_split_0
I0309 00:27:49.305647 29592 net.cpp:394] loss3/loss3 <- label_data_1_split_6
I0309 00:27:49.305655 29592 net.cpp:356] loss3/loss3 -> loss3/loss3
I0309 00:27:49.305673 29592 net.cpp:96] Setting up loss3/loss3
I0309 00:27:49.305696 29592 net.cpp:103] Top shape: 1 1 1 1 (1)
I0309 00:27:49.305708 29592 net.cpp:109]     with loss weight 1
I0309 00:27:49.305721 29592 net.cpp:67] Creating Layer loss3/top-1
I0309 00:27:49.305726 29592 net.cpp:394] loss3/top-1 <- loss3/classifier_loss3/classifier_0_split_1
I0309 00:27:49.305730 29592 net.cpp:394] loss3/top-1 <- label_data_1_split_7
I0309 00:27:49.305735 29592 net.cpp:356] loss3/top-1 -> loss3/top-1
I0309 00:27:49.305742 29592 net.cpp:96] Setting up loss3/top-1
I0309 00:27:49.305747 29592 net.cpp:103] Top shape: 1 1 1 1 (1)
I0309 00:27:49.305752 29592 net.cpp:67] Creating Layer loss3/top-5
I0309 00:27:49.305757 29592 net.cpp:394] loss3/top-5 <- loss3/classifier_loss3/classifier_0_split_2
I0309 00:27:49.305762 29592 net.cpp:394] loss3/top-5 <- label_data_1_split_8
I0309 00:27:49.305770 29592 net.cpp:356] loss3/top-5 -> loss3/top-5
I0309 00:27:49.305778 29592 net.cpp:96] Setting up loss3/top-5
I0309 00:27:49.305783 29592 net.cpp:103] Top shape: 1 1 1 1 (1)
I0309 00:27:49.305786 29592 net.cpp:172] loss3/top-5 does not need backward computation.
I0309 00:27:49.305790 29592 net.cpp:172] loss3/top-1 does not need backward computation.
I0309 00:27:49.305794 29592 net.cpp:170] loss3/loss3 needs backward computation.
I0309 00:27:49.305798 29592 net.cpp:170] loss3/classifier_loss3/classifier_0_split needs backward computation.
I0309 00:27:49.305801 29592 net.cpp:170] loss3/classifier needs backward computation.
…
