…
I0308 01:11:49.257660  9810 net.cpp:275] The NetState phase (0) differed from the phase (1) specified by a rule in layer loss3/top-1
I0308 01:11:49.257674  9810 net.cpp:275] The NetState phase (0) differed from the phase (1) specified by a rule in layer loss3/top-5
I0308 01:11:49.258616  9810 net.cpp:39] Initializing net from parameters: 
name: "GoogleNet"
layers {
  top: "data"
  top: "label"
  name: "data"
  type: DATA
  data_param {
    source: "data/256_scale_aug2/train_lmdb"
    batch_size: 25
    backend: LMDB
  }
  include {
    phase: TRAIN
  }
  transform_param {
    mirror: true
    crop_size: 224
    mean_file: "data/256_scale_aug2/train_mean.binaryproto"
  }
}
layers {
  bottom: "data"
  top: "conv1/7x7_s2"
  name: "conv1/7x7_s2"
  type: CONVOLUTION
  blobs_lr: 1
  blobs_lr: 2
  weight_decay: 1
  weight_decay: 0
  convolution_param {
    num_output: 64
    pad: 3
    kernel_size: 7
    stride: 2
    weight_filler {
      type: "xavier"
      std: 0.1
    }
    bias_filler {
      type: "constant"
      value: 0.2
    }
  }
}
layers {
  bottom: "conv1/7x7_s2"
  top: "conv1/7x7_s2"
  name: "conv1/relu_7x7"
  type: RELU
}
layers {
  bottom: "conv1/7x7_s2"
  top: "pool1/3x3_s2"
  name: "pool1/3x3_s2"
  type: POOLING
  pooling_param {
    pool: MAX
    kernel_size: 3
    stride: 2
  }
}
layers {
  bottom: "pool1/3x3_s2"
  top: "pool1/norm1"
  name: "pool1/norm1"
  type: LRN
  lrn_param {
    local_size: 5
    alpha: 0.0001
    beta: 0.75
  }
}
layers {
  bottom: "pool1/norm1"
  top: "conv2/3x3_reduce"
  name: "conv2/3x3_reduce"
  type: CONVOLUTION
  blobs_lr: 1
  blobs_lr: 2
  weight_decay: 1
  weight_decay: 0
  convolution_param {
    num_output: 64
    kernel_size: 1
    weight_filler {
      type: "xavier"
      std: 0.1
    }
    bias_filler {
      type: "constant"
      value: 0.2
    }
  }
}
layers {
  bottom: "conv2/3x3_reduce"
  top: "conv2/3x3_reduce"
  name: "conv2/relu_3x3_reduce"
  type: RELU
}
layers {
  bottom: "conv2/3x3_reduce"
  top: "conv2/3x3"
  name: "conv2/3x3"
  type: CONVOLUTION
  blobs_lr: 1
  blobs_lr: 2
  weight_decay: 1
  weight_decay: 0
  convolution_param {
    num_output: 192
    pad: 1
    kernel_size: 3
    weight_filler {
      type: "xavier"
      std: 0.03
    }
    bias_filler {
      type: "constant"
      value: 0.2
    }
  }
}
layers {
  bottom: "conv2/3x3"
  top: "conv2/3x3"
  name: "conv2/relu_3x3"
  type: RELU
}
layers {
  bottom: "conv2/3x3"
  top: "conv2/norm2"
  name: "conv2/norm2"
  type: LRN
  lrn_param {
    local_size: 5
    alpha: 0.0001
    beta: 0.75
  }
}
layers {
  bottom: "conv2/norm2"
  top: "pool2/3x3_s2"
  name: "pool2/3x3_s2"
  type: POOLING
  pooling_param {
    pool: MAX
    kernel_size: 3
    stride: 2
  }
}
layers {
  bottom: "pool2/3x3_s2"
  top: "inception_3a/1x1"
  name: "inception_3a/1x1"
  type: CONVOLUTION
  blobs_lr: 1
  blobs_lr: 2
  weight_decay: 1
  weight_decay: 0
  convolution_param {
    num_output: 64
    kernel_size: 1
    weight_filler {
      type: "xavier"
      std: 0.03
    }
    bias_filler {
      type: "constant"
      value: 0.2
    }
  }
}
layers {
  bottom: "inception_3a/1x1"
  top: "inception_3a/1x1"
  name: "inception_3a/relu_1x1"
  type: RELU
}
layers {
  bottom: "pool2/3x3_s2"
  top: "inception_3a/3x3_reduce"
  name: "inception_3a/3x3_reduce"
  type: CONVOLUTION
  blobs_lr: 1
  blobs_lr: 2
  weight_decay: 1
  weight_decay: 0
  convolution_param {
    num_output: 96
    kernel_size: 1
    weight_filler {
      type: "xavier"
      std: 0.09
    }
    bias_filler {
      type: "constant"
      value: 0.2
    }
  }
}
layers {
  bottom: "inception_3a/3x3_reduce"
  top: "inception_3a/3x3_reduce"
  name: "inception_3a/relu_3x3_reduce"
  type: RELU
}
layers {
  bottom: "inception_3a/3x3_reduce"
  top: "inception_3a/3x3"
  name: "inception_3a/3x3"
  type: CONVOLUTION
  blobs_lr: 1
  blobs_lr: 2
  weight_decay: 1
  weight_decay: 0
  convolution_param {
    num_output: 128
    pad: 1
    kernel_size: 3
    weight_filler {
      type: "xavier"
      std: 0.03
    }
    bias_filler {
      type: "constant"
      value: 0.2
    }
  }
}
layers {
  bottom: "inception_3a/3x3"
  top: "inception_3a/3x3"
  name: "inception_3a/relu_3x3"
  type: RELU
}
layers {
  bottom: "pool2/3x3_s2"
  top: "inception_3a/5x5_reduce"
  name: "inception_3a/5x5_reduce"
  type: CONVOLUTION
  blobs_lr: 1
  blobs_lr: 2
  weight_decay: 1
  weight_decay: 0
  convolution_param {
    num_output: 16
    kernel_size: 1
    weight_filler {
      type: "xavier"
      std: 0.2
    }
    bias_filler {
      type: "constant"
      value: 0.2
    }
  }
}
layers {
  bottom: "inception_3a/5x5_reduce"
  top: "inception_3a/5x5_reduce"
  name: "inception_3a/relu_5x5_reduce"
  type: RELU
}
layers {
  bottom: "inception_3a/5x5_reduce"
  top: "inception_3a/5x5"
  name: "inception_3a/5x5"
  type: CONVOLUTION
  blobs_lr: 1
  blobs_lr: 2
  weight_decay: 1
  weight_decay: 0
  convolution_param {
    num_output: 32
    pad: 2
    kernel_size: 5
    weight_filler {
      type: "xavier"
      std: 0.03
    }
    bias_filler {
      type: "constant"
      value: 0.2
    }
  }
}
layers {
  bottom: "inception_3a/5x5"
  top: "inception_3a/5x5"
  name: "inception_3a/relu_5x5"
  type: RELU
}
layers {
  bottom: "pool2/3x3_s2"
  top: "inception_3a/pool"
  name: "inception_3a/pool"
  type: POOLING
  pooling_param {
    pool: MAX
    kernel_size: 3
    stride: 1
    pad: 1
  }
}
layers {
  bottom: "inception_3a/pool"
  top: "inception_3a/pool_proj"
  name: "inception_3a/pool_proj"
  type: CONVOLUTION
  blobs_lr: 1
  blobs_lr: 2
  weight_decay: 1
  weight_decay: 0
  convolution_param {
    num_output: 32
    kernel_size: 1
    weight_filler {
      type: "xavier"
      std: 0.1
    }
    bias_filler {
      type: "constant"
      value: 0.2
    }
  }
}
layers {
  bottom: "inception_3a/pool_proj"
  top: "inception_3a/pool_proj"
  name: "inception_3a/relu_pool_proj"
  type: RELU
}
layers {
  bottom: "inception_3a/1x1"
  bottom: "inception_3a/3x3"
  bottom: "inception_3a/5x5"
  bottom: "inception_3a/pool_proj"
  top: "inception_3a/output"
  name: "inception_3a/output"
  type: CONCAT
}
layers {
  bottom: "inception_3a/output"
  top: "inception_3b/1x1"
  name: "inception_3b/1x1"
  type: CONVOLUTION
  blobs_lr: 1
  blobs_lr: 2
  weight_decay: 1
  weight_decay: 0
  convolution_param {
    num_output: 128
    kernel_size: 1
    weight_filler {
      type: "xavier"
      std: 0.03
    }
    bias_filler {
      type: "constant"
      value: 0.2
    }
  }
}
layers {
  bottom: "inception_3b/1x1"
  top: "inception_3b/1x1"
  name: "inception_3b/relu_1x1"
  type: RELU
}
layers {
  bottom: "inception_3a/output"
  top: "inception_3b/3x3_reduce"
  name: "inception_3b/3x3_reduce"
  type: CONVOLUTION
  blobs_lr: 1
  blobs_lr: 2
  weight_decay: 1
  weight_decay: 0
  convolution_param {
    num_output: 128
    kernel_size: 1
    weight_filler {
      type: "xavier"
      std: 0.09
    }
    bias_filler {
      type: "constant"
      value: 0.2
    }
  }
}
layers {
  bottom: "inception_3b/3x3_reduce"
  top: "inception_3b/3x3_reduce"
  name: "inception_3b/relu_3x3_reduce"
  type: RELU
}
layers {
  bottom: "inception_3b/3x3_reduce"
  top: "inception_3b/3x3"
  name: "inception_3b/3x3"
  type: CONVOLUTION
  blobs_lr: 1
  blobs_lr: 2
  weight_decay: 1
  weight_decay: 0
  convolution_param {
    num_output: 192
    pad: 1
    kernel_size: 3
    weight_filler {
      type: "xavier"
      std: 0.03
    }
    bias_filler {
      type: "constant"
      value: 0.2
    }
  }
}
layers {
  bottom: "inception_3b/3x3"
  top: "inception_3b/3x3"
  name: "inception_3b/relu_3x3"
  type: RELU
}
layers {
  bottom: "inception_3a/output"
  top: "inception_3b/5x5_reduce"
  name: "inception_3b/5x5_reduce"
  type: CONVOLUTION
  blobs_lr: 1
  blobs_lr: 2
  weight_decay: 1
  weight_decay: 0
  convolution_param {
    num_output: 32
    kernel_size: 1
    weight_filler {
      type: "xavier"
      std: 0.2
    }
    bias_filler {
      type: "constant"
      value: 0.2
    }
  }
}
layers {
  bottom: "inception_3b/5x5_reduce"
  top: "inception_3b/5x5_reduce"
  name: "inception_3b/relu_5x5_reduce"
  type: RELU
}
layers {
  bottom: "inception_3b/5x5_reduce"
  top: "inception_3b/5x5"
  name: "inception_3b/5x5"
  type: CONVOLUTION
  blobs_lr: 1
  blobs_lr: 2
  weight_decay: 1
  weight_decay: 0
  convolution_param {
    num_output: 96
    pad: 2
    kernel_size: 5
    weight_filler {
      type: "xavier"
      std: 0.03
    }
    bias_filler {
      type: "constant"
      value: 0.2
    }
  }
}
layers {
  bottom: "inception_3b/5x5"
  top: "inception_3b/5x5"
  name: "inception_3b/relu_5x5"
  type: RELU
}
layers {
  bottom: "inception_3a/output"
  top: "inception_3b/pool"
  name: "inception_3b/pool"
  type: POOLING
  pooling_param {
    pool: MAX
    kernel_size: 3
    stride: 1
    pad: 1
  }
}
layers {
  bottom: "inception_3b/pool"
  top: "inception_3b/pool_proj"
  name: "inception_3b/pool_proj"
  type: CONVOLUTION
  blobs_lr: 1
  blobs_lr: 2
  weight_decay: 1
  weight_decay: 0
  convolution_param {
    num_output: 64
    kernel_size: 1
    weight_filler {
      type: "xavier"
      std: 0.1
    }
    bias_filler {
      type: "constant"
      value: 0.2
    }
  }
}
layers {
  bottom: "inception_3b/pool_proj"
  top: "inception_3b/pool_proj"
  name: "inception_3b/relu_pool_proj"
  type: RELU
}
layers {
  bottom: "inception_3b/1x1"
  bottom: "inception_3b/3x3"
  bottom: "inception_3b/5x5"
  bottom: "inception_3b/pool_proj"
  top: "inception_3b/output"
  name: "inception_3b/output"
  type: CONCAT
}
layers {
  bottom: "inception_3b/output"
  top: "pool3/3x3_s2"
  name: "pool3/3x3_s2"
  type: POOLING
  pooling_param {
    pool: MAX
    kernel_size: 3
    stride: 2
  }
}
layers {
  bottom: "pool3/3x3_s2"
  top: "inception_4a/1x1"
  name: "inception_4a/1x1"
  type: CONVOLUTION
  blobs_lr: 1
  blobs_lr: 2
  weight_decay: 1
  weight_decay: 0
  convolution_param {
    num_output: 192
    kernel_size: 1
    weight_filler {
      type: "xavier"
      std: 0.03
    }
    bias_filler {
      type: "constant"
      value: 0.2
    }
  }
}
layers {
  bottom: "inception_4a/1x1"
  top: "inception_4a/1x1"
  name: "inception_4a/relu_1x1"
  type: RELU
}
layers {
  bottom: "pool3/3x3_s2"
  top: "inception_4a/3x3_reduce"
  name: "inception_4a/3x3_reduce"
  type: CONVOLUTION
  blobs_lr: 1
  blobs_lr: 2
  weight_decay: 1
  weight_decay: 0
  convolution_param {
    num_output: 96
    kernel_size: 1
    weight_filler {
      type: "xavier"
      std: 0.09
    }
    bias_filler {
      type: "constant"
      value: 0.2
    }
  }
}
layers {
  bottom: "inception_4a/3x3_reduce"
  top: "inception_4a/3x3_reduce"
  name: "inception_4a/relu_3x3_reduce"
  type: RELU
}
layers {
  bottom: "inception_4a/3x3_reduce"
  top: "inception_4a/3x3"
  name: "inception_4a/3x3"
  type: CONVOLUTION
  blobs_lr: 1
  blobs_lr: 2
  weight_decay: 1
  weight_decay: 0
  convolution_param {
    num_output: 208
    pad: 1
    kernel_size: 3
    weight_filler {
      type: "xavier"
      std: 0.03
    }
    bias_filler {
      type: "constant"
      value: 0.2
    }
  }
}
layers {
  bottom: "inception_4a/3x3"
  top: "inception_4a/3x3"
  name: "inception_4a/relu_3x3"
  type: RELU
}
layers {
  bottom: "pool3/3x3_s2"
  top: "inception_4a/5x5_reduce"
  name: "inception_4a/5x5_reduce"
  type: CONVOLUTION
  blobs_lr: 1
  blobs_lr: 2
  weight_decay: 1
  weight_decay: 0
  convolution_param {
    num_output: 16
    kernel_size: 1
    weight_filler {
      type: "xavier"
      std: 0.2
    }
    bias_filler {
      type: "constant"
      value: 0.2
    }
  }
}
layers {
  bottom: "inception_4a/5x5_reduce"
  top: "inception_4a/5x5_reduce"
  name: "inception_4a/relu_5x5_reduce"
  type: RELU
}
layers {
  bottom: "inception_4a/5x5_reduce"
  top: "inception_4a/5x5"
  name: "inception_4a/5x5"
  type: CONVOLUTION
  blobs_lr: 1
  blobs_lr: 2
  weight_decay: 1
  weight_decay: 0
  convolution_param {
    num_output: 48
    pad: 2
    kernel_size: 5
    weight_filler {
      type: "xavier"
      std: 0.03
    }
    bias_filler {
      type: "constant"
      value: 0.2
    }
  }
}
layers {
  bottom: "inception_4a/5x5"
  top: "inception_4a/5x5"
  name: "inception_4a/relu_5x5"
  type: RELU
}
layers {
  bottom: "pool3/3x3_s2"
  top: "inception_4a/pool"
  name: "inception_4a/pool"
  type: POOLING
  pooling_param {
    pool: MAX
    kernel_size: 3
    stride: 1
    pad: 1
  }
}
layers {
  bottom: "inception_4a/pool"
  top: "inception_4a/pool_proj"
  name: "inception_4a/pool_proj"
  type: CONVOLUTION
  blobs_lr: 1
  blobs_lr: 2
  weight_decay: 1
  weight_decay: 0
  convolution_param {
    num_output: 64
    kernel_size: 1
    weight_filler {
      type: "xavier"
      std: 0.1
    }
    bias_filler {
      type: "constant"
      value: 0.2
    }
  }
}
layers {
  bottom: "inception_4a/pool_proj"
  top: "inception_4a/pool_proj"
  name: "inception_4a/relu_pool_proj"
  type: RELU
}
layers {
  bottom: "inception_4a/1x1"
  bottom: "inception_4a/3x3"
  bottom: "inception_4a/5x5"
  bottom: "inception_4a/pool_proj"
  top: "inception_4a/output"
  name: "inception_4a/output"
  type: CONCAT
}
layers {
  bottom: "inception_4a/output"
  top: "loss1/ave_pool"
  name: "loss1/ave_pool"
  type: POOLING
  pooling_param {
    pool: AVE
    kernel_size: 5
    stride: 3
  }
}
layers {
  bottom: "loss1/ave_pool"
  top: "loss1/conv"
  name: "loss1/conv"
  type: CONVOLUTION
  blobs_lr: 1
  blobs_lr: 2
  weight_decay: 1
  weight_decay: 0
  convolution_param {
    num_output: 128
    kernel_size: 1
    weight_filler {
      type: "xavier"
      std: 0.08
    }
    bias_filler {
      type: "constant"
      value: 0.2
    }
  }
}
layers {
  bottom: "loss1/conv"
  top: "loss1/conv"
  name: "loss1/relu_conv"
  type: RELU
}
layers {
  bottom: "loss1/conv"
  top: "loss1/fc"
  name: "loss1/fc"
  type: INNER_PRODUCT
  blobs_lr: 1
  blobs_lr: 2
  weight_decay: 1
  weight_decay: 0
  inner_product_param {
    num_output: 1024
    weight_filler {
      type: "xavier"
      std: 0.02
    }
    bias_filler {
      type: "constant"
      value: 0.2
    }
  }
}
layers {
  bottom: "loss1/fc"
  top: "loss1/fc"
  name: "loss1/relu_fc"
  type: RELU
}
layers {
  bottom: "loss1/fc"
  top: "loss1/fc"
  name: "loss1/drop_fc"
  type: DROPOUT
  dropout_param {
    dropout_ratio: 0.7
  }
}
layers {
  bottom: "loss1/fc"
  top: "loss1/classifier"
  name: "loss1/classifier"
  type: INNER_PRODUCT
  blobs_lr: 1
  blobs_lr: 2
  weight_decay: 1
  weight_decay: 0
  inner_product_param {
    num_output: 121
    weight_filler {
      type: "xavier"
      std: 0.0009765625
    }
    bias_filler {
      type: "constant"
      value: 0
    }
  }
}
layers {
  bottom: "loss1/classifier"
  bottom: "label"
  top: "loss1/loss1"
  name: "loss1/loss"
  type: SOFTMAX_LOSS
  loss_weight: 0.3
}
layers {
  bottom: "inception_4a/output"
  top: "inception_4b/1x1"
  name: "inception_4b/1x1"
  type: CONVOLUTION
  blobs_lr: 1
  blobs_lr: 2
  weight_decay: 1
  weight_decay: 0
  convolution_param {
    num_output: 160
    kernel_size: 1
    weight_filler {
      type: "xavier"
      std: 0.03
    }
    bias_filler {
      type: "constant"
      value: 0.2
    }
  }
}
layers {
  bottom: "inception_4b/1x1"
  top: "inception_4b/1x1"
  name: "inception_4b/relu_1x1"
  type: RELU
}
layers {
  bottom: "inception_4a/output"
  top: "inception_4b/3x3_reduce"
  name: "inception_4b/3x3_reduce"
  type: CONVOLUTION
  blobs_lr: 1
  blobs_lr: 2
  weight_decay: 1
  weight_decay: 0
  convolution_param {
    num_output: 112
    kernel_size: 1
    weight_filler {
      type: "xavier"
      std: 0.09
    }
    bias_filler {
      type: "constant"
      value: 0.2
    }
  }
}
layers {
  bottom: "inception_4b/3x3_reduce"
  top: "inception_4b/3x3_reduce"
  name: "inception_4b/relu_3x3_reduce"
  type: RELU
}
layers {
  bottom: "inception_4b/3x3_reduce"
  top: "inception_4b/3x3"
  name: "inception_4b/3x3"
  type: CONVOLUTION
  blobs_lr: 1
  blobs_lr: 2
  weight_decay: 1
  weight_decay: 0
  convolution_param {
    num_output: 224
    pad: 1
    kernel_size: 3
    weight_filler {
      type: "xavier"
      std: 0.03
    }
    bias_filler {
      type: "constant"
      value: 0.2
    }
  }
}
layers {
  bottom: "inception_4b/3x3"
  top: "inception_4b/3x3"
  name: "inception_4b/relu_3x3"
  type: RELU
}
layers {
  bottom: "inception_4a/output"
  top: "inception_4b/5x5_reduce"
  name: "inception_4b/5x5_reduce"
  type: CONVOLUTION
  blobs_lr: 1
  blobs_lr: 2
  weight_decay: 1
  weight_decay: 0
  convolution_param {
    num_output: 24
    kernel_size: 1
    weight_filler {
      type: "xavier"
      std: 0.2
    }
    bias_filler {
      type: "constant"
      value: 0.2
    }
  }
}
layers {
  bottom: "inception_4b/5x5_reduce"
  top: "inception_4b/5x5_reduce"
  name: "inception_4b/relu_5x5_reduce"
  type: RELU
}
layers {
  bottom: "inception_4b/5x5_reduce"
  top: "inception_4b/5x5"
  name: "inception_4b/5x5"
  type: CONVOLUTION
  blobs_lr: 1
  blobs_lr: 2
  weight_decay: 1
  weight_decay: 0
  convolution_param {
    num_output: 64
    pad: 2
    kernel_size: 5
    weight_filler {
      type: "xavier"
      std: 0.03
    }
    bias_filler {
      type: "constant"
      value: 0.2
    }
  }
}
layers {
  bottom: "inception_4b/5x5"
  top: "inception_4b/5x5"
  name: "inception_4b/relu_5x5"
  type: RELU
}
layers {
  bottom: "inception_4a/output"
  top: "inception_4b/pool"
  name: "inception_4b/pool"
  type: POOLING
  pooling_param {
    pool: MAX
    kernel_size: 3
    stride: 1
    pad: 1
  }
}
layers {
  bottom: "inception_4b/pool"
  top: "inception_4b/pool_proj"
  name: "inception_4b/pool_proj"
  type: CONVOLUTION
  blobs_lr: 1
  blobs_lr: 2
  weight_decay: 1
  weight_decay: 0
  convolution_param {
    num_output: 64
    kernel_size: 1
    weight_filler {
      type: "xavier"
      std: 0.1
    }
    bias_filler {
      type: "constant"
      value: 0.2
    }
  }
}
layers {
  bottom: "inception_4b/pool_proj"
  top: "inception_4b/pool_proj"
  name: "inception_4b/relu_pool_proj"
  type: RELU
}
layers {
  bottom: "inception_4b/1x1"
  bottom: "inception_4b/3x3"
  bottom: "inception_4b/5x5"
  bottom: "inception_4b/pool_proj"
  top: "inception_4b/output"
  name: "inception_4b/output"
  type: CONCAT
}
layers {
  bottom: "inception_4b/output"
  top: "inception_4c/1x1"
  name: "inception_4c/1x1"
  type: CONVOLUTION
  blobs_lr: 1
  blobs_lr: 2
  weight_decay: 1
  weight_decay: 0
  convolution_param {
    num_output: 128
    kernel_size: 1
    weight_filler {
      type: "xavier"
      std: 0.03
    }
    bias_filler {
      type: "constant"
      value: 0.2
    }
  }
}
layers {
  bottom: "inception_4c/1x1"
  top: "inception_4c/1x1"
  name: "inception_4c/relu_1x1"
  type: RELU
}
layers {
  bottom: "inception_4b/output"
  top: "inception_4c/3x3_reduce"
  name: "inception_4c/3x3_reduce"
  type: CONVOLUTION
  blobs_lr: 1
  blobs_lr: 2
  weight_decay: 1
  weight_decay: 0
  convolution_param {
    num_output: 128
    kernel_size: 1
    weight_filler {
      type: "xavier"
      std: 0.09
    }
    bias_filler {
      type: "constant"
      value: 0.2
    }
  }
}
layers {
  bottom: "inception_4c/3x3_reduce"
  top: "inception_4c/3x3_reduce"
  name: "inception_4c/relu_3x3_reduce"
  type: RELU
}
layers {
  bottom: "inception_4c/3x3_reduce"
  top: "inception_4c/3x3"
  name: "inception_4c/3x3"
  type: CONVOLUTION
  blobs_lr: 1
  blobs_lr: 2
  weight_decay: 1
  weight_decay: 0
  convolution_param {
    num_output: 256
    pad: 1
    kernel_size: 3
    weight_filler {
      type: "xavier"
      std: 0.03
    }
    bias_filler {
      type: "constant"
      value: 0.2
    }
  }
}
layers {
  bottom: "inception_4c/3x3"
  top: "inception_4c/3x3"
  name: "inception_4c/relu_3x3"
  type: RELU
}
layers {
  bottom: "inception_4b/output"
  top: "inception_4c/5x5_reduce"
  name: "inception_4c/5x5_reduce"
  type: CONVOLUTION
  blobs_lr: 1
  blobs_lr: 2
  weight_decay: 1
  weight_decay: 0
  convolution_param {
    num_output: 24
    kernel_size: 1
    weight_filler {
      type: "xavier"
      std: 0.2
    }
    bias_filler {
      type: "constant"
      value: 0.2
    }
  }
}
layers {
  bottom: "inception_4c/5x5_reduce"
  top: "inception_4c/5x5_reduce"
  name: "inception_4c/relu_5x5_reduce"
  type: RELU
}
layers {
  bottom: "inception_4c/5x5_reduce"
  top: "inception_4c/5x5"
  name: "inception_4c/5x5"
  type: CONVOLUTION
  blobs_lr: 1
  blobs_lr: 2
  weight_decay: 1
  weight_decay: 0
  convolution_param {
    num_output: 64
    pad: 2
    kernel_size: 5
    weight_filler {
      type: "xavier"
      std: 0.03
    }
    bias_filler {
      type: "constant"
      value: 0.2
    }
  }
}
layers {
  bottom: "inception_4c/5x5"
  top: "inception_4c/5x5"
  name: "inception_4c/relu_5x5"
  type: RELU
}
layers {
  bottom: "inception_4b/output"
  top: "inception_4c/pool"
  name: "inception_4c/pool"
  type: POOLING
  pooling_param {
    pool: MAX
    kernel_size: 3
    stride: 1
    pad: 1
  }
}
layers {
  bottom: "inception_4c/pool"
  top: "inception_4c/pool_proj"
  name: "inception_4c/pool_proj"
  type: CONVOLUTION
  blobs_lr: 1
  blobs_lr: 2
  weight_decay: 1
  weight_decay: 0
  convolution_param {
    num_output: 64
    kernel_size: 1
    weight_filler {
      type: "xavier"
      std: 0.1
    }
    bias_filler {
      type: "constant"
      value: 0.2
    }
  }
}
layers {
  bottom: "inception_4c/pool_proj"
  top: "inception_4c/pool_proj"
  name: "inception_4c/relu_pool_proj"
  type: RELU
}
layers {
  bottom: "inception_4c/1x1"
  bottom: "inception_4c/3x3"
  bottom: "inception_4c/5x5"
  bottom: "inception_4c/pool_proj"
  top: "inception_4c/output"
  name: "inception_4c/output"
  type: CONCAT
}
layers {
  bottom: "inception_4c/output"
  top: "inception_4d/1x1"
  name: "inception_4d/1x1"
  type: CONVOLUTION
  blobs_lr: 1
  blobs_lr: 2
  weight_decay: 1
  weight_decay: 0
  convolution_param {
    num_output: 112
    kernel_size: 1
    weight_filler {
      type: "xavier"
      std: 0.03
    }
    bias_filler {
      type: "constant"
      value: 0.2
    }
  }
}
layers {
  bottom: "inception_4d/1x1"
  top: "inception_4d/1x1"
  name: "inception_4d/relu_1x1"
  type: RELU
}
layers {
  bottom: "inception_4c/output"
  top: "inception_4d/3x3_reduce"
  name: "inception_4d/3x3_reduce"
  type: CONVOLUTION
  blobs_lr: 1
  blobs_lr: 2
  weight_decay: 1
  weight_decay: 0
  convolution_param {
    num_output: 144
    kernel_size: 1
    weight_filler {
      type: "xavier"
      std: 0.09
    }
    bias_filler {
      type: "constant"
      value: 0.2
    }
  }
}
layers {
  bottom: "inception_4d/3x3_reduce"
  top: "inception_4d/3x3_reduce"
  name: "inception_4d/relu_3x3_reduce"
  type: RELU
}
layers {
  bottom: "inception_4d/3x3_reduce"
  top: "inception_4d/3x3"
  name: "inception_4d/3x3"
  type: CONVOLUTION
  blobs_lr: 1
  blobs_lr: 2
  weight_decay: 1
  weight_decay: 0
  convolution_param {
    num_output: 288
    pad: 1
    kernel_size: 3
    weight_filler {
      type: "xavier"
      std: 0.03
    }
    bias_filler {
      type: "constant"
      value: 0.2
    }
  }
}
layers {
  bottom: "inception_4d/3x3"
  top: "inception_4d/3x3"
  name: "inception_4d/relu_3x3"
  type: RELU
}
layers {
  bottom: "inception_4c/output"
  top: "inception_4d/5x5_reduce"
  name: "inception_4d/5x5_reduce"
  type: CONVOLUTION
  blobs_lr: 1
  blobs_lr: 2
  weight_decay: 1
  weight_decay: 0
  convolution_param {
    num_output: 32
    kernel_size: 1
    weight_filler {
      type: "xavier"
      std: 0.2
    }
    bias_filler {
      type: "constant"
      value: 0.2
    }
  }
}
layers {
  bottom: "inception_4d/5x5_reduce"
  top: "inception_4d/5x5_reduce"
  name: "inception_4d/relu_5x5_reduce"
  type: RELU
}
layers {
  bottom: "inception_4d/5x5_reduce"
  top: "inception_4d/5x5"
  name: "inception_4d/5x5"
  type: CONVOLUTION
  blobs_lr: 1
  blobs_lr: 2
  weight_decay: 1
  weight_decay: 0
  convolution_param {
    num_output: 64
    pad: 2
    kernel_size: 5
    weight_filler {
      type: "xavier"
      std: 0.03
    }
    bias_filler {
      type: "constant"
      value: 0.2
    }
  }
}
layers {
  bottom: "inception_4d/5x5"
  top: "inception_4d/5x5"
  name: "inception_4d/relu_5x5"
  type: RELU
}
layers {
  bottom: "inception_4c/output"
  top: "inception_4d/pool"
  name: "inception_4d/pool"
  type: POOLING
  pooling_param {
    pool: MAX
    kernel_size: 3
    stride: 1
    pad: 1
  }
}
layers {
  bottom: "inception_4d/pool"
  top: "inception_4d/pool_proj"
  name: "inception_4d/pool_proj"
  type: CONVOLUTION
  blobs_lr: 1
  blobs_lr: 2
  weight_decay: 1
  weight_decay: 0
  convolution_param {
    num_output: 64
    kernel_size: 1
    weight_filler {
      type: "xavier"
      std: 0.1
    }
    bias_filler {
      type: "constant"
      value: 0.2
    }
  }
}
layers {
  bottom: "inception_4d/pool_proj"
  top: "inception_4d/pool_proj"
  name: "inception_4d/relu_pool_proj"
  type: RELU
}
layers {
  bottom: "inception_4d/1x1"
  bottom: "inception_4d/3x3"
  bottom: "inception_4d/5x5"
  bottom: "inception_4d/pool_proj"
  top: "inception_4d/output"
  name: "inception_4d/output"
  type: CONCAT
}
layers {
  bottom: "inception_4d/output"
  top: "loss2/ave_pool"
  name: "loss2/ave_pool"
  type: POOLING
  pooling_param {
    pool: AVE
    kernel_size: 5
    stride: 3
  }
}
layers {
  bottom: "loss2/ave_pool"
  top: "loss2/conv"
  name: "loss2/conv"
  type: CONVOLUTION
  blobs_lr: 1
  blobs_lr: 2
  weight_decay: 1
  weight_decay: 0
  convolution_param {
    num_output: 128
    kernel_size: 1
    weight_filler {
      type: "xavier"
      std: 0.08
    }
    bias_filler {
      type: "constant"
      value: 0.2
    }
  }
}
layers {
  bottom: "loss2/conv"
  top: "loss2/conv"
  name: "loss2/relu_conv"
  type: RELU
}
layers {
  bottom: "loss2/conv"
  top: "loss2/fc"
  name: "loss2/fc"
  type: INNER_PRODUCT
  blobs_lr: 1
  blobs_lr: 2
  weight_decay: 1
  weight_decay: 0
  inner_product_param {
    num_output: 1024
    weight_filler {
      type: "xavier"
      std: 0.02
    }
    bias_filler {
      type: "constant"
      value: 0.2
    }
  }
}
layers {
  bottom: "loss2/fc"
  top: "loss2/fc"
  name: "loss2/relu_fc"
  type: RELU
}
layers {
  bottom: "loss2/fc"
  top: "loss2/fc"
  name: "loss2/drop_fc"
  type: DROPOUT
  dropout_param {
    dropout_ratio: 0.7
  }
}
layers {
  bottom: "loss2/fc"
  top: "loss2/classifier"
  name: "loss2/classifier"
  type: INNER_PRODUCT
  blobs_lr: 1
  blobs_lr: 2
  weight_decay: 1
  weight_decay: 0
  inner_product_param {
    num_output: 121
    weight_filler {
      type: "xavier"
      std: 0.0009765625
    }
    bias_filler {
      type: "constant"
      value: 0
    }
  }
}
layers {
  bottom: "loss2/classifier"
  bottom: "label"
  top: "loss2/loss1"
  name: "loss2/loss"
  type: SOFTMAX_LOSS
  loss_weight: 0.3
}
layers {
  bottom: "inception_4d/output"
  top: "inception_4e/1x1"
  name: "inception_4e/1x1"
  type: CONVOLUTION
  blobs_lr: 1
  blobs_lr: 2
  weight_decay: 1
  weight_decay: 0
  convolution_param {
    num_output: 256
    kernel_size: 1
    weight_filler {
      type: "xavier"
      std: 0.03
    }
    bias_filler {
      type: "constant"
      value: 0.2
    }
  }
}
layers {
  bottom: "inception_4e/1x1"
  top: "inception_4e/1x1"
  name: "inception_4e/relu_1x1"
  type: RELU
}
layers {
  bottom: "inception_4d/output"
  top: "inception_4e/3x3_reduce"
  name: "inception_4e/3x3_reduce"
  type: CONVOLUTION
  blobs_lr: 1
  blobs_lr: 2
  weight_decay: 1
  weight_decay: 0
  convolution_param {
    num_output: 160
    kernel_size: 1
    weight_filler {
      type: "xavier"
      std: 0.09
    }
    bias_filler {
      type: "constant"
      value: 0.2
    }
  }
}
layers {
  bottom: "inception_4e/3x3_reduce"
  top: "inception_4e/3x3_reduce"
  name: "inception_4e/relu_3x3_reduce"
  type: RELU
}
layers {
  bottom: "inception_4e/3x3_reduce"
  top: "inception_4e/3x3"
  name: "inception_4e/3x3"
  type: CONVOLUTION
  blobs_lr: 1
  blobs_lr: 2
  weight_decay: 1
  weight_decay: 0
  convolution_param {
    num_output: 320
    pad: 1
    kernel_size: 3
    weight_filler {
      type: "xavier"
      std: 0.03
    }
    bias_filler {
      type: "constant"
      value: 0.2
    }
  }
}
layers {
  bottom: "inception_4e/3x3"
  top: "inception_4e/3x3"
  name: "inception_4e/relu_3x3"
  type: RELU
}
layers {
  bottom: "inception_4d/output"
  top: "inception_4e/5x5_reduce"
  name: "inception_4e/5x5_reduce"
  type: CONVOLUTION
  blobs_lr: 1
  blobs_lr: 2
  weight_decay: 1
  weight_decay: 0
  convolution_param {
    num_output: 32
    kernel_size: 1
    weight_filler {
      type: "xavier"
      std: 0.2
    }
    bias_filler {
      type: "constant"
      value: 0.2
    }
  }
}
layers {
  bottom: "inception_4e/5x5_reduce"
  top: "inception_4e/5x5_reduce"
  name: "inception_4e/relu_5x5_reduce"
  type: RELU
}
layers {
  bottom: "inception_4e/5x5_reduce"
  top: "inception_4e/5x5"
  name: "inception_4e/5x5"
  type: CONVOLUTION
  blobs_lr: 1
  blobs_lr: 2
  weight_decay: 1
  weight_decay: 0
  convolution_param {
    num_output: 128
    pad: 2
    kernel_size: 5
    weight_filler {
      type: "xavier"
      std: 0.03
    }
    bias_filler {
      type: "constant"
      value: 0.2
    }
  }
}
layers {
  bottom: "inception_4e/5x5"
  top: "inception_4e/5x5"
  name: "inception_4e/relu_5x5"
  type: RELU
}
layers {
  bottom: "inception_4d/output"
  top: "inception_4e/pool"
  name: "inception_4e/pool"
  type: POOLING
  pooling_param {
    pool: MAX
    kernel_size: 3
    stride: 1
    pad: 1
  }
}
layers {
  bottom: "inception_4e/pool"
  top: "inception_4e/pool_proj"
  name: "inception_4e/pool_proj"
  type: CONVOLUTION
  blobs_lr: 1
  blobs_lr: 2
  weight_decay: 1
  weight_decay: 0
  convolution_param {
    num_output: 128
    kernel_size: 1
    weight_filler {
      type: "xavier"
      std: 0.1
    }
    bias_filler {
      type: "constant"
      value: 0.2
    }
  }
}
layers {
  bottom: "inception_4e/pool_proj"
  top: "inception_4e/pool_proj"
  name: "inception_4e/relu_pool_proj"
  type: RELU
}
layers {
  bottom: "inception_4e/1x1"
  bottom: "inception_4e/3x3"
  bottom: "inception_4e/5x5"
  bottom: "inception_4e/pool_proj"
  top: "inception_4e/output"
  name: "inception_4e/output"
  type: CONCAT
}
layers {
  bottom: "inception_4e/output"
  top: "pool4/3x3_s2"
  name: "pool4/3x3_s2"
  type: POOLING
  pooling_param {
    
I0308 01:11:49.259320  9810 net.cpp:67] Creating Layer data
I0308 01:11:49.259337  9810 net.cpp:356] data -> data
I0308 01:11:49.259356  9810 net.cpp:356] data -> label
I0308 01:11:49.259372  9810 net.cpp:96] Setting up data
I0308 01:11:49.259464  9810 data_layer.cpp:68] Opening lmdb data/256_scale_aug2/train_lmdb
I0308 01:11:49.259548  9810 data_layer.cpp:128] output data size: 25,1,224,224
I0308 01:11:49.259557  9810 base_data_layer.cpp:36] Loading mean file fromdata/256_scale_aug2/train_mean.binaryproto
I0308 01:11:49.262256  9810 net.cpp:103] Top shape: 25 1 224 224 (1254400)
I0308 01:11:49.262267  9810 net.cpp:103] Top shape: 25 1 1 1 (25)
I0308 01:11:49.262279  9810 net.cpp:67] Creating Layer label_data_1_split
I0308 01:11:49.262284  9810 net.cpp:394] label_data_1_split <- label
I0308 01:11:49.262303  9810 net.cpp:356] label_data_1_split -> label_data_1_split_0
I0308 01:11:49.262312  9810 net.cpp:356] label_data_1_split -> label_data_1_split_1
I0308 01:11:49.262320  9810 net.cpp:356] label_data_1_split -> label_data_1_split_2
I0308 01:11:49.262328  9810 net.cpp:96] Setting up label_data_1_split
I0308 01:11:49.262336  9810 net.cpp:103] Top shape: 25 1 1 1 (25)
I0308 01:11:49.262341  9810 net.cpp:103] Top shape: 25 1 1 1 (25)
I0308 01:11:49.262346  9810 net.cpp:103] Top shape: 25 1 1 1 (25)
I0308 01:11:49.262367  9810 net.cpp:67] Creating Layer conv1/7x7_s2
I0308 01:11:49.262372  9810 net.cpp:394] conv1/7x7_s2 <- data
I0308 01:11:49.262379  9810 net.cpp:356] conv1/7x7_s2 -> conv1/7x7_s2
I0308 01:11:49.262388  9810 net.cpp:96] Setting up conv1/7x7_s2
I0308 01:11:49.283084  9810 net.cpp:103] Top shape: 25 64 112 112 (20070400)
I0308 01:11:49.283134  9810 net.cpp:67] Creating Layer conv1/relu_7x7
I0308 01:11:49.283141  9810 net.cpp:394] conv1/relu_7x7 <- conv1/7x7_s2
I0308 01:11:49.283149  9810 net.cpp:345] conv1/relu_7x7 -> conv1/7x7_s2 (in-place)
I0308 01:11:49.283157  9810 net.cpp:96] Setting up conv1/relu_7x7
I0308 01:11:49.283169  9810 net.cpp:103] Top shape: 25 64 112 112 (20070400)
I0308 01:11:49.283177  9810 net.cpp:67] Creating Layer pool1/3x3_s2
I0308 01:11:49.283181  9810 net.cpp:394] pool1/3x3_s2 <- conv1/7x7_s2
I0308 01:11:49.283187  9810 net.cpp:356] pool1/3x3_s2 -> pool1/3x3_s2
I0308 01:11:49.283195  9810 net.cpp:96] Setting up pool1/3x3_s2
I0308 01:11:49.283215  9810 net.cpp:103] Top shape: 25 64 56 56 (5017600)
I0308 01:11:49.283228  9810 net.cpp:67] Creating Layer pool1/norm1
I0308 01:11:49.283232  9810 net.cpp:394] pool1/norm1 <- pool1/3x3_s2
I0308 01:11:49.283238  9810 net.cpp:356] pool1/norm1 -> pool1/norm1
I0308 01:11:49.283246  9810 net.cpp:96] Setting up pool1/norm1
I0308 01:11:49.283253  9810 net.cpp:103] Top shape: 25 64 56 56 (5017600)
I0308 01:11:49.283263  9810 net.cpp:67] Creating Layer conv2/3x3_reduce
I0308 01:11:49.283270  9810 net.cpp:394] conv2/3x3_reduce <- pool1/norm1
I0308 01:11:49.283279  9810 net.cpp:356] conv2/3x3_reduce -> conv2/3x3_reduce
I0308 01:11:49.283288  9810 net.cpp:96] Setting up conv2/3x3_reduce
I0308 01:11:49.283383  9810 net.cpp:103] Top shape: 25 64 56 56 (5017600)
I0308 01:11:49.283406  9810 net.cpp:67] Creating Layer conv2/relu_3x3_reduce
I0308 01:11:49.283411  9810 net.cpp:394] conv2/relu_3x3_reduce <- conv2/3x3_reduce
I0308 01:11:49.283418  9810 net.cpp:345] conv2/relu_3x3_reduce -> conv2/3x3_reduce (in-place)
I0308 01:11:49.283424  9810 net.cpp:96] Setting up conv2/relu_3x3_reduce
I0308 01:11:49.283432  9810 net.cpp:103] Top shape: 25 64 56 56 (5017600)
I0308 01:11:49.283442  9810 net.cpp:67] Creating Layer conv2/3x3
I0308 01:11:49.283447  9810 net.cpp:394] conv2/3x3 <- conv2/3x3_reduce
I0308 01:11:49.283452  9810 net.cpp:356] conv2/3x3 -> conv2/3x3
I0308 01:11:49.283458  9810 net.cpp:96] Setting up conv2/3x3
I0308 01:11:49.284423  9810 net.cpp:103] Top shape: 25 192 56 56 (15052800)
I0308 01:11:49.284448  9810 net.cpp:67] Creating Layer conv2/relu_3x3
I0308 01:11:49.284454  9810 net.cpp:394] conv2/relu_3x3 <- conv2/3x3
I0308 01:11:49.284461  9810 net.cpp:345] conv2/relu_3x3 -> conv2/3x3 (in-place)
I0308 01:11:49.284466  9810 net.cpp:96] Setting up conv2/relu_3x3
I0308 01:11:49.284473  9810 net.cpp:103] Top shape: 25 192 56 56 (15052800)
I0308 01:11:49.284482  9810 net.cpp:67] Creating Layer conv2/norm2
I0308 01:11:49.284485  9810 net.cpp:394] conv2/norm2 <- conv2/3x3
I0308 01:11:49.284492  9810 net.cpp:356] conv2/norm2 -> conv2/norm2
I0308 01:11:49.284497  9810 net.cpp:96] Setting up conv2/norm2
I0308 01:11:49.284502  9810 net.cpp:103] Top shape: 25 192 56 56 (15052800)
I0308 01:11:49.284509  9810 net.cpp:67] Creating Layer pool2/3x3_s2
I0308 01:11:49.284514  9810 net.cpp:394] pool2/3x3_s2 <- conv2/norm2
I0308 01:11:49.284520  9810 net.cpp:356] pool2/3x3_s2 -> pool2/3x3_s2
I0308 01:11:49.284525  9810 net.cpp:96] Setting up pool2/3x3_s2
I0308 01:11:49.284533  9810 net.cpp:103] Top shape: 25 192 28 28 (3763200)
I0308 01:11:49.284539  9810 net.cpp:67] Creating Layer pool2/3x3_s2_pool2/3x3_s2_0_split
I0308 01:11:49.284543  9810 net.cpp:394] pool2/3x3_s2_pool2/3x3_s2_0_split <- pool2/3x3_s2
I0308 01:11:49.284551  9810 net.cpp:356] pool2/3x3_s2_pool2/3x3_s2_0_split -> pool2/3x3_s2_pool2/3x3_s2_0_split_0
I0308 01:11:49.284557  9810 net.cpp:356] pool2/3x3_s2_pool2/3x3_s2_0_split -> pool2/3x3_s2_pool2/3x3_s2_0_split_1
I0308 01:11:49.284567  9810 net.cpp:356] pool2/3x3_s2_pool2/3x3_s2_0_split -> pool2/3x3_s2_pool2/3x3_s2_0_split_2
I0308 01:11:49.284597  9810 net.cpp:356] pool2/3x3_s2_pool2/3x3_s2_0_split -> pool2/3x3_s2_pool2/3x3_s2_0_split_3
I0308 01:11:49.284603  9810 net.cpp:96] Setting up pool2/3x3_s2_pool2/3x3_s2_0_split
I0308 01:11:49.284610  9810 net.cpp:103] Top shape: 25 192 28 28 (3763200)
I0308 01:11:49.284613  9810 net.cpp:103] Top shape: 25 192 28 28 (3763200)
I0308 01:11:49.284617  9810 net.cpp:103] Top shape: 25 192 28 28 (3763200)
I0308 01:11:49.284621  9810 net.cpp:103] Top shape: 25 192 28 28 (3763200)
I0308 01:11:49.284631  9810 net.cpp:67] Creating Layer inception_3a/1x1
I0308 01:11:49.284634  9810 net.cpp:394] inception_3a/1x1 <- pool2/3x3_s2_pool2/3x3_s2_0_split_0
I0308 01:11:49.284641  9810 net.cpp:356] inception_3a/1x1 -> inception_3a/1x1
I0308 01:11:49.284648  9810 net.cpp:96] Setting up inception_3a/1x1
I0308 01:11:49.284802  9810 net.cpp:103] Top shape: 25 64 28 28 (1254400)
I0308 01:11:49.284823  9810 net.cpp:67] Creating Layer inception_3a/relu_1x1
I0308 01:11:49.284828  9810 net.cpp:394] inception_3a/relu_1x1 <- inception_3a/1x1
I0308 01:11:49.284834  9810 net.cpp:345] inception_3a/relu_1x1 -> inception_3a/1x1 (in-place)
I0308 01:11:49.284842  9810 net.cpp:96] Setting up inception_3a/relu_1x1
I0308 01:11:49.284847  9810 net.cpp:103] Top shape: 25 64 28 28 (1254400)
I0308 01:11:49.284855  9810 net.cpp:67] Creating Layer inception_3a/3x3_reduce
I0308 01:11:49.284859  9810 net.cpp:394] inception_3a/3x3_reduce <- pool2/3x3_s2_pool2/3x3_s2_0_split_1
I0308 01:11:49.284868  9810 net.cpp:356] inception_3a/3x3_reduce -> inception_3a/3x3_reduce
I0308 01:11:49.284874  9810 net.cpp:96] Setting up inception_3a/3x3_reduce
I0308 01:11:49.285078  9810 net.cpp:103] Top shape: 25 96 28 28 (1881600)
I0308 01:11:49.285104  9810 net.cpp:67] Creating Layer inception_3a/relu_3x3_reduce
I0308 01:11:49.285109  9810 net.cpp:394] inception_3a/relu_3x3_reduce <- inception_3a/3x3_reduce
I0308 01:11:49.285115  9810 net.cpp:345] inception_3a/relu_3x3_reduce -> inception_3a/3x3_reduce (in-place)
I0308 01:11:49.285121  9810 net.cpp:96] Setting up inception_3a/relu_3x3_reduce
I0308 01:11:49.285128  9810 net.cpp:103] Top shape: 25 96 28 28 (1881600)
I0308 01:11:49.285141  9810 net.cpp:67] Creating Layer inception_3a/3x3
I0308 01:11:49.285148  9810 net.cpp:394] inception_3a/3x3 <- inception_3a/3x3_reduce
I0308 01:11:49.285154  9810 net.cpp:356] inception_3a/3x3 -> inception_3a/3x3
I0308 01:11:49.285161  9810 net.cpp:96] Setting up inception_3a/3x3
I0308 01:11:49.286217  9810 net.cpp:103] Top shape: 25 128 28 28 (2508800)
I0308 01:11:49.286242  9810 net.cpp:67] Creating Layer inception_3a/relu_3x3
I0308 01:11:49.286247  9810 net.cpp:394] inception_3a/relu_3x3 <- inception_3a/3x3
I0308 01:11:49.286254  9810 net.cpp:345] inception_3a/relu_3x3 -> inception_3a/3x3 (in-place)
I0308 01:11:49.286260  9810 net.cpp:96] Setting up inception_3a/relu_3x3
I0308 01:11:49.286267  9810 net.cpp:103] Top shape: 25 128 28 28 (2508800)
I0308 01:11:49.286276  9810 net.cpp:67] Creating Layer inception_3a/5x5_reduce
I0308 01:11:49.286281  9810 net.cpp:394] inception_3a/5x5_reduce <- pool2/3x3_s2_pool2/3x3_s2_0_split_2
I0308 01:11:49.286288  9810 net.cpp:356] inception_3a/5x5_reduce -> inception_3a/5x5_reduce
I0308 01:11:49.286294  9810 net.cpp:96] Setting up inception_3a/5x5_reduce
I0308 01:11:49.286370  9810 net.cpp:103] Top shape: 25 16 28 28 (313600)
I0308 01:11:49.286388  9810 net.cpp:67] Creating Layer inception_3a/relu_5x5_reduce
I0308 01:11:49.286394  9810 net.cpp:394] inception_3a/relu_5x5_reduce <- inception_3a/5x5_reduce
I0308 01:11:49.286401  9810 net.cpp:345] inception_3a/relu_5x5_reduce -> inception_3a/5x5_reduce (in-place)
I0308 01:11:49.286406  9810 net.cpp:96] Setting up inception_3a/relu_5x5_reduce
I0308 01:11:49.286412  9810 net.cpp:103] Top shape: 25 16 28 28 (313600)
I0308 01:11:49.286419  9810 net.cpp:67] Creating Layer inception_3a/5x5
I0308 01:11:49.286423  9810 net.cpp:394] inception_3a/5x5 <- inception_3a/5x5_reduce
I0308 01:11:49.286429  9810 net.cpp:356] inception_3a/5x5 -> inception_3a/5x5
I0308 01:11:49.286437  9810 net.cpp:96] Setting up inception_3a/5x5
I0308 01:11:49.286618  9810 net.cpp:103] Top shape: 25 32 28 28 (627200)
I0308 01:11:49.286641  9810 net.cpp:67] Creating Layer inception_3a/relu_5x5
I0308 01:11:49.286646  9810 net.cpp:394] inception_3a/relu_5x5 <- inception_3a/5x5
I0308 01:11:49.286653  9810 net.cpp:345] inception_3a/relu_5x5 -> inception_3a/5x5 (in-place)
I0308 01:11:49.286659  9810 net.cpp:96] Setting up inception_3a/relu_5x5
I0308 01:11:49.286669  9810 net.cpp:103] Top shape: 25 32 28 28 (627200)
I0308 01:11:49.286679  9810 net.cpp:67] Creating Layer inception_3a/pool
I0308 01:11:49.286682  9810 net.cpp:394] inception_3a/pool <- pool2/3x3_s2_pool2/3x3_s2_0_split_3
I0308 01:11:49.286689  9810 net.cpp:356] inception_3a/pool -> inception_3a/pool
I0308 01:11:49.286695  9810 net.cpp:96] Setting up inception_3a/pool
I0308 01:11:49.286702  9810 net.cpp:103] Top shape: 25 192 28 28 (3763200)
I0308 01:11:49.286711  9810 net.cpp:67] Creating Layer inception_3a/pool_proj
I0308 01:11:49.286716  9810 net.cpp:394] inception_3a/pool_proj <- inception_3a/pool
I0308 01:11:49.286722  9810 net.cpp:356] inception_3a/pool_proj -> inception_3a/pool_proj
I0308 01:11:49.286728  9810 net.cpp:96] Setting up inception_3a/pool_proj
I0308 01:11:49.286828  9810 net.cpp:103] Top shape: 25 32 28 28 (627200)
I0308 01:11:49.286850  9810 net.cpp:67] Creating Layer inception_3a/relu_pool_proj
I0308 01:11:49.286855  9810 net.cpp:394] inception_3a/relu_pool_proj <- inception_3a/pool_proj
I0308 01:11:49.286861  9810 net.cpp:345] inception_3a/relu_pool_proj -> inception_3a/pool_proj (in-place)
I0308 01:11:49.286869  9810 net.cpp:96] Setting up inception_3a/relu_pool_proj
I0308 01:11:49.286875  9810 net.cpp:103] Top shape: 25 32 28 28 (627200)
I0308 01:11:49.286882  9810 net.cpp:67] Creating Layer inception_3a/output
I0308 01:11:49.286887  9810 net.cpp:394] inception_3a/output <- inception_3a/1x1
I0308 01:11:49.286892  9810 net.cpp:394] inception_3a/output <- inception_3a/3x3
I0308 01:11:49.286897  9810 net.cpp:394] inception_3a/output <- inception_3a/5x5
I0308 01:11:49.286902  9810 net.cpp:394] inception_3a/output <- inception_3a/pool_proj
I0308 01:11:49.286908  9810 net.cpp:356] inception_3a/output -> inception_3a/output
I0308 01:11:49.286914  9810 net.cpp:96] Setting up inception_3a/output
I0308 01:11:49.286921  9810 net.cpp:103] Top shape: 25 256 28 28 (5017600)
I0308 01:11:49.286927  9810 net.cpp:67] Creating Layer inception_3a/output_inception_3a/output_0_split
I0308 01:11:49.286931  9810 net.cpp:394] inception_3a/output_inception_3a/output_0_split <- inception_3a/output
I0308 01:11:49.286939  9810 net.cpp:356] inception_3a/output_inception_3a/output_0_split -> inception_3a/output_inception_3a/output_0_split_0
I0308 01:11:49.286947  9810 net.cpp:356] inception_3a/output_inception_3a/output_0_split -> inception_3a/output_inception_3a/output_0_split_1
I0308 01:11:49.286952  9810 net.cpp:356] inception_3a/output_inception_3a/output_0_split -> inception_3a/output_inception_3a/output_0_split_2
I0308 01:11:49.286959  9810 net.cpp:356] inception_3a/output_inception_3a/output_0_split -> inception_3a/output_inception_3a/output_0_split_3
I0308 01:11:49.286964  9810 net.cpp:96] Setting up inception_3a/output_inception_3a/output_0_split
I0308 01:11:49.286969  9810 net.cpp:103] Top shape: 25 256 28 28 (5017600)
I0308 01:11:49.286973  9810 net.cpp:103] Top shape: 25 256 28 28 (5017600)
I0308 01:11:49.286978  9810 net.cpp:103] Top shape: 25 256 28 28 (5017600)
I0308 01:11:49.286981  9810 net.cpp:103] Top shape: 25 256 28 28 (5017600)
I0308 01:11:49.286989  9810 net.cpp:67] Creating Layer inception_3b/1x1
I0308 01:11:49.286993  9810 net.cpp:394] inception_3b/1x1 <- inception_3a/output_inception_3a/output_0_split_0
I0308 01:11:49.287000  9810 net.cpp:356] inception_3b/1x1 -> inception_3b/1x1
I0308 01:11:49.287006  9810 net.cpp:96] Setting up inception_3b/1x1
I0308 01:11:49.287328  9810 net.cpp:103] Top shape: 25 128 28 28 (2508800)
I0308 01:11:49.287348  9810 net.cpp:67] Creating Layer inception_3b/relu_1x1
I0308 01:11:49.287353  9810 net.cpp:394] inception_3b/relu_1x1 <- inception_3b/1x1
I0308 01:11:49.287369  9810 net.cpp:345] inception_3b/relu_1x1 -> inception_3b/1x1 (in-place)
I0308 01:11:49.287376  9810 net.cpp:96] Setting up inception_3b/relu_1x1
I0308 01:11:49.287384  9810 net.cpp:103] Top shape: 25 128 28 28 (2508800)
I0308 01:11:49.287395  9810 net.cpp:67] Creating Layer inception_3b/3x3_reduce
I0308 01:11:49.287400  9810 net.cpp:394] inception_3b/3x3_reduce <- inception_3a/output_inception_3a/output_0_split_1
I0308 01:11:49.287406  9810 net.cpp:356] inception_3b/3x3_reduce -> inception_3b/3x3_reduce
I0308 01:11:49.287413  9810 net.cpp:96] Setting up inception_3b/3x3_reduce
I0308 01:11:49.287811  9810 net.cpp:103] Top shape: 25 128 28 28 (2508800)
I0308 01:11:49.287834  9810 net.cpp:67] Creating Layer inception_3b/relu_3x3_reduce
I0308 01:11:49.287840  9810 net.cpp:394] inception_3b/relu_3x3_reduce <- inception_3b/3x3_reduce
I0308 01:11:49.287847  9810 net.cpp:345] inception_3b/relu_3x3_reduce -> inception_3b/3x3_reduce (in-place)
I0308 01:11:49.287853  9810 net.cpp:96] Setting up inception_3b/relu_3x3_reduce
I0308 01:11:49.287859  9810 net.cpp:103] Top shape: 25 128 28 28 (2508800)
I0308 01:11:49.287871  9810 net.cpp:67] Creating Layer inception_3b/3x3
I0308 01:11:49.287876  9810 net.cpp:394] inception_3b/3x3 <- inception_3b/3x3_reduce
I0308 01:11:49.287884  9810 net.cpp:356] inception_3b/3x3 -> inception_3b/3x3
I0308 01:11:49.287891  9810 net.cpp:96] Setting up inception_3b/3x3
I0308 01:11:49.289743  9810 net.cpp:103] Top shape: 25 192 28 28 (3763200)
I0308 01:11:49.289767  9810 net.cpp:67] Creating Layer inception_3b/relu_3x3
I0308 01:11:49.289772  9810 net.cpp:394] inception_3b/relu_3x3 <- inception_3b/3x3
I0308 01:11:49.289777  9810 net.cpp:345] inception_3b/relu_3x3 -> inception_3b/3x3 (in-place)
I0308 01:11:49.289783  9810 net.cpp:96] Setting up inception_3b/relu_3x3
I0308 01:11:49.289790  9810 net.cpp:103] Top shape: 25 192 28 28 (3763200)
I0308 01:11:49.289799  9810 net.cpp:67] Creating Layer inception_3b/5x5_reduce
I0308 01:11:49.289803  9810 net.cpp:394] inception_3b/5x5_reduce <- inception_3a/output_inception_3a/output_0_split_2
I0308 01:11:49.289810  9810 net.cpp:356] inception_3b/5x5_reduce -> inception_3b/5x5_reduce
I0308 01:11:49.289819  9810 net.cpp:96] Setting up inception_3b/5x5_reduce
I0308 01:11:49.289932  9810 net.cpp:103] Top shape: 25 32 28 28 (627200)
I0308 01:11:49.289952  9810 net.cpp:67] Creating Layer inception_3b/relu_5x5_reduce
I0308 01:11:49.289957  9810 net.cpp:394] inception_3b/relu_5x5_reduce <- inception_3b/5x5_reduce
I0308 01:11:49.289963  9810 net.cpp:345] inception_3b/relu_5x5_reduce -> inception_3b/5x5_reduce (in-place)
I0308 01:11:49.289968  9810 net.cpp:96] Setting up inception_3b/relu_5x5_reduce
I0308 01:11:49.289975  9810 net.cpp:103] Top shape: 25 32 28 28 (627200)
I0308 01:11:49.289983  9810 net.cpp:67] Creating Layer inception_3b/5x5
I0308 01:11:49.289986  9810 net.cpp:394] inception_3b/5x5 <- inception_3b/5x5_reduce
I0308 01:11:49.289994  9810 net.cpp:356] inception_3b/5x5 -> inception_3b/5x5
I0308 01:11:49.290005  9810 net.cpp:96] Setting up inception_3b/5x5
I0308 01:11:49.290702  9810 net.cpp:103] Top shape: 25 96 28 28 (1881600)
I0308 01:11:49.290724  9810 net.cpp:67] Creating Layer inception_3b/relu_5x5
I0308 01:11:49.290729  9810 net.cpp:394] inception_3b/relu_5x5 <- inception_3b/5x5
I0308 01:11:49.290736  9810 net.cpp:345] inception_3b/relu_5x5 -> inception_3b/5x5 (in-place)
I0308 01:11:49.290742  9810 net.cpp:96] Setting up inception_3b/relu_5x5
I0308 01:11:49.290750  9810 net.cpp:103] Top shape: 25 96 28 28 (1881600)
I0308 01:11:49.290756  9810 net.cpp:67] Creating Layer inception_3b/pool
I0308 01:11:49.290760  9810 net.cpp:394] inception_3b/pool <- inception_3a/output_inception_3a/output_0_split_3
I0308 01:11:49.290766  9810 net.cpp:356] inception_3b/pool -> inception_3b/pool
I0308 01:11:49.290772  9810 net.cpp:96] Setting up inception_3b/pool
I0308 01:11:49.290779  9810 net.cpp:103] Top shape: 25 256 28 28 (5017600)
I0308 01:11:49.290788  9810 net.cpp:67] Creating Layer inception_3b/pool_proj
I0308 01:11:49.290793  9810 net.cpp:394] inception_3b/pool_proj <- inception_3b/pool
I0308 01:11:49.290815  9810 net.cpp:356] inception_3b/pool_proj -> inception_3b/pool_proj
I0308 01:11:49.290823  9810 net.cpp:96] Setting up inception_3b/pool_proj
I0308 01:11:49.291007  9810 net.cpp:103] Top shape: 25 64 28 28 (1254400)
I0308 01:11:49.291026  9810 net.cpp:67] Creating Layer inception_3b/relu_pool_proj
I0308 01:11:49.291031  9810 net.cpp:394] inception_3b/relu_pool_proj <- inception_3b/pool_proj
I0308 01:11:49.291039  9810 net.cpp:345] inception_3b/relu_pool_proj -> inception_3b/pool_proj (in-place)
I0308 01:11:49.291046  9810 net.cpp:96] Setting up inception_3b/relu_pool_proj
I0308 01:11:49.291052  9810 net.cpp:103] Top shape: 25 64 28 28 (1254400)
I0308 01:11:49.291059  9810 net.cpp:67] Creating Layer inception_3b/output
I0308 01:11:49.291065  9810 net.cpp:394] inception_3b/output <- inception_3b/1x1
I0308 01:11:49.291070  9810 net.cpp:394] inception_3b/output <- inception_3b/3x3
I0308 01:11:49.291075  9810 net.cpp:394] inception_3b/output <- inception_3b/5x5
I0308 01:11:49.291080  9810 net.cpp:394] inception_3b/output <- inception_3b/pool_proj
I0308 01:11:49.291088  9810 net.cpp:356] inception_3b/output -> inception_3b/output
I0308 01:11:49.291095  9810 net.cpp:96] Setting up inception_3b/output
I0308 01:11:49.291100  9810 net.cpp:103] Top shape: 25 480 28 28 (9408000)
I0308 01:11:49.291105  9810 net.cpp:67] Creating Layer pool3/3x3_s2
I0308 01:11:49.291110  9810 net.cpp:394] pool3/3x3_s2 <- inception_3b/output
I0308 01:11:49.291115  9810 net.cpp:356] pool3/3x3_s2 -> pool3/3x3_s2
I0308 01:11:49.291121  9810 net.cpp:96] Setting up pool3/3x3_s2
I0308 01:11:49.291128  9810 net.cpp:103] Top shape: 25 480 14 14 (2352000)
I0308 01:11:49.291136  9810 net.cpp:67] Creating Layer pool3/3x3_s2_pool3/3x3_s2_0_split
I0308 01:11:49.291141  9810 net.cpp:394] pool3/3x3_s2_pool3/3x3_s2_0_split <- pool3/3x3_s2
I0308 01:11:49.291146  9810 net.cpp:356] pool3/3x3_s2_pool3/3x3_s2_0_split -> pool3/3x3_s2_pool3/3x3_s2_0_split_0
I0308 01:11:49.291153  9810 net.cpp:356] pool3/3x3_s2_pool3/3x3_s2_0_split -> pool3/3x3_s2_pool3/3x3_s2_0_split_1
I0308 01:11:49.291159  9810 net.cpp:356] pool3/3x3_s2_pool3/3x3_s2_0_split -> pool3/3x3_s2_pool3/3x3_s2_0_split_2
I0308 01:11:49.291165  9810 net.cpp:356] pool3/3x3_s2_pool3/3x3_s2_0_split -> pool3/3x3_s2_pool3/3x3_s2_0_split_3
I0308 01:11:49.291173  9810 net.cpp:96] Setting up pool3/3x3_s2_pool3/3x3_s2_0_split
I0308 01:11:49.291178  9810 net.cpp:103] Top shape: 25 480 14 14 (2352000)
I0308 01:11:49.291182  9810 net.cpp:103] Top shape: 25 480 14 14 (2352000)
I0308 01:11:49.291187  9810 net.cpp:103] Top shape: 25 480 14 14 (2352000)
I0308 01:11:49.291189  9810 net.cpp:103] Top shape: 25 480 14 14 (2352000)
I0308 01:11:49.291196  9810 net.cpp:67] Creating Layer inception_4a/1x1
I0308 01:11:49.291201  9810 net.cpp:394] inception_4a/1x1 <- pool3/3x3_s2_pool3/3x3_s2_0_split_0
I0308 01:11:49.291214  9810 net.cpp:356] inception_4a/1x1 -> inception_4a/1x1
I0308 01:11:49.291224  9810 net.cpp:96] Setting up inception_4a/1x1
I0308 01:11:49.292115  9810 net.cpp:103] Top shape: 25 192 14 14 (940800)
I0308 01:11:49.292137  9810 net.cpp:67] Creating Layer inception_4a/relu_1x1
I0308 01:11:49.292143  9810 net.cpp:394] inception_4a/relu_1x1 <- inception_4a/1x1
I0308 01:11:49.292151  9810 net.cpp:345] inception_4a/relu_1x1 -> inception_4a/1x1 (in-place)
I0308 01:11:49.292158  9810 net.cpp:96] Setting up inception_4a/relu_1x1
I0308 01:11:49.292165  9810 net.cpp:103] Top shape: 25 192 14 14 (940800)
I0308 01:11:49.292172  9810 net.cpp:67] Creating Layer inception_4a/3x3_reduce
I0308 01:11:49.292176  9810 net.cpp:394] inception_4a/3x3_reduce <- pool3/3x3_s2_pool3/3x3_s2_0_split_1
I0308 01:11:49.292184  9810 net.cpp:356] inception_4a/3x3_reduce -> inception_4a/3x3_reduce
I0308 01:11:49.292192  9810 net.cpp:96] Setting up inception_4a/3x3_reduce
I0308 01:11:49.292623  9810 net.cpp:103] Top shape: 25 96 14 14 (470400)
I0308 01:11:49.292649  9810 net.cpp:67] Creating Layer inception_4a/relu_3x3_reduce
I0308 01:11:49.292654  9810 net.cpp:394] inception_4a/relu_3x3_reduce <- inception_4a/3x3_reduce
I0308 01:11:49.292675  9810 net.cpp:345] inception_4a/relu_3x3_reduce -> inception_4a/3x3_reduce (in-place)
I0308 01:11:49.292682  9810 net.cpp:96] Setting up inception_4a/relu_3x3_reduce
I0308 01:11:49.292690  9810 net.cpp:103] Top shape: 25 96 14 14 (470400)
I0308 01:11:49.292698  9810 net.cpp:67] Creating Layer inception_4a/3x3
I0308 01:11:49.292703  9810 net.cpp:394] inception_4a/3x3 <- inception_4a/3x3_reduce
I0308 01:11:49.292711  9810 net.cpp:356] inception_4a/3x3 -> inception_4a/3x3
I0308 01:11:49.292718  9810 net.cpp:96] Setting up inception_4a/3x3
I0308 01:11:49.294250  9810 net.cpp:103] Top shape: 25 208 14 14 (1019200)
I0308 01:11:49.294270  9810 net.cpp:67] Creating Layer inception_4a/relu_3x3
I0308 01:11:49.294276  9810 net.cpp:394] inception_4a/relu_3x3 <- inception_4a/3x3
I0308 01:11:49.294284  9810 net.cpp:345] inception_4a/relu_3x3 -> inception_4a/3x3 (in-place)
I0308 01:11:49.294291  9810 net.cpp:96] Setting up inception_4a/relu_3x3
I0308 01:11:49.294298  9810 net.cpp:103] Top shape: 25 208 14 14 (1019200)
I0308 01:11:49.294304  9810 net.cpp:67] Creating Layer inception_4a/5x5_reduce
I0308 01:11:49.294309  9810 net.cpp:394] inception_4a/5x5_reduce <- pool3/3x3_s2_pool3/3x3_s2_0_split_2
I0308 01:11:49.294316  9810 net.cpp:356] inception_4a/5x5_reduce -> inception_4a/5x5_reduce
I0308 01:11:49.294322  9810 net.cpp:96] Setting up inception_4a/5x5_reduce
I0308 01:11:49.294430  9810 net.cpp:103] Top shape: 25 16 14 14 (78400)
I0308 01:11:49.294450  9810 net.cpp:67] Creating Layer inception_4a/relu_5x5_reduce
I0308 01:11:49.294456  9810 net.cpp:394] inception_4a/relu_5x5_reduce <- inception_4a/5x5_reduce
I0308 01:11:49.294461  9810 net.cpp:345] inception_4a/relu_5x5_reduce -> inception_4a/5x5_reduce (in-place)
I0308 01:11:49.294467  9810 net.cpp:96] Setting up inception_4a/relu_5x5_reduce
I0308 01:11:49.294474  9810 net.cpp:103] Top shape: 25 16 14 14 (78400)
I0308 01:11:49.294483  9810 net.cpp:67] Creating Layer inception_4a/5x5
I0308 01:11:49.294487  9810 net.cpp:394] inception_4a/5x5 <- inception_4a/5x5_reduce
I0308 01:11:49.294493  9810 net.cpp:356] inception_4a/5x5 -> inception_4a/5x5
I0308 01:11:49.294500  9810 net.cpp:96] Setting up inception_4a/5x5
I0308 01:11:49.294716  9810 net.cpp:103] Top shape: 25 48 14 14 (235200)
I0308 01:11:49.294738  9810 net.cpp:67] Creating Layer inception_4a/relu_5x5
I0308 01:11:49.294742  9810 net.cpp:394] inception_4a/relu_5x5 <- inception_4a/5x5
I0308 01:11:49.294749  9810 net.cpp:345] inception_4a/relu_5x5 -> inception_4a/5x5 (in-place)
I0308 01:11:49.294755  9810 net.cpp:96] Setting up inception_4a/relu_5x5
I0308 01:11:49.294761  9810 net.cpp:103] Top shape: 25 48 14 14 (235200)
I0308 01:11:49.294767  9810 net.cpp:67] Creating Layer inception_4a/pool
I0308 01:11:49.294772  9810 net.cpp:394] inception_4a/pool <- pool3/3x3_s2_pool3/3x3_s2_0_split_3
I0308 01:11:49.294780  9810 net.cpp:356] inception_4a/pool -> inception_4a/pool
I0308 01:11:49.294786  9810 net.cpp:96] Setting up inception_4a/pool
I0308 01:11:49.294795  9810 net.cpp:103] Top shape: 25 480 14 14 (2352000)
I0308 01:11:49.294801  9810 net.cpp:67] Creating Layer inception_4a/pool_proj
I0308 01:11:49.294806  9810 net.cpp:394] inception_4a/pool_proj <- inception_4a/pool
I0308 01:11:49.294813  9810 net.cpp:356] inception_4a/pool_proj -> inception_4a/pool_proj
I0308 01:11:49.294821  9810 net.cpp:96] Setting up inception_4a/pool_proj
I0308 01:11:49.295200  9810 net.cpp:103] Top shape: 25 64 14 14 (313600)
I0308 01:11:49.295222  9810 net.cpp:67] Creating Layer inception_4a/relu_pool_proj
I0308 01:11:49.295228  9810 net.cpp:394] inception_4a/relu_pool_proj <- inception_4a/pool_proj
I0308 01:11:49.295235  9810 net.cpp:345] inception_4a/relu_pool_proj -> inception_4a/pool_proj (in-place)
I0308 01:11:49.295243  9810 net.cpp:96] Setting up inception_4a/relu_pool_proj
I0308 01:11:49.295250  9810 net.cpp:103] Top shape: 25 64 14 14 (313600)
I0308 01:11:49.295255  9810 net.cpp:67] Creating Layer inception_4a/output
I0308 01:11:49.295260  9810 net.cpp:394] inception_4a/output <- inception_4a/1x1
I0308 01:11:49.295280  9810 net.cpp:394] inception_4a/output <- inception_4a/3x3
I0308 01:11:49.295286  9810 net.cpp:394] inception_4a/output <- inception_4a/5x5
I0308 01:11:49.295291  9810 net.cpp:394] inception_4a/output <- inception_4a/pool_proj
I0308 01:11:49.295297  9810 net.cpp:356] inception_4a/output -> inception_4a/output
I0308 01:11:49.295305  9810 net.cpp:96] Setting up inception_4a/output
I0308 01:11:49.295310  9810 net.cpp:103] Top shape: 25 512 14 14 (2508800)
I0308 01:11:49.295315  9810 net.cpp:67] Creating Layer inception_4a/output_inception_4a/output_0_split
I0308 01:11:49.295320  9810 net.cpp:394] inception_4a/output_inception_4a/output_0_split <- inception_4a/output
I0308 01:11:49.295327  9810 net.cpp:356] inception_4a/output_inception_4a/output_0_split -> inception_4a/output_inception_4a/output_0_split_0
I0308 01:11:49.295335  9810 net.cpp:356] inception_4a/output_inception_4a/output_0_split -> inception_4a/output_inception_4a/output_0_split_1
I0308 01:11:49.295341  9810 net.cpp:356] inception_4a/output_inception_4a/output_0_split -> inception_4a/output_inception_4a/output_0_split_2
I0308 01:11:49.295348  9810 net.cpp:356] inception_4a/output_inception_4a/output_0_split -> inception_4a/output_inception_4a/output_0_split_3
I0308 01:11:49.295354  9810 net.cpp:356] inception_4a/output_inception_4a/output_0_split -> inception_4a/output_inception_4a/output_0_split_4
I0308 01:11:49.295361  9810 net.cpp:96] Setting up inception_4a/output_inception_4a/output_0_split
I0308 01:11:49.295366  9810 net.cpp:103] Top shape: 25 512 14 14 (2508800)
I0308 01:11:49.295372  9810 net.cpp:103] Top shape: 25 512 14 14 (2508800)
I0308 01:11:49.295375  9810 net.cpp:103] Top shape: 25 512 14 14 (2508800)
I0308 01:11:49.295379  9810 net.cpp:103] Top shape: 25 512 14 14 (2508800)
I0308 01:11:49.295383  9810 net.cpp:103] Top shape: 25 512 14 14 (2508800)
I0308 01:11:49.295388  9810 net.cpp:67] Creating Layer loss1/ave_pool
I0308 01:11:49.295393  9810 net.cpp:394] loss1/ave_pool <- inception_4a/output_inception_4a/output_0_split_0
I0308 01:11:49.295398  9810 net.cpp:356] loss1/ave_pool -> loss1/ave_pool
I0308 01:11:49.295404  9810 net.cpp:96] Setting up loss1/ave_pool
I0308 01:11:49.295413  9810 net.cpp:103] Top shape: 25 512 4 4 (204800)
I0308 01:11:49.295423  9810 net.cpp:67] Creating Layer loss1/conv
I0308 01:11:49.295426  9810 net.cpp:394] loss1/conv <- loss1/ave_pool
I0308 01:11:49.295435  9810 net.cpp:356] loss1/conv -> loss1/conv
I0308 01:11:49.295442  9810 net.cpp:96] Setting up loss1/conv
I0308 01:11:49.296022  9810 net.cpp:103] Top shape: 25 128 4 4 (51200)
I0308 01:11:49.296044  9810 net.cpp:67] Creating Layer loss1/relu_conv
I0308 01:11:49.296051  9810 net.cpp:394] loss1/relu_conv <- loss1/conv
I0308 01:11:49.296056  9810 net.cpp:345] loss1/relu_conv -> loss1/conv (in-place)
I0308 01:11:49.296062  9810 net.cpp:96] Setting up loss1/relu_conv
I0308 01:11:49.296069  9810 net.cpp:103] Top shape: 25 128 4 4 (51200)
I0308 01:11:49.296077  9810 net.cpp:67] Creating Layer loss1/fc
I0308 01:11:49.296080  9810 net.cpp:394] loss1/fc <- loss1/conv
I0308 01:11:49.296088  9810 net.cpp:356] loss1/fc -> loss1/fc
I0308 01:11:49.296095  9810 net.cpp:96] Setting up loss1/fc
I0308 01:11:49.312238  9810 net.cpp:103] Top shape: 25 1024 1 1 (25600)
I0308 01:11:49.312264  9810 net.cpp:67] Creating Layer loss1/relu_fc
I0308 01:11:49.312270  9810 net.cpp:394] loss1/relu_fc <- loss1/fc
I0308 01:11:49.312276  9810 net.cpp:345] loss1/relu_fc -> loss1/fc (in-place)
I0308 01:11:49.312283  9810 net.cpp:96] Setting up loss1/relu_fc
I0308 01:11:49.312291  9810 net.cpp:103] Top shape: 25 1024 1 1 (25600)
I0308 01:11:49.312304  9810 net.cpp:67] Creating Layer loss1/drop_fc
I0308 01:11:49.312311  9810 net.cpp:394] loss1/drop_fc <- loss1/fc
I0308 01:11:49.312317  9810 net.cpp:345] loss1/drop_fc -> loss1/fc (in-place)
I0308 01:11:49.312324  9810 net.cpp:96] Setting up loss1/drop_fc
I0308 01:11:49.312330  9810 net.cpp:103] Top shape: 25 1024 1 1 (25600)
I0308 01:11:49.312340  9810 net.cpp:67] Creating Layer loss1/classifier
I0308 01:11:49.312345  9810 net.cpp:394] loss1/classifier <- loss1/fc
I0308 01:11:49.312369  9810 net.cpp:356] loss1/classifier -> loss1/classifier
I0308 01:11:49.312377  9810 net.cpp:96] Setting up loss1/classifier
I0308 01:11:49.313397  9810 net.cpp:103] Top shape: 25 121 1 1 (3025)
I0308 01:11:49.313422  9810 net.cpp:67] Creating Layer loss1/loss
I0308 01:11:49.313428  9810 net.cpp:394] loss1/loss <- loss1/classifier
I0308 01:11:49.313434  9810 net.cpp:394] loss1/loss <- label_data_1_split_0
I0308 01:11:49.313441  9810 net.cpp:356] loss1/loss -> loss1/loss1
I0308 01:11:49.313447  9810 net.cpp:96] Setting up loss1/loss
I0308 01:11:49.313467  9810 net.cpp:103] Top shape: 1 1 1 1 (1)
I0308 01:11:49.313477  9810 net.cpp:109]     with loss weight 0.3
I0308 01:11:49.313516  9810 net.cpp:67] Creating Layer inception_4b/1x1
I0308 01:11:49.313524  9810 net.cpp:394] inception_4b/1x1 <- inception_4a/output_inception_4a/output_0_split_1
I0308 01:11:49.313529  9810 net.cpp:356] inception_4b/1x1 -> inception_4b/1x1
I0308 01:11:49.313539  9810 net.cpp:96] Setting up inception_4b/1x1
I0308 01:11:49.314275  9810 net.cpp:103] Top shape: 25 160 14 14 (784000)
I0308 01:11:49.314303  9810 net.cpp:67] Creating Layer inception_4b/relu_1x1
I0308 01:11:49.314309  9810 net.cpp:394] inception_4b/relu_1x1 <- inception_4b/1x1
I0308 01:11:49.314316  9810 net.cpp:345] inception_4b/relu_1x1 -> inception_4b/1x1 (in-place)
I0308 01:11:49.314322  9810 net.cpp:96] Setting up inception_4b/relu_1x1
I0308 01:11:49.314329  9810 net.cpp:103] Top shape: 25 160 14 14 (784000)
I0308 01:11:49.314337  9810 net.cpp:67] Creating Layer inception_4b/3x3_reduce
I0308 01:11:49.314340  9810 net.cpp:394] inception_4b/3x3_reduce <- inception_4a/output_inception_4a/output_0_split_2
I0308 01:11:49.314348  9810 net.cpp:356] inception_4b/3x3_reduce -> inception_4b/3x3_reduce
I0308 01:11:49.314357  9810 net.cpp:96] Setting up inception_4b/3x3_reduce
I0308 01:11:49.314875  9810 net.cpp:103] Top shape: 25 112 14 14 (548800)
I0308 01:11:49.314895  9810 net.cpp:67] Creating Layer inception_4b/relu_3x3_reduce
I0308 01:11:49.314903  9810 net.cpp:394] inception_4b/relu_3x3_reduce <- inception_4b/3x3_reduce
I0308 01:11:49.314909  9810 net.cpp:345] inception_4b/relu_3x3_reduce -> inception_4b/3x3_reduce (in-place)
I0308 01:11:49.314916  9810 net.cpp:96] Setting up inception_4b/relu_3x3_reduce
I0308 01:11:49.314923  9810 net.cpp:103] Top shape: 25 112 14 14 (548800)
I0308 01:11:49.314929  9810 net.cpp:67] Creating Layer inception_4b/3x3
I0308 01:11:49.314934  9810 net.cpp:394] inception_4b/3x3 <- inception_4b/3x3_reduce
I0308 01:11:49.314941  9810 net.cpp:356] inception_4b/3x3 -> inception_4b/3x3
I0308 01:11:49.314949  9810 net.cpp:96] Setting up inception_4b/3x3
I0308 01:11:49.316844  9810 net.cpp:103] Top shape: 25 224 14 14 (1097600)
I0308 01:11:49.316866  9810 net.cpp:67] Creating Layer inception_4b/relu_3x3
I0308 01:11:49.316872  9810 net.cpp:394] inception_4b/relu_3x3 <- inception_4b/3x3
I0308 01:11:49.316877  9810 net.cpp:345] inception_4b/relu_3x3 -> inception_4b/3x3 (in-place)
I0308 01:11:49.316884  9810 net.cpp:96] Setting up inception_4b/relu_3x3
I0308 01:11:49.316890  9810 net.cpp:103] Top shape: 25 224 14 14 (1097600)
I0308 01:11:49.316900  9810 net.cpp:67] Creating Layer inception_4b/5x5_reduce
I0308 01:11:49.316905  9810 net.cpp:394] inception_4b/5x5_reduce <- inception_4a/output_inception_4a/output_0_split_3
I0308 01:11:49.316911  9810 net.cpp:356] inception_4b/5x5_reduce -> inception_4b/5x5_reduce
I0308 01:11:49.316918  9810 net.cpp:96] Setting up inception_4b/5x5_reduce
I0308 01:11:49.317158  9810 net.cpp:103] Top shape: 25 24 14 14 (117600)
I0308 01:11:49.317178  9810 net.cpp:67] Creating Layer inception_4b/relu_5x5_reduce
I0308 01:11:49.317184  9810 net.cpp:394] inception_4b/relu_5x5_reduce <- inception_4b/5x5_reduce
I0308 01:11:49.317198  9810 net.cpp:345] inception_4b/relu_5x5_reduce -> inception_4b/5x5_reduce (in-place)
I0308 01:11:49.317212  9810 net.cpp:96] Setting up inception_4b/relu_5x5_reduce
I0308 01:11:49.317224  9810 net.cpp:103] Top shape: 25 24 14 14 (117600)
I0308 01:11:49.317231  9810 net.cpp:67] Creating Layer inception_4b/5x5
I0308 01:11:49.317257  9810 net.cpp:394] inception_4b/5x5 <- inception_4b/5x5_reduce
I0308 01:11:49.317268  9810 net.cpp:356] inception_4b/5x5 -> inception_4b/5x5
I0308 01:11:49.317276  9810 net.cpp:96] Setting up inception_4b/5x5
I0308 01:11:49.317648  9810 net.cpp:103] Top shape: 25 64 14 14 (313600)
I0308 01:11:49.317668  9810 net.cpp:67] Creating Layer inception_4b/relu_5x5
I0308 01:11:49.317673  9810 net.cpp:394] inception_4b/relu_5x5 <- inception_4b/5x5
I0308 01:11:49.317682  9810 net.cpp:345] inception_4b/relu_5x5 -> inception_4b/5x5 (in-place)
I0308 01:11:49.317688  9810 net.cpp:96] Setting up inception_4b/relu_5x5
I0308 01:11:49.317694  9810 net.cpp:103] Top shape: 25 64 14 14 (313600)
I0308 01:11:49.317700  9810 net.cpp:67] Creating Layer inception_4b/pool
I0308 01:11:49.317705  9810 net.cpp:394] inception_4b/pool <- inception_4a/output_inception_4a/output_0_split_4
I0308 01:11:49.317711  9810 net.cpp:356] inception_4b/pool -> inception_4b/pool
I0308 01:11:49.317724  9810 net.cpp:96] Setting up inception_4b/pool
I0308 01:11:49.317734  9810 net.cpp:103] Top shape: 25 512 14 14 (2508800)
I0308 01:11:49.317750  9810 net.cpp:67] Creating Layer inception_4b/pool_proj
I0308 01:11:49.317755  9810 net.cpp:394] inception_4b/pool_proj <- inception_4b/pool
I0308 01:11:49.317761  9810 net.cpp:356] inception_4b/pool_proj -> inception_4b/pool_proj
I0308 01:11:49.317769  9810 net.cpp:96] Setting up inception_4b/pool_proj
I0308 01:11:49.318102  9810 net.cpp:103] Top shape: 25 64 14 14 (313600)
I0308 01:11:49.318121  9810 net.cpp:67] Creating Layer inception_4b/relu_pool_proj
I0308 01:11:49.318126  9810 net.cpp:394] inception_4b/relu_pool_proj <- inception_4b/pool_proj
I0308 01:11:49.318135  9810 net.cpp:345] inception_4b/relu_pool_proj -> inception_4b/pool_proj (in-place)
I0308 01:11:49.318141  9810 net.cpp:96] Setting up inception_4b/relu_pool_proj
I0308 01:11:49.318148  9810 net.cpp:103] Top shape: 25 64 14 14 (313600)
I0308 01:11:49.318155  9810 net.cpp:67] Creating Layer inception_4b/output
I0308 01:11:49.318158  9810 net.cpp:394] inception_4b/output <- inception_4b/1x1
I0308 01:11:49.318163  9810 net.cpp:394] inception_4b/output <- inception_4b/3x3
I0308 01:11:49.318168  9810 net.cpp:394] inception_4b/output <- inception_4b/5x5
I0308 01:11:49.318173  9810 net.cpp:394] inception_4b/output <- inception_4b/pool_proj
I0308 01:11:49.318178  9810 net.cpp:356] inception_4b/output -> inception_4b/output
I0308 01:11:49.318184  9810 net.cpp:96] Setting up inception_4b/output
I0308 01:11:49.318189  9810 net.cpp:103] Top shape: 25 512 14 14 (2508800)
I0308 01:11:49.318199  9810 net.cpp:67] Creating Layer inception_4b/output_inception_4b/output_0_split
I0308 01:11:49.318204  9810 net.cpp:394] inception_4b/output_inception_4b/output_0_split <- inception_4b/output
I0308 01:11:49.318210  9810 net.cpp:356] inception_4b/output_inception_4b/output_0_split -> inception_4b/output_inception_4b/output_0_split_0
I0308 01:11:49.318217  9810 net.cpp:356] inception_4b/output_inception_4b/output_0_split -> inception_4b/output_inception_4b/output_0_split_1
I0308 01:11:49.318224  9810 net.cpp:356] inception_4b/output_inception_4b/output_0_split -> inception_4b/output_inception_4b/output_0_split_2
I0308 01:11:49.318231  9810 net.cpp:356] inception_4b/output_inception_4b/output_0_split -> inception_4b/output_inception_4b/output_0_split_3
I0308 01:11:49.318236  9810 net.cpp:96] Setting up inception_4b/output_inception_4b/output_0_split
I0308 01:11:49.318241  9810 net.cpp:103] Top shape: 25 512 14 14 (2508800)
I0308 01:11:49.318245  9810 net.cpp:103] Top shape: 25 512 14 14 (2508800)
I0308 01:11:49.318249  9810 net.cpp:103] Top shape: 25 512 14 14 (2508800)
I0308 01:11:49.318253  9810 net.cpp:103] Top shape: 25 512 14 14 (2508800)
I0308 01:11:49.318263  9810 net.cpp:67] Creating Layer inception_4c/1x1
I0308 01:11:49.318266  9810 net.cpp:394] inception_4c/1x1 <- inception_4b/output_inception_4b/output_0_split_0
I0308 01:11:49.318274  9810 net.cpp:356] inception_4c/1x1 -> inception_4c/1x1
I0308 01:11:49.318280  9810 net.cpp:96] Setting up inception_4c/1x1
I0308 01:11:49.318878  9810 net.cpp:103] Top shape: 25 128 14 14 (627200)
I0308 01:11:49.318897  9810 net.cpp:67] Creating Layer inception_4c/relu_1x1
I0308 01:11:49.318903  9810 net.cpp:394] inception_4c/relu_1x1 <- inception_4c/1x1
I0308 01:11:49.318909  9810 net.cpp:345] inception_4c/relu_1x1 -> inception_4c/1x1 (in-place)
I0308 01:11:49.318915  9810 net.cpp:96] Setting up inception_4c/relu_1x1
I0308 01:11:49.318922  9810 net.cpp:103] Top shape: 25 128 14 14 (627200)
I0308 01:11:49.318931  9810 net.cpp:67] Creating Layer inception_4c/3x3_reduce
I0308 01:11:49.318936  9810 net.cpp:394] inception_4c/3x3_reduce <- inception_4b/output_inception_4b/output_0_split_1
I0308 01:11:49.318944  9810 net.cpp:356] inception_4c/3x3_reduce -> inception_4c/3x3_reduce
I0308 01:11:49.318951  9810 net.cpp:96] Setting up inception_4c/3x3_reduce
I0308 01:11:49.319535  9810 net.cpp:103] Top shape: 25 128 14 14 (627200)
I0308 01:11:49.319555  9810 net.cpp:67] Creating Layer inception_4c/relu_3x3_reduce
I0308 01:11:49.319561  9810 net.cpp:394] inception_4c/relu_3x3_reduce <- inception_4c/3x3_reduce
I0308 01:11:49.319566  9810 net.cpp:345] inception_4c/relu_3x3_reduce -> inception_4c/3x3_reduce (in-place)
I0308 01:11:49.319573  9810 net.cpp:96] Setting up inception_4c/relu_3x3_reduce
I0308 01:11:49.319579  9810 net.cpp:103] Top shape: 25 128 14 14 (627200)
I0308 01:11:49.319589  9810 net.cpp:67] Creating Layer inception_4c/3x3
I0308 01:11:49.319593  9810 net.cpp:394] inception_4c/3x3 <- inception_4c/3x3_reduce
I0308 01:11:49.319599  9810 net.cpp:356] inception_4c/3x3 -> inception_4c/3x3
I0308 01:11:49.319610  9810 net.cpp:96] Setting up inception_4c/3x3
I0308 01:11:49.322172  9810 net.cpp:103] Top shape: 25 256 14 14 (1254400)
I0308 01:11:49.322203  9810 net.cpp:67] Creating Layer inception_4c/relu_3x3
I0308 01:11:49.322212  9810 net.cpp:394] inception_4c/relu_3x3 <- inception_4c/3x3
I0308 01:11:49.322219  9810 net.cpp:345] inception_4c/relu_3x3 -> inception_4c/3x3 (in-place)
I0308 01:11:49.322227  9810 net.cpp:96] Setting up inception_4c/relu_3x3
I0308 01:11:49.322233  9810 net.cpp:103] Top shape: 25 256 14 14 (1254400)
I0308 01:11:49.322240  9810 net.cpp:67] Creating Layer inception_4c/5x5_reduce
I0308 01:11:49.322245  9810 net.cpp:394] inception_4c/5x5_reduce <- inception_4b/output_inception_4b/output_0_split_2
I0308 01:11:49.322253  9810 net.cpp:356] inception_4c/5x5_reduce -> inception_4c/5x5_reduce
I0308 01:11:49.322262  9810 net.cpp:96] Setting up inception_4c/5x5_reduce
I0308 01:11:49.322423  9810 net.cpp:103] Top shape: 25 24 14 14 (117600)
I0308 01:11:49.322444  9810 net.cpp:67] Creating Layer inception_4c/relu_5x5_reduce
I0308 01:11:49.322453  9810 net.cpp:394] inception_4c/relu_5x5_reduce <- inception_4c/5x5_reduce
I0308 01:11:49.322458  9810 net.cpp:345] inception_4c/relu_5x5_reduce -> inception_4c/5x5_reduce (in-place)
I0308 01:11:49.322465  9810 net.cpp:96] Setting up inception_4c/relu_5x5_reduce
I0308 01:11:49.322473  9810 net.cpp:103] Top shape: 25 24 14 14 (117600)
I0308 01:11:49.322479  9810 net.cpp:67] Creating Layer inception_4c/5x5
I0308 01:11:49.322484  9810 net.cpp:394] inception_4c/5x5 <- inception_4c/5x5_reduce
I0308 01:11:49.322491  9810 net.cpp:356] inception_4c/5x5 -> inception_4c/5x5
I0308 01:11:49.322499  9810 net.cpp:96] Setting up inception_4c/5x5
I0308 01:11:49.322867  9810 net.cpp:103] Top shape: 25 64 14 14 (313600)
I0308 01:11:49.322890  9810 net.cpp:67] Creating Layer inception_4c/relu_5x5
I0308 01:11:49.322896  9810 net.cpp:394] inception_4c/relu_5x5 <- inception_4c/5x5
I0308 01:11:49.322901  9810 net.cpp:345] inception_4c/relu_5x5 -> inception_4c/5x5 (in-place)
I0308 01:11:49.322907  9810 net.cpp:96] Setting up inception_4c/relu_5x5
I0308 01:11:49.322916  9810 net.cpp:103] Top shape: 25 64 14 14 (313600)
I0308 01:11:49.322921  9810 net.cpp:67] Creating Layer inception_4c/pool
I0308 01:11:49.322926  9810 net.cpp:394] inception_4c/pool <- inception_4b/output_inception_4b/output_0_split_3
I0308 01:11:49.322934  9810 net.cpp:356] inception_4c/pool -> inception_4c/pool
I0308 01:11:49.322955  9810 net.cpp:96] Setting up inception_4c/pool
I0308 01:11:49.322964  9810 net.cpp:103] Top shape: 25 512 14 14 (2508800)
I0308 01:11:49.322973  9810 net.cpp:67] Creating Layer inception_4c/pool_proj
I0308 01:11:49.322976  9810 net.cpp:394] inception_4c/pool_proj <- inception_4c/pool
I0308 01:11:49.322985  9810 net.cpp:356] inception_4c/pool_proj -> inception_4c/pool_proj
I0308 01:11:49.322993  9810 net.cpp:96] Setting up inception_4c/pool_proj
I0308 01:11:49.323312  9810 net.cpp:103] Top shape: 25 64 14 14 (313600)
I0308 01:11:49.323330  9810 net.cpp:67] Creating Layer inception_4c/relu_pool_proj
I0308 01:11:49.323335  9810 net.cpp:394] inception_4c/relu_pool_proj <- inception_4c/pool_proj
I0308 01:11:49.323343  9810 net.cpp:345] inception_4c/relu_pool_proj -> inception_4c/pool_proj (in-place)
I0308 01:11:49.323350  9810 net.cpp:96] Setting up inception_4c/relu_pool_proj
I0308 01:11:49.323357  9810 net.cpp:103] Top shape: 25 64 14 14 (313600)
I0308 01:11:49.323364  9810 net.cpp:67] Creating Layer inception_4c/output
I0308 01:11:49.323369  9810 net.cpp:394] inception_4c/output <- inception_4c/1x1
I0308 01:11:49.323374  9810 net.cpp:394] inception_4c/output <- inception_4c/3x3
I0308 01:11:49.323379  9810 net.cpp:394] inception_4c/output <- inception_4c/5x5
I0308 01:11:49.323384  9810 net.cpp:394] inception_4c/output <- inception_4c/pool_proj
I0308 01:11:49.323390  9810 net.cpp:356] inception_4c/output -> inception_4c/output
I0308 01:11:49.323395  9810 net.cpp:96] Setting up inception_4c/output
I0308 01:11:49.323400  9810 net.cpp:103] Top shape: 25 512 14 14 (2508800)
I0308 01:11:49.323407  9810 net.cpp:67] Creating Layer inception_4c/output_inception_4c/output_0_split
I0308 01:11:49.323411  9810 net.cpp:394] inception_4c/output_inception_4c/output_0_split <- inception_4c/output
I0308 01:11:49.323417  9810 net.cpp:356] inception_4c/output_inception_4c/output_0_split -> inception_4c/output_inception_4c/output_0_split_0
I0308 01:11:49.323425  9810 net.cpp:356] inception_4c/output_inception_4c/output_0_split -> inception_4c/output_inception_4c/output_0_split_1
I0308 01:11:49.323431  9810 net.cpp:356] inception_4c/output_inception_4c/output_0_split -> inception_4c/output_inception_4c/output_0_split_2
I0308 01:11:49.323438  9810 net.cpp:356] inception_4c/output_inception_4c/output_0_split -> inception_4c/output_inception_4c/output_0_split_3
I0308 01:11:49.323444  9810 net.cpp:96] Setting up inception_4c/output_inception_4c/output_0_split
I0308 01:11:49.323449  9810 net.cpp:103] Top shape: 25 512 14 14 (2508800)
I0308 01:11:49.323457  9810 net.cpp:103] Top shape: 25 512 14 14 (2508800)
I0308 01:11:49.323460  9810 net.cpp:103] Top shape: 25 512 14 14 (2508800)
I0308 01:11:49.323464  9810 net.cpp:103] Top shape: 25 512 14 14 (2508800)
I0308 01:11:49.323472  9810 net.cpp:67] Creating Layer inception_4d/1x1
I0308 01:11:49.323477  9810 net.cpp:394] inception_4d/1x1 <- inception_4c/output_inception_4c/output_0_split_0
I0308 01:11:49.323485  9810 net.cpp:356] inception_4d/1x1 -> inception_4d/1x1
I0308 01:11:49.323492  9810 net.cpp:96] Setting up inception_4d/1x1
I0308 01:11:49.324009  9810 net.cpp:103] Top shape: 25 112 14 14 (548800)
I0308 01:11:49.324028  9810 net.cpp:67] Creating Layer inception_4d/relu_1x1
I0308 01:11:49.324034  9810 net.cpp:394] inception_4d/relu_1x1 <- inception_4d/1x1
I0308 01:11:49.324039  9810 net.cpp:345] inception_4d/relu_1x1 -> inception_4d/1x1 (in-place)
I0308 01:11:49.324048  9810 net.cpp:96] Setting up inception_4d/relu_1x1
I0308 01:11:49.324055  9810 net.cpp:103] Top shape: 25 112 14 14 (548800)
I0308 01:11:49.324066  9810 net.cpp:67] Creating Layer inception_4d/3x3_reduce
I0308 01:11:49.324074  9810 net.cpp:394] inception_4d/3x3_reduce <- inception_4c/output_inception_4c/output_0_split_1
I0308 01:11:49.324082  9810 net.cpp:356] inception_4d/3x3_reduce -> inception_4d/3x3_reduce
I0308 01:11:49.324090  9810 net.cpp:96] Setting up inception_4d/3x3_reduce
I0308 01:11:49.324822  9810 net.cpp:103] Top shape: 25 144 14 14 (705600)
I0308 01:11:49.324844  9810 net.cpp:67] Creating Layer inception_4d/relu_3x3_reduce
I0308 01:11:49.324867  9810 net.cpp:394] inception_4d/relu_3x3_reduce <- inception_4d/3x3_reduce
I0308 01:11:49.324877  9810 net.cpp:345] inception_4d/relu_3x3_reduce -> inception_4d/3x3_reduce (in-place)
I0308 01:11:49.324883  9810 net.cpp:96] Setting up inception_4d/relu_3x3_reduce
I0308 01:11:49.324892  9810 net.cpp:103] Top shape: 25 144 14 14 (705600)
I0308 01:11:49.324898  9810 net.cpp:67] Creating Layer inception_4d/3x3
I0308 01:11:49.324903  9810 net.cpp:394] inception_4d/3x3 <- inception_4d/3x3_reduce
I0308 01:11:49.324910  9810 net.cpp:356] inception_4d/3x3 -> inception_4d/3x3
I0308 01:11:49.324918  9810 net.cpp:96] Setting up inception_4d/3x3
I0308 01:11:49.328034  9810 net.cpp:103] Top shape: 25 288 14 14 (1411200)
I0308 01:11:49.328058  9810 net.cpp:67] Creating Layer inception_4d/relu_3x3
I0308 01:11:49.328064  9810 net.cpp:394] inception_4d/relu_3x3 <- inception_4d/3x3
I0308 01:11:49.328070  9810 net.cpp:345] inception_4d/relu_3x3 -> inception_4d/3x3 (in-place)
I0308 01:11:49.328078  9810 net.cpp:96] Setting up inception_4d/relu_3x3
I0308 01:11:49.328084  9810 net.cpp:103] Top shape: 25 288 14 14 (1411200)
I0308 01:11:49.328090  9810 net.cpp:67] Creating Layer inception_4d/5x5_reduce
I0308 01:11:49.328099  9810 net.cpp:394] inception_4d/5x5_reduce <- inception_4c/output_inception_4c/output_0_split_2
I0308 01:11:49.328104  9810 net.cpp:356] inception_4d/5x5_reduce -> inception_4d/5x5_reduce
I0308 01:11:49.328111  9810 net.cpp:96] Setting up inception_4d/5x5_reduce
I0308 01:11:49.328294  9810 net.cpp:103] Top shape: 25 32 14 14 (156800)
I0308 01:11:49.328312  9810 net.cpp:67] Creating Layer inception_4d/relu_5x5_reduce
I0308 01:11:49.328318  9810 net.cpp:394] inception_4d/relu_5x5_reduce <- inception_4d/5x5_reduce
I0308 01:11:49.328328  9810 net.cpp:345] inception_4d/relu_5x5_reduce -> inception_4d/5x5_reduce (in-place)
I0308 01:11:49.328336  9810 net.cpp:96] Setting up inception_4d/relu_5x5_reduce
I0308 01:11:49.328342  9810 net.cpp:103] Top shape: 25 32 14 14 (156800)
I0308 01:11:49.328349  9810 net.cpp:67] Creating Layer inception_4d/5x5
I0308 01:11:49.328354  9810 net.cpp:394] inception_4d/5x5 <- inception_4d/5x5_reduce
I0308 01:11:49.328362  9810 net.cpp:356] inception_4d/5x5 -> inception_4d/5x5
I0308 01:11:49.328369  9810 net.cpp:96] Setting up inception_4d/5x5
I0308 01:11:49.328837  9810 net.cpp:103] Top shape: 25 64 14 14 (313600)
I0308 01:11:49.328860  9810 net.cpp:67] Creating Layer inception_4d/relu_5x5
I0308 01:11:49.328865  9810 net.cpp:394] inception_4d/relu_5x5 <- inception_4d/5x5
I0308 01:11:49.328871  9810 net.cpp:345] inception_4d/relu_5x5 -> inception_4d/5x5 (in-place)
I0308 01:11:49.328877  9810 net.cpp:96] Setting up inception_4d/relu_5x5
I0308 01:11:49.328883  9810 net.cpp:103] Top shape: 25 64 14 14 (313600)
I0308 01:11:49.328891  9810 net.cpp:67] Creating Layer inception_4d/pool
I0308 01:11:49.328894  9810 net.cpp:394] inception_4d/pool <- inception_4c/output_inception_4c/output_0_split_3
I0308 01:11:49.328901  9810 net.cpp:356] inception_4d/pool -> inception_4d/pool
I0308 01:11:49.328909  9810 net.cpp:96] Setting up inception_4d/pool
I0308 01:11:49.328917  9810 net.cpp:103] Top shape: 25 512 14 14 (2508800)
I0308 01:11:49.328924  9810 net.cpp:67] Creating Layer inception_4d/pool_proj
I0308 01:11:49.328929  9810 net.cpp:394] inception_4d/pool_proj <- inception_4d/pool
I0308 01:11:49.328938  9810 net.cpp:356] inception_4d/pool_proj -> inception_4d/pool_proj
I0308 01:11:49.328944  9810 net.cpp:96] Setting up inception_4d/pool_proj
I0308 01:11:49.329262  9810 net.cpp:103] Top shape: 25 64 14 14 (313600)
I0308 01:11:49.329280  9810 net.cpp:67] Creating Layer inception_4d/relu_pool_proj
I0308 01:11:49.329287  9810 net.cpp:394] inception_4d/relu_pool_proj <- inception_4d/pool_proj
I0308 01:11:49.329294  9810 net.cpp:345] inception_4d/relu_pool_proj -> inception_4d/pool_proj (in-place)
I0308 01:11:49.329303  9810 net.cpp:96] Setting up inception_4d/relu_pool_proj
I0308 01:11:49.329310  9810 net.cpp:103] Top shape: 25 64 14 14 (313600)
I0308 01:11:49.329316  9810 net.cpp:67] Creating Layer inception_4d/output
I0308 01:11:49.329334  9810 net.cpp:394] inception_4d/output <- inception_4d/1x1
I0308 01:11:49.329339  9810 net.cpp:394] inception_4d/output <- inception_4d/3x3
I0308 01:11:49.329344  9810 net.cpp:394] inception_4d/output <- inception_4d/5x5
I0308 01:11:49.329349  9810 net.cpp:394] inception_4d/output <- inception_4d/pool_proj
I0308 01:11:49.329355  9810 net.cpp:356] inception_4d/output -> inception_4d/output
I0308 01:11:49.329362  9810 net.cpp:96] Setting up inception_4d/output
I0308 01:11:49.329366  9810 net.cpp:103] Top shape: 25 528 14 14 (2587200)
I0308 01:11:49.329375  9810 net.cpp:67] Creating Layer inception_4d/output_inception_4d/output_0_split
I0308 01:11:49.329380  9810 net.cpp:394] inception_4d/output_inception_4d/output_0_split <- inception_4d/output
I0308 01:11:49.329385  9810 net.cpp:356] inception_4d/output_inception_4d/output_0_split -> inception_4d/output_inception_4d/output_0_split_0
I0308 01:11:49.329392  9810 net.cpp:356] inception_4d/output_inception_4d/output_0_split -> inception_4d/output_inception_4d/output_0_split_1
I0308 01:11:49.329401  9810 net.cpp:356] inception_4d/output_inception_4d/output_0_split -> inception_4d/output_inception_4d/output_0_split_2
I0308 01:11:49.329407  9810 net.cpp:356] inception_4d/output_inception_4d/output_0_split -> inception_4d/output_inception_4d/output_0_split_3
I0308 01:11:49.329413  9810 net.cpp:356] inception_4d/output_inception_4d/output_0_split -> inception_4d/output_inception_4d/output_0_split_4
I0308 01:11:49.329419  9810 net.cpp:96] Setting up inception_4d/output_inception_4d/output_0_split
I0308 01:11:49.329426  9810 net.cpp:103] Top shape: 25 528 14 14 (2587200)
I0308 01:11:49.329429  9810 net.cpp:103] Top shape: 25 528 14 14 (2587200)
I0308 01:11:49.329433  9810 net.cpp:103] Top shape: 25 528 14 14 (2587200)
I0308 01:11:49.329437  9810 net.cpp:103] Top shape: 25 528 14 14 (2587200)
I0308 01:11:49.329440  9810 net.cpp:103] Top shape: 25 528 14 14 (2587200)
I0308 01:11:49.329447  9810 net.cpp:67] Creating Layer loss2/ave_pool
I0308 01:11:49.329452  9810 net.cpp:394] loss2/ave_pool <- inception_4d/output_inception_4d/output_0_split_0
I0308 01:11:49.329458  9810 net.cpp:356] loss2/ave_pool -> loss2/ave_pool
I0308 01:11:49.329464  9810 net.cpp:96] Setting up loss2/ave_pool
I0308 01:11:49.329474  9810 net.cpp:103] Top shape: 25 528 4 4 (211200)
I0308 01:11:49.329481  9810 net.cpp:67] Creating Layer loss2/conv
I0308 01:11:49.329485  9810 net.cpp:394] loss2/conv <- loss2/ave_pool
I0308 01:11:49.329491  9810 net.cpp:356] loss2/conv -> loss2/conv
I0308 01:11:49.329499  9810 net.cpp:96] Setting up loss2/conv
I0308 01:11:49.330199  9810 net.cpp:103] Top shape: 25 128 4 4 (51200)
I0308 01:11:49.330221  9810 net.cpp:67] Creating Layer loss2/relu_conv
I0308 01:11:49.330229  9810 net.cpp:394] loss2/relu_conv <- loss2/conv
I0308 01:11:49.330236  9810 net.cpp:345] loss2/relu_conv -> loss2/conv (in-place)
I0308 01:11:49.330243  9810 net.cpp:96] Setting up loss2/relu_conv
I0308 01:11:49.330250  9810 net.cpp:103] Top shape: 25 128 4 4 (51200)
I0308 01:11:49.330257  9810 net.cpp:67] Creating Layer loss2/fc
I0308 01:11:49.330261  9810 net.cpp:394] loss2/fc <- loss2/conv
I0308 01:11:49.330267  9810 net.cpp:356] loss2/fc -> loss2/fc
I0308 01:11:49.330274  9810 net.cpp:96] Setting up loss2/fc
I0308 01:11:49.346089  9810 net.cpp:103] Top shape: 25 1024 1 1 (25600)
I0308 01:11:49.346112  9810 net.cpp:67] Creating Layer loss2/relu_fc
I0308 01:11:49.346118  9810 net.cpp:394] loss2/relu_fc <- loss2/fc
I0308 01:11:49.346124  9810 net.cpp:345] loss2/relu_fc -> loss2/fc (in-place)
I0308 01:11:49.346132  9810 net.cpp:96] Setting up loss2/relu_fc
I0308 01:11:49.346140  9810 net.cpp:103] Top shape: 25 1024 1 1 (25600)
I0308 01:11:49.346148  9810 net.cpp:67] Creating Layer loss2/drop_fc
I0308 01:11:49.346153  9810 net.cpp:394] loss2/drop_fc <- loss2/fc
I0308 01:11:49.346158  9810 net.cpp:345] loss2/drop_fc -> loss2/fc (in-place)
I0308 01:11:49.346164  9810 net.cpp:96] Setting up loss2/drop_fc
I0308 01:11:49.346169  9810 net.cpp:103] Top shape: 25 1024 1 1 (25600)
I0308 01:11:49.346199  9810 net.cpp:67] Creating Layer loss2/classifier
I0308 01:11:49.346204  9810 net.cpp:394] loss2/classifier <- loss2/fc
I0308 01:11:49.346213  9810 net.cpp:356] loss2/classifier -> loss2/classifier
I0308 01:11:49.346220  9810 net.cpp:96] Setting up loss2/classifier
I0308 01:11:49.347239  9810 net.cpp:103] Top shape: 25 121 1 1 (3025)
I0308 01:11:49.347262  9810 net.cpp:67] Creating Layer loss2/loss
I0308 01:11:49.347268  9810 net.cpp:394] loss2/loss <- loss2/classifier
I0308 01:11:49.347275  9810 net.cpp:394] loss2/loss <- label_data_1_split_1
I0308 01:11:49.347280  9810 net.cpp:356] loss2/loss -> loss2/loss1
I0308 01:11:49.347287  9810 net.cpp:96] Setting up loss2/loss
I0308 01:11:49.347303  9810 net.cpp:103] Top shape: 1 1 1 1 (1)
I0308 01:11:49.347313  9810 net.cpp:109]     with loss weight 0.3
I0308 01:11:49.347331  9810 net.cpp:67] Creating Layer inception_4e/1x1
I0308 01:11:49.347336  9810 net.cpp:394] inception_4e/1x1 <- inception_4d/output_inception_4d/output_0_split_1
I0308 01:11:49.347342  9810 net.cpp:356] inception_4e/1x1 -> inception_4e/1x1
I0308 01:11:49.347349  9810 net.cpp:96] Setting up inception_4e/1x1
I0308 01:11:49.348526  9810 net.cpp:103] Top shape: 25 256 14 14 (1254400)
I0308 01:11:49.348549  9810 net.cpp:67] Creating Layer inception_4e/relu_1x1
I0308 01:11:49.348556  9810 net.cpp:394] inception_4e/relu_1x1 <- inception_4e/1x1
I0308 01:11:49.348562  9810 net.cpp:345] inception_4e/relu_1x1 -> inception_4e/1x1 (in-place)
I0308 01:11:49.348568  9810 net.cpp:96] Setting up inception_4e/relu_1x1
I0308 01:11:49.348575  9810 net.cpp:103] Top shape: 25 256 14 14 (1254400)
I0308 01:11:49.348585  9810 net.cpp:67] Creating Layer inception_4e/3x3_reduce
I0308 01:11:49.348589  9810 net.cpp:394] inception_4e/3x3_reduce <- inception_4d/output_inception_4d/output_0_split_2
I0308 01:11:49.348597  9810 net.cpp:356] inception_4e/3x3_reduce -> inception_4e/3x3_reduce
I0308 01:11:49.348603  9810 net.cpp:96] Setting up inception_4e/3x3_reduce
I0308 01:11:49.349342  9810 net.cpp:103] Top shape: 25 160 14 14 (784000)
I0308 01:11:49.349365  9810 net.cpp:67] Creating Layer inception_4e/relu_3x3_reduce
I0308 01:11:49.349371  9810 net.cpp:394] inception_4e/relu_3x3_reduce <- inception_4e/3x3_reduce
I0308 01:11:49.349377  9810 net.cpp:345] inception_4e/relu_3x3_reduce -> inception_4e/3x3_reduce (in-place)
I0308 01:11:49.349385  9810 net.cpp:96] Setting up inception_4e/relu_3x3_reduce
I0308 01:11:49.349390  9810 net.cpp:103] Top shape: 25 160 14 14 (784000)
I0308 01:11:49.349400  9810 net.cpp:67] Creating Layer inception_4e/3x3
I0308 01:11:49.349405  9810 net.cpp:394] inception_4e/3x3 <- inception_4e/3x3_reduce
I0308 01:11:49.349411  9810 net.cpp:356] inception_4e/3x3 -> inception_4e/3x3
I0308 01:11:49.349417  9810 net.cpp:96] Setting up inception_4e/3x3
I0308 01:11:49.353281  9810 net.cpp:103] Top shape: 25 320 14 14 (1568000)
I0308 01:11:49.353304  9810 net.cpp:67] Creating Layer inception_4e/relu_3x3
I0308 01:11:49.353312  9810 net.cpp:394] inception_4e/relu_3x3 <- inception_4e/3x3
I0308 01:11:49.353317  9810 net.cpp:345] inception_4e/relu_3x3 -> inception_4e/3x3 (in-place)
I0308 01:11:49.353323  9810 net.cpp:96] Setting up inception_4e/relu_3x3
I0308 01:11:49.353330  9810 net.cpp:103] Top shape: 25 320 14 14 (1568000)
I0308 01:11:49.353338  9810 net.cpp:67] Creating Layer inception_4e/5x5_reduce
I0308 01:11:49.353343  9810 net.cpp:394] inception_4e/5x5_reduce <- inception_4d/output_inception_4d/output_0_split_3
I0308 01:11:49.353353  9810 net.cpp:356] inception_4e/5x5_reduce -> inception_4e/5x5_reduce
I0308 01:11:49.353360  9810 net.cpp:96] Setting up inception_4e/5x5_reduce
I0308 01:11:49.353549  9810 net.cpp:103] Top shape: 25 32 14 14 (156800)
I0308 01:11:49.353569  9810 net.cpp:67] Creating Layer inception_4e/relu_5x5_reduce
I0308 01:11:49.353574  9810 net.cpp:394] inception_4e/relu_5x5_reduce <- inception_4e/5x5_reduce
I0308 01:11:49.353582  9810 net.cpp:345] inception_4e/relu_5x5_reduce -> inception_4e/5x5_reduce (in-place)
I0308 01:11:49.353590  9810 net.cpp:96] Setting up inception_4e/relu_5x5_reduce
I0308 01:11:49.353615  9810 net.cpp:103] Top shape: 25 32 14 14 (156800)
I0308 01:11:49.353649  9810 net.cpp:67] Creating Layer inception_4e/5x5
I0308 01:11:49.353667  9810 net.cpp:394] inception_4e/5x5 <- inception_4e/5x5_reduce
I0308 01:11:49.353679  9810 net.cpp:356] inception_4e/5x5 -> inception_4e/5x5
I0308 01:11:49.353691  9810 net.cpp:96] Setting up inception_4e/5x5
I0308 01:11:49.354748  9810 net.cpp:103] Top shape: 25 128 14 14 (627200)
I0308 01:11:49.354773  9810 net.cpp:67] Creating Layer inception_4e/relu_5x5
I0308 01:11:49.354779  9810 net.cpp:394] inception_4e/relu_5x5 <- inception_4e/5x5
I0308 01:11:49.354785  9810 net.cpp:345] inception_4e/relu_5x5 -> inception_4e/5x5 (in-place)
I0308 01:11:49.354792  9810 net.cpp:96] Setting up inception_4e/relu_5x5
I0308 01:11:49.354799  9810 net.cpp:103] Top shape: 25 128 14 14 (627200)
I0308 01:11:49.354805  9810 net.cpp:67] Creating Layer inception_4e/pool
I0308 01:11:49.354810  9810 net.cpp:394] inception_4e/pool <- inception_4d/output_inception_4d/output_0_split_4
I0308 01:11:49.354818  9810 net.cpp:356] inception_4e/pool -> inception_4e/pool
I0308 01:11:49.354825  9810 net.cpp:96] Setting up inception_4e/pool
I0308 01:11:49.354832  9810 net.cpp:103] Top shape: 25 528 14 14 (2587200)
I0308 01:11:49.354840  9810 net.cpp:67] Creating Layer inception_4e/pool_proj
I0308 01:11:49.354845  9810 net.cpp:394] inception_4e/pool_proj <- inception_4e/pool
I0308 01:11:49.354852  9810 net.cpp:356] inception_4e/pool_proj -> inception_4e/pool_proj
I0308 01:11:49.354859  9810 net.cpp:96] Setting up inception_4e/pool_proj
I0308 01:11:49.355466  9810 net.cpp:103] Top shape: 25 128 14 14 (627200)
I0308 01:11:49.355491  9810 net.cpp:67] Creating Layer inception_4e/relu_pool_proj
I0308 01:11:49.355497  9810 net.cpp:394] inception_4e/relu_pool_proj <- inception_4e/pool_proj
I0308 01:11:49.355504  9810 net.cpp:345] inception_4e/relu_pool_proj -> inception_4e/pool_proj (in-place)
I0308 01:11:49.355509  9810 net.cpp:96] Setting up inception_4e/relu_pool_proj
I0308 01:11:49.355516  9810 net.cpp:103] Top shape: 25 128 14 14 (627200)
I0308 01:11:49.355525  9810 net.cpp:67] Creating Layer inception_4e/output
I0308 01:11:49.355531  9810 net.cpp:394] inception_4e/output <- inception_4e/1x1
I0308 01:11:49.355537  9810 net.cpp:394] inception_4e/output <- inception_4e/3x3
I0308 01:11:49.355542  9810 net.cpp:394] inception_4e/output <- inception_4e/5x5
I0308 01:11:49.355546  9810 net.cpp:394] inception_4e/output <- inception_4e/pool_proj
I0308 01:11:49.355552  9810 net.cpp:356] inception_4e/output -> inception_4e/output
I0308 01:11:49.355559  9810 net.cpp:96] Setting up inception_4e/output
I0308 01:11:49.355563  9810 net.cpp:103] Top shape: 25 832 14 14 (4076800)
I0308 01:11:49.355569  9810 net.cpp:67] Creating Layer pool4/3x3_s2
I0308 01:11:49.355573  9810 net.cpp:394] pool4/3x3_s2 <- inception_4e/output
I0308 01:11:49.355581  9810 net.cpp:356] pool4/3x3_s2 -> pool4/3x3_s2
I0308 01:11:49.355588  9810 net.cpp:96] Setting up pool4/3x3_s2
I0308 01:11:49.355595  9810 net.cpp:103] Top shape: 25 832 7 7 (1019200)
I0308 01:11:49.355602  9810 net.cpp:67] Creating Layer pool4/3x3_s2_pool4/3x3_s2_0_split
I0308 01:11:49.355607  9810 net.cpp:394] pool4/3x3_s2_pool4/3x3_s2_0_split <- pool4/3x3_s2
I0308 01:11:49.355613  9810 net.cpp:356] pool4/3x3_s2_pool4/3x3_s2_0_split -> pool4/3x3_s2_pool4/3x3_s2_0_split_0
I0308 01:11:49.355620  9810 net.cpp:356] pool4/3x3_s2_pool4/3x3_s2_0_split -> pool4/3x3_s2_pool4/3x3_s2_0_split_1
I0308 01:11:49.355628  9810 net.cpp:356] pool4/3x3_s2_pool4/3x3_s2_0_split -> pool4/3x3_s2_pool4/3x3_s2_0_split_2
I0308 01:11:49.355633  9810 net.cpp:356] pool4/3x3_s2_pool4/3x3_s2_0_split -> pool4/3x3_s2_pool4/3x3_s2_0_split_3
I0308 01:11:49.355639  9810 net.cpp:96] Setting up pool4/3x3_s2_pool4/3x3_s2_0_split
I0308 01:11:49.355644  9810 net.cpp:103] Top shape: 25 832 7 7 (1019200)
I0308 01:11:49.355648  9810 net.cpp:103] Top shape: 25 832 7 7 (1019200)
I0308 01:11:49.355653  9810 net.cpp:103] Top shape: 25 832 7 7 (1019200)
I0308 01:11:49.355655  9810 net.cpp:103] Top shape: 25 832 7 7 (1019200)
I0308 01:11:49.355675  9810 net.cpp:67] Creating Layer inception_5a/1x1
I0308 01:11:49.355680  9810 net.cpp:394] inception_5a/1x1 <- pool4/3x3_s2_pool4/3x3_s2_0_split_0
I0308 01:11:49.355689  9810 net.cpp:356] inception_5a/1x1 -> inception_5a/1x1
I0308 01:11:49.355696  9810 net.cpp:96] Setting up inception_5a/1x1
I0308 01:11:49.357486  9810 net.cpp:103] Top shape: 25 256 7 7 (313600)
I0308 01:11:49.357508  9810 net.cpp:67] Creating Layer inception_5a/relu_1x1
I0308 01:11:49.357514  9810 net.cpp:394] inception_5a/relu_1x1 <- inception_5a/1x1
I0308 01:11:49.357520  9810 net.cpp:345] inception_5a/relu_1x1 -> inception_5a/1x1 (in-place)
I0308 01:11:49.357527  9810 net.cpp:96] Setting up inception_5a/relu_1x1
I0308 01:11:49.357533  9810 net.cpp:103] Top shape: 25 256 7 7 (313600)
I0308 01:11:49.357540  9810 net.cpp:67] Creating Layer inception_5a/3x3_reduce
I0308 01:11:49.357545  9810 net.cpp:394] inception_5a/3x3_reduce <- pool4/3x3_s2_pool4/3x3_s2_0_split_1
I0308 01:11:49.357554  9810 net.cpp:356] inception_5a/3x3_reduce -> inception_5a/3x3_reduce
I0308 01:11:49.357563  9810 net.cpp:96] Setting up inception_5a/3x3_reduce
I0308 01:11:49.358809  9810 net.cpp:103] Top shape: 25 160 7 7 (196000)
I0308 01:11:49.358834  9810 net.cpp:67] Creating Layer inception_5a/relu_3x3_reduce
I0308 01:11:49.358840  9810 net.cpp:394] inception_5a/relu_3x3_reduce <- inception_5a/3x3_reduce
I0308 01:11:49.358846  9810 net.cpp:345] inception_5a/relu_3x3_reduce -> inception_5a/3x3_reduce (in-place)
I0308 01:11:49.358853  9810 net.cpp:96] Setting up inception_5a/relu_3x3_reduce
I0308 01:11:49.358860  9810 net.cpp:103] Top shape: 25 160 7 7 (196000)
I0308 01:11:49.358870  9810 net.cpp:67] Creating Layer inception_5a/3x3
I0308 01:11:49.358875  9810 net.cpp:394] inception_5a/3x3 <- inception_5a/3x3_reduce
I0308 01:11:49.358880  9810 net.cpp:356] inception_5a/3x3 -> inception_5a/3x3
I0308 01:11:49.358887  9810 net.cpp:96] Setting up inception_5a/3x3
I0308 01:11:49.362799  9810 net.cpp:103] Top shape: 25 320 7 7 (392000)
I0308 01:11:49.362825  9810 net.cpp:67] Creating Layer inception_5a/relu_3x3
I0308 01:11:49.362833  9810 net.cpp:394] inception_5a/relu_3x3 <- inception_5a/3x3
I0308 01:11:49.362838  9810 net.cpp:345] inception_5a/relu_3x3 -> inception_5a/3x3 (in-place)
I0308 01:11:49.362845  9810 net.cpp:96] Setting up inception_5a/relu_3x3
I0308 01:11:49.362853  9810 net.cpp:103] Top shape: 25 320 7 7 (392000)
I0308 01:11:49.362861  9810 net.cpp:67] Creating Layer inception_5a/5x5_reduce
I0308 01:11:49.362866  9810 net.cpp:394] inception_5a/5x5_reduce <- pool4/3x3_s2_pool4/3x3_s2_0_split_2
I0308 01:11:49.362872  9810 net.cpp:356] inception_5a/5x5_reduce -> inception_5a/5x5_reduce
I0308 01:11:49.362879  9810 net.cpp:96] Setting up inception_5a/5x5_reduce
I0308 01:11:49.363240  9810 net.cpp:103] Top shape: 25 32 7 7 (39200)
I0308 01:11:49.363270  9810 net.cpp:67] Creating Layer inception_5a/relu_5x5_reduce
I0308 01:11:49.363283  9810 net.cpp:394] inception_5a/relu_5x5_reduce <- inception_5a/5x5_reduce
I0308 01:11:49.363291  9810 net.cpp:345] inception_5a/relu_5x5_reduce -> inception_5a/5x5_reduce (in-place)
I0308 01:11:49.363301  9810 net.cpp:96] Setting up inception_5a/relu_5x5_reduce
I0308 01:11:49.363309  9810 net.cpp:103] Top shape: 25 32 7 7 (39200)
I0308 01:11:49.363317  9810 net.cpp:67] Creating Layer inception_5a/5x5
I0308 01:11:49.363322  9810 net.cpp:394] inception_5a/5x5 <- inception_5a/5x5_reduce
I0308 01:11:49.363327  9810 net.cpp:356] inception_5a/5x5 -> inception_5a/5x5
I0308 01:11:49.363334  9810 net.cpp:96] Setting up inception_5a/5x5
I0308 01:11:49.364228  9810 net.cpp:103] Top shape: 25 128 7 7 (156800)
I0308 01:11:49.364248  9810 net.cpp:67] Creating Layer inception_5a/relu_5x5
I0308 01:11:49.364253  9810 net.cpp:394] inception_5a/relu_5x5 <- inception_5a/5x5
I0308 01:11:49.364259  9810 net.cpp:345] inception_5a/relu_5x5 -> inception_5a/5x5 (in-place)
I0308 01:11:49.364266  9810 net.cpp:96] Setting up inception_5a/relu_5x5
I0308 01:11:49.364272  9810 net.cpp:103] Top shape: 25 128 7 7 (156800)
I0308 01:11:49.364296  9810 net.cpp:67] Creating Layer inception_5a/pool
I0308 01:11:49.364302  9810 net.cpp:394] inception_5a/pool <- pool4/3x3_s2_pool4/3x3_s2_0_split_3
I0308 01:11:49.364308  9810 net.cpp:356] inception_5a/pool -> inception_5a/pool
I0308 01:11:49.364315  9810 net.cpp:96] Setting up inception_5a/pool
I0308 01:11:49.364323  9810 net.cpp:103] Top shape: 25 832 7 7 (1019200)
I0308 01:11:49.364333  9810 net.cpp:67] Creating Layer inception_5a/pool_proj
I0308 01:11:49.364349  9810 net.cpp:394] inception_5a/pool_proj <- inception_5a/pool
I0308 01:11:49.364356  9810 net.cpp:356] inception_5a/pool_proj -> inception_5a/pool_proj
I0308 01:11:49.364363  9810 net.cpp:96] Setting up inception_5a/pool_proj
I0308 01:11:49.365283  9810 net.cpp:103] Top shape: 25 128 7 7 (156800)
I0308 01:11:49.365304  9810 net.cpp:67] Creating Layer inception_5a/relu_pool_proj
I0308 01:11:49.365310  9810 net.cpp:394] inception_5a/relu_pool_proj <- inception_5a/pool_proj
I0308 01:11:49.365316  9810 net.cpp:345] inception_5a/relu_pool_proj -> inception_5a/pool_proj (in-place)
I0308 01:11:49.365324  9810 net.cpp:96] Setting up inception_5a/relu_pool_proj
I0308 01:11:49.365330  9810 net.cpp:103] Top shape: 25 128 7 7 (156800)
I0308 01:11:49.365336  9810 net.cpp:67] Creating Layer inception_5a/output
I0308 01:11:49.365340  9810 net.cpp:394] inception_5a/output <- inception_5a/1x1
I0308 01:11:49.365345  9810 net.cpp:394] inception_5a/output <- inception_5a/3x3
I0308 01:11:49.365387  9810 net.cpp:394] inception_5a/output <- inception_5a/5x5
I0308 01:11:49.365393  9810 net.cpp:394] inception_5a/output <- inception_5a/pool_proj
I0308 01:11:49.365399  9810 net.cpp:356] inception_5a/output -> inception_5a/output
I0308 01:11:49.365406  9810 net.cpp:96] Setting up inception_5a/output
I0308 01:11:49.365411  9810 net.cpp:103] Top shape: 25 832 7 7 (1019200)
I0308 01:11:49.365417  9810 net.cpp:67] Creating Layer inception_5a/output_inception_5a/output_0_split
I0308 01:11:49.365422  9810 net.cpp:394] inception_5a/output_inception_5a/output_0_split <- inception_5a/output
I0308 01:11:49.365427  9810 net.cpp:356] inception_5a/output_inception_5a/output_0_split -> inception_5a/output_inception_5a/output_0_split_0
I0308 01:11:49.365434  9810 net.cpp:356] inception_5a/output_inception_5a/output_0_split -> inception_5a/output_inception_5a/output_0_split_1
I0308 01:11:49.365442  9810 net.cpp:356] inception_5a/output_inception_5a/output_0_split -> inception_5a/output_inception_5a/output_0_split_2
I0308 01:11:49.365452  9810 net.cpp:356] inception_5a/output_inception_5a/output_0_split -> inception_5a/output_inception_5a/output_0_split_3
I0308 01:11:49.365458  9810 net.cpp:96] Setting up inception_5a/output_inception_5a/output_0_split
I0308 01:11:49.365463  9810 net.cpp:103] Top shape: 25 832 7 7 (1019200)
I0308 01:11:49.365466  9810 net.cpp:103] Top shape: 25 832 7 7 (1019200)
I0308 01:11:49.365470  9810 net.cpp:103] Top shape: 25 832 7 7 (1019200)
I0308 01:11:49.365474  9810 net.cpp:103] Top shape: 25 832 7 7 (1019200)
I0308 01:11:49.365480  9810 net.cpp:67] Creating Layer inception_5b/1x1
I0308 01:11:49.365484  9810 net.cpp:394] inception_5b/1x1 <- inception_5a/output_inception_5a/output_0_split_0
I0308 01:11:49.365495  9810 net.cpp:356] inception_5b/1x1 -> inception_5b/1x1
I0308 01:11:49.365502  9810 net.cpp:96] Setting up inception_5b/1x1
I0308 01:11:49.368216  9810 net.cpp:103] Top shape: 25 384 7 7 (470400)
I0308 01:11:49.368242  9810 net.cpp:67] Creating Layer inception_5b/relu_1x1
I0308 01:11:49.368247  9810 net.cpp:394] inception_5b/relu_1x1 <- inception_5b/1x1
I0308 01:11:49.368254  9810 net.cpp:345] inception_5b/relu_1x1 -> inception_5b/1x1 (in-place)
I0308 01:11:49.368262  9810 net.cpp:96] Setting up inception_5b/relu_1x1
I0308 01:11:49.368268  9810 net.cpp:103] Top shape: 25 384 7 7 (470400)
I0308 01:11:49.368278  9810 net.cpp:67] Creating Layer inception_5b/3x3_reduce
I0308 01:11:49.368283  9810 net.cpp:394] inception_5b/3x3_reduce <- inception_5a/output_inception_5a/output_0_split_1
I0308 01:11:49.368288  9810 net.cpp:356] inception_5b/3x3_reduce -> inception_5b/3x3_reduce
I0308 01:11:49.368311  9810 net.cpp:96] Setting up inception_5b/3x3_reduce
I0308 01:11:49.369674  9810 net.cpp:103] Top shape: 25 192 7 7 (235200)
I0308 01:11:49.369700  9810 net.cpp:67] Creating Layer inception_5b/relu_3x3_reduce
I0308 01:11:49.369706  9810 net.cpp:394] inception_5b/relu_3x3_reduce <- inception_5b/3x3_reduce
I0308 01:11:49.369712  9810 net.cpp:345] inception_5b/relu_3x3_reduce -> inception_5b/3x3_reduce (in-place)
I0308 01:11:49.369719  9810 net.cpp:96] Setting up inception_5b/relu_3x3_reduce
I0308 01:11:49.369726  9810 net.cpp:103] Top shape: 25 192 7 7 (235200)
I0308 01:11:49.369736  9810 net.cpp:67] Creating Layer inception_5b/3x3
I0308 01:11:49.369741  9810 net.cpp:394] inception_5b/3x3 <- inception_5b/3x3_reduce
I0308 01:11:49.369747  9810 net.cpp:356] inception_5b/3x3 -> inception_5b/3x3
I0308 01:11:49.369771  9810 net.cpp:96] Setting up inception_5b/3x3
I0308 01:11:49.375342  9810 net.cpp:103] Top shape: 25 384 7 7 (470400)
I0308 01:11:49.375365  9810 net.cpp:67] Creating Layer inception_5b/relu_3x3
I0308 01:11:49.375372  9810 net.cpp:394] inception_5b/relu_3x3 <- inception_5b/3x3
I0308 01:11:49.375380  9810 net.cpp:345] inception_5b/relu_3x3 -> inception_5b/3x3 (in-place)
I0308 01:11:49.375388  9810 net.cpp:96] Setting up inception_5b/relu_3x3
I0308 01:11:49.375396  9810 net.cpp:103] Top shape: 25 384 7 7 (470400)
I0308 01:11:49.375404  9810 net.cpp:67] Creating Layer inception_5b/5x5_reduce
I0308 01:11:49.375409  9810 net.cpp:394] inception_5b/5x5_reduce <- inception_5a/output_inception_5a/output_0_split_2
I0308 01:11:49.375416  9810 net.cpp:356] inception_5b/5x5_reduce -> inception_5b/5x5_reduce
I0308 01:11:49.375426  9810 net.cpp:96] Setting up inception_5b/5x5_reduce
I0308 01:11:49.375797  9810 net.cpp:103] Top shape: 25 48 7 7 (58800)
I0308 01:11:49.375818  9810 net.cpp:67] Creating Layer inception_5b/relu_5x5_reduce
I0308 01:11:49.375824  9810 net.cpp:394] inception_5b/relu_5x5_reduce <- inception_5b/5x5_reduce
I0308 01:11:49.375831  9810 net.cpp:345] inception_5b/relu_5x5_reduce -> inception_5b/5x5_reduce (in-place)
I0308 01:11:49.375838  9810 net.cpp:96] Setting up inception_5b/relu_5x5_reduce
I0308 01:11:49.375844  9810 net.cpp:103] Top shape: 25 48 7 7 (58800)
I0308 01:11:49.375851  9810 net.cpp:67] Creating Layer inception_5b/5x5
I0308 01:11:49.375855  9810 net.cpp:394] inception_5b/5x5 <- inception_5b/5x5_reduce
I0308 01:11:49.375864  9810 net.cpp:356] inception_5b/5x5 -> inception_5b/5x5
I0308 01:11:49.375870  9810 net.cpp:96] Setting up inception_5b/5x5
I0308 01:11:49.377177  9810 net.cpp:103] Top shape: 25 128 7 7 (156800)
I0308 01:11:49.377197  9810 net.cpp:67] Creating Layer inception_5b/relu_5x5
I0308 01:11:49.377202  9810 net.cpp:394] inception_5b/relu_5x5 <- inception_5b/5x5
I0308 01:11:49.377209  9810 net.cpp:345] inception_5b/relu_5x5 -> inception_5b/5x5 (in-place)
I0308 01:11:49.377220  9810 net.cpp:96] Setting up inception_5b/relu_5x5
I0308 01:11:49.377226  9810 net.cpp:103] Top shape: 25 128 7 7 (156800)
I0308 01:11:49.377233  9810 net.cpp:67] Creating Layer inception_5b/pool
I0308 01:11:49.377238  9810 net.cpp:394] inception_5b/pool <- inception_5a/output_inception_5a/output_0_split_3
I0308 01:11:49.377243  9810 net.cpp:356] inception_5b/pool -> inception_5b/pool
I0308 01:11:49.377250  9810 net.cpp:96] Setting up inception_5b/pool
I0308 01:11:49.377259  9810 net.cpp:103] Top shape: 25 832 7 7 (1019200)
I0308 01:11:49.377269  9810 net.cpp:67] Creating Layer inception_5b/pool_proj
I0308 01:11:49.377274  9810 net.cpp:394] inception_5b/pool_proj <- inception_5b/pool
I0308 01:11:49.377281  9810 net.cpp:356] inception_5b/pool_proj -> inception_5b/pool_proj
I0308 01:11:49.377288  9810 net.cpp:96] Setting up inception_5b/pool_proj
I0308 01:11:49.378217  9810 net.cpp:103] Top shape: 25 128 7 7 (156800)
I0308 01:11:49.378239  9810 net.cpp:67] Creating Layer inception_5b/relu_pool_proj
I0308 01:11:49.378245  9810 net.cpp:394] inception_5b/relu_pool_proj <- inception_5b/pool_proj
I0308 01:11:49.378252  9810 net.cpp:345] inception_5b/relu_pool_proj -> inception_5b/pool_proj (in-place)
I0308 01:11:49.378283  9810 net.cpp:96] Setting up inception_5b/relu_pool_proj
I0308 01:11:49.378290  9810 net.cpp:103] Top shape: 25 128 7 7 (156800)
I0308 01:11:49.378296  9810 net.cpp:67] Creating Layer inception_5b/output
I0308 01:11:49.378301  9810 net.cpp:394] inception_5b/output <- inception_5b/1x1
I0308 01:11:49.378310  9810 net.cpp:394] inception_5b/output <- inception_5b/3x3
I0308 01:11:49.378319  9810 net.cpp:394] inception_5b/output <- inception_5b/5x5
I0308 01:11:49.378327  9810 net.cpp:394] inception_5b/output <- inception_5b/pool_proj
I0308 01:11:49.378345  9810 net.cpp:356] inception_5b/output -> inception_5b/output
I0308 01:11:49.378352  9810 net.cpp:96] Setting up inception_5b/output
I0308 01:11:49.378357  9810 net.cpp:103] Top shape: 25 1024 7 7 (1254400)
I0308 01:11:49.378365  9810 net.cpp:67] Creating Layer pool5/7x7_s1
I0308 01:11:49.378368  9810 net.cpp:394] pool5/7x7_s1 <- inception_5b/output
I0308 01:11:49.378375  9810 net.cpp:356] pool5/7x7_s1 -> pool5/7x7_s1
I0308 01:11:49.378382  9810 net.cpp:96] Setting up pool5/7x7_s1
I0308 01:11:49.378391  9810 net.cpp:103] Top shape: 25 1024 1 1 (25600)
I0308 01:11:49.378397  9810 net.cpp:67] Creating Layer pool5/drop_7x7_s1
I0308 01:11:49.378401  9810 net.cpp:394] pool5/drop_7x7_s1 <- pool5/7x7_s1
I0308 01:11:49.378407  9810 net.cpp:345] pool5/drop_7x7_s1 -> pool5/7x7_s1 (in-place)
I0308 01:11:49.378412  9810 net.cpp:96] Setting up pool5/drop_7x7_s1
I0308 01:11:49.378417  9810 net.cpp:103] Top shape: 25 1024 1 1 (25600)
I0308 01:11:49.378424  9810 net.cpp:67] Creating Layer loss3/classifier
I0308 01:11:49.378428  9810 net.cpp:394] loss3/classifier <- pool5/7x7_s1
I0308 01:11:49.378437  9810 net.cpp:356] loss3/classifier -> loss3/classifier
I0308 01:11:49.378443  9810 net.cpp:96] Setting up loss3/classifier
I0308 01:11:49.379473  9810 net.cpp:103] Top shape: 25 121 1 1 (3025)
I0308 01:11:49.379494  9810 net.cpp:67] Creating Layer loss3/loss3
I0308 01:11:49.379500  9810 net.cpp:394] loss3/loss3 <- loss3/classifier
I0308 01:11:49.379506  9810 net.cpp:394] loss3/loss3 <- label_data_1_split_2
I0308 01:11:49.379514  9810 net.cpp:356] loss3/loss3 -> loss3/loss3
I0308 01:11:49.379521  9810 net.cpp:96] Setting up loss3/loss3
I0308 01:11:49.379535  9810 net.cpp:103] Top shape: 1 1 1 1 (1)
I0308 01:11:49.379540  9810 net.cpp:109]     with loss weight 1
I0308 01:11:49.379552  9810 net.cpp:170] loss3/loss3 needs backward computation.
I0308 01:11:49.379557  9810 net.cpp:170] loss3/classifier needs backward computation.
I0308 01:11:49.379561  9810 net.cpp:170] pool5/drop_7x7_s1 needs backward computation.
I0308 01:11:49.379565  9810 net.cpp:170] pool5/7x7_s1 needs backward computation.
…
I0308 01:11:49.383487  9810 solver.cpp:151] Creating test net (#0) specified by net file: caffe/256_scale_aug2/gnet/train.prototxt
I0308 01:11:49.383651  9810 net.cpp:275] The NetState phase (1) differed from the phase (0) specified by a rule in layer data
I0308 01:11:49.384639  9810 net.cpp:39] Initializing net from parameters: 
name: "GoogleNet"
layers {
  top: "data"
  top: "label"
  name: "data"
  type: DATA
  data_param {
    source: "data/256_scale_aug2/val_lmdb"
    batch_size: 50
    backend: LMDB
  }
  include {
    phase: TEST
  }
  transform_param {
    mirror: false
    crop_size: 224
    mean_file: "data/256_scale_aug2/val_mean.binaryproto"
  }
}
layers {
  bottom: "data"
  top: "conv1/7x7_s2"
  name: "conv1/7x7_s2"
  type: CONVOLUTION
  blobs_lr: 1
  blobs_lr: 2
  weight_decay: 1
  weight_decay: 0
  convolution_param {
    num_output: 64
    pad: 3
    kernel_size: 7
    stride: 2
    weight_filler {
      type: "xavier"
      std: 0.1
    }
    bias_filler {
      type: "constant"
      value: 0.2
    }
  }
}
layers {
  bottom: "conv1/7x7_s2"
  top: "conv1/7x7_s2"
  name: "conv1/relu_7x7"
  type: RELU
}
layers {
  bottom: "conv1/7x7_s2"
  top: "pool1/3x3_s2"
  name: "pool1/3x3_s2"
  type: POOLING
  pooling_param {
    pool: MAX
    kernel_size: 3
    stride: 2
  }
}
layers {
  bottom: "pool1/3x3_s2"
  top: "pool1/norm1"
  name: "pool1/norm1"
  type: LRN
  lrn_param {
    local_size: 5
    alpha: 0.0001
    beta: 0.75
  }
}
layers {
  bottom: "pool1/norm1"
  top: "conv2/3x3_reduce"
  name: "conv2/3x3_reduce"
  type: CONVOLUTION
  blobs_lr: 1
  blobs_lr: 2
  weight_decay: 1
  weight_decay: 0
  convolution_param {
    num_output: 64
    kernel_size: 1
    weight_filler {
      type: "xavier"
      std: 0.1
    }
    bias_filler {
      type: "constant"
      value: 0.2
    }
  }
}
layers {
  bottom: "conv2/3x3_reduce"
  top: "conv2/3x3_reduce"
  name: "conv2/relu_3x3_reduce"
  type: RELU
}
layers {
  bottom: "conv2/3x3_reduce"
  top: "conv2/3x3"
  name: "conv2/3x3"
  type: CONVOLUTION
  blobs_lr: 1
  blobs_lr: 2
  weight_decay: 1
  weight_decay: 0
  convolution_param {
    num_output: 192
    pad: 1
    kernel_size: 3
    weight_filler {
      type: "xavier"
      std: 0.03
    }
    bias_filler {
      type: "constant"
      value: 0.2
    }
  }
}
layers {
  bottom: "conv2/3x3"
  top: "conv2/3x3"
  name: "conv2/relu_3x3"
  type: RELU
}
layers {
  bottom: "conv2/3x3"
  top: "conv2/norm2"
  name: "conv2/norm2"
  type: LRN
  lrn_param {
    local_size: 5
    alpha: 0.0001
    beta: 0.75
  }
}
layers {
  bottom: "conv2/norm2"
  top: "pool2/3x3_s2"
  name: "pool2/3x3_s2"
  type: POOLING
  pooling_param {
    pool: MAX
    kernel_size: 3
    stride: 2
  }
}
layers {
  bottom: "pool2/3x3_s2"
  top: "inception_3a/1x1"
  name: "inception_3a/1x1"
  type: CONVOLUTION
  blobs_lr: 1
  blobs_lr: 2
  weight_decay: 1
  weight_decay: 0
  convolution_param {
    num_output: 64
    kernel_size: 1
    weight_filler {
      type: "xavier"
      std: 0.03
    }
    bias_filler {
      type: "constant"
      value: 0.2
    }
  }
}
layers {
  bottom: "inception_3a/1x1"
  top: "inception_3a/1x1"
  name: "inception_3a/relu_1x1"
  type: RELU
}
layers {
  bottom: "pool2/3x3_s2"
  top: "inception_3a/3x3_reduce"
  name: "inception_3a/3x3_reduce"
  type: CONVOLUTION
  blobs_lr: 1
  blobs_lr: 2
  weight_decay: 1
  weight_decay: 0
  convolution_param {
    num_output: 96
    kernel_size: 1
    weight_filler {
      type: "xavier"
      std: 0.09
    }
    bias_filler {
      type: "constant"
      value: 0.2
    }
  }
}
layers {
  bottom: "inception_3a/3x3_reduce"
  top: "inception_3a/3x3_reduce"
  name: "inception_3a/relu_3x3_reduce"
  type: RELU
}
layers {
  bottom: "inception_3a/3x3_reduce"
  top: "inception_3a/3x3"
  name: "inception_3a/3x3"
  type: CONVOLUTION
  blobs_lr: 1
  blobs_lr: 2
  weight_decay: 1
  weight_decay: 0
  convolution_param {
    num_output: 128
    pad: 1
    kernel_size: 3
    weight_filler {
      type: "xavier"
      std: 0.03
    }
    bias_filler {
      type: "constant"
      value: 0.2
    }
  }
}
layers {
  bottom: "inception_3a/3x3"
  top: "inception_3a/3x3"
  name: "inception_3a/relu_3x3"
  type: RELU
}
layers {
  bottom: "pool2/3x3_s2"
  top: "inception_3a/5x5_reduce"
  name: "inception_3a/5x5_reduce"
  type: CONVOLUTION
  blobs_lr: 1
  blobs_lr: 2
  weight_decay: 1
  weight_decay: 0
  convolution_param {
    num_output: 16
    kernel_size: 1
    weight_filler {
      type: "xavier"
      std: 0.2
    }
    bias_filler {
      type: "constant"
      value: 0.2
    }
  }
}
layers {
  bottom: "inception_3a/5x5_reduce"
  top: "inception_3a/5x5_reduce"
  name: "inception_3a/relu_5x5_reduce"
  type: RELU
}
layers {
  bottom: "inception_3a/5x5_reduce"
  top: "inception_3a/5x5"
  name: "inception_3a/5x5"
  type: CONVOLUTION
  blobs_lr: 1
  blobs_lr: 2
  weight_decay: 1
  weight_decay: 0
  convolution_param {
    num_output: 32
    pad: 2
    kernel_size: 5
    weight_filler {
      type: "xavier"
      std: 0.03
    }
    bias_filler {
      type: "constant"
      value: 0.2
    }
  }
}
layers {
  bottom: "inception_3a/5x5"
  top: "inception_3a/5x5"
  name: "inception_3a/relu_5x5"
  type: RELU
}
layers {
  bottom: "pool2/3x3_s2"
  top: "inception_3a/pool"
  name: "inception_3a/pool"
  type: POOLING
  pooling_param {
    pool: MAX
    kernel_size: 3
    stride: 1
    pad: 1
  }
}
layers {
  bottom: "inception_3a/pool"
  top: "inception_3a/pool_proj"
  name: "inception_3a/pool_proj"
  type: CONVOLUTION
  blobs_lr: 1
  blobs_lr: 2
  weight_decay: 1
  weight_decay: 0
  convolution_param {
    num_output: 32
    kernel_size: 1
    weight_filler {
      type: "xavier"
      std: 0.1
    }
    bias_filler {
      type: "constant"
      value: 0.2
    }
  }
}
layers {
  bottom: "inception_3a/pool_proj"
  top: "inception_3a/pool_proj"
  name: "inception_3a/relu_pool_proj"
  type: RELU
}
layers {
  bottom: "inception_3a/1x1"
  bottom: "inception_3a/3x3"
  bottom: "inception_3a/5x5"
  bottom: "inception_3a/pool_proj"
  top: "inception_3a/output"
  name: "inception_3a/output"
  type: CONCAT
}
layers {
  bottom: "inception_3a/output"
  top: "inception_3b/1x1"
  name: "inception_3b/1x1"
  type: CONVOLUTION
  blobs_lr: 1
  blobs_lr: 2
  weight_decay: 1
  weight_decay: 0
  convolution_param {
    num_output: 128
    kernel_size: 1
    weight_filler {
      type: "xavier"
      std: 0.03
    }
    bias_filler {
      type: "constant"
      value: 0.2
    }
  }
}
layers {
  bottom: "inception_3b/1x1"
  top: "inception_3b/1x1"
  name: "inception_3b/relu_1x1"
  type: RELU
}
layers {
  bottom: "inception_3a/output"
  top: "inception_3b/3x3_reduce"
  name: "inception_3b/3x3_reduce"
  type: CONVOLUTION
  blobs_lr: 1
  blobs_lr: 2
  weight_decay: 1
  weight_decay: 0
  convolution_param {
    num_output: 128
    kernel_size: 1
    weight_filler {
      type: "xavier"
      std: 0.09
    }
    bias_filler {
      type: "constant"
      value: 0.2
    }
  }
}
layers {
  bottom: "inception_3b/3x3_reduce"
  top: "inception_3b/3x3_reduce"
  name: "inception_3b/relu_3x3_reduce"
  type: RELU
}
layers {
  bottom: "inception_3b/3x3_reduce"
  top: "inception_3b/3x3"
  name: "inception_3b/3x3"
  type: CONVOLUTION
  blobs_lr: 1
  blobs_lr: 2
  weight_decay: 1
  weight_decay: 0
  convolution_param {
    num_output: 192
    pad: 1
    kernel_size: 3
    weight_filler {
      type: "xavier"
      std: 0.03
    }
    bias_filler {
      type: "constant"
      value: 0.2
    }
  }
}
layers {
  bottom: "inception_3b/3x3"
  top: "inception_3b/3x3"
  name: "inception_3b/relu_3x3"
  type: RELU
}
layers {
  bottom: "inception_3a/output"
  top: "inception_3b/5x5_reduce"
  name: "inception_3b/5x5_reduce"
  type: CONVOLUTION
  blobs_lr: 1
  blobs_lr: 2
  weight_decay: 1
  weight_decay: 0
  convolution_param {
    num_output: 32
    kernel_size: 1
    weight_filler {
      type: "xavier"
      std: 0.2
    }
    bias_filler {
      type: "constant"
      value: 0.2
    }
  }
}
layers {
  bottom: "inception_3b/5x5_reduce"
  top: "inception_3b/5x5_reduce"
  name: "inception_3b/relu_5x5_reduce"
  type: RELU
}
layers {
  bottom: "inception_3b/5x5_reduce"
  top: "inception_3b/5x5"
  name: "inception_3b/5x5"
  type: CONVOLUTION
  blobs_lr: 1
  blobs_lr: 2
  weight_decay: 1
  weight_decay: 0
  convolution_param {
    num_output: 96
    pad: 2
    kernel_size: 5
    weight_filler {
      type: "xavier"
      std: 0.03
    }
    bias_filler {
      type: "constant"
      value: 0.2
    }
  }
}
layers {
  bottom: "inception_3b/5x5"
  top: "inception_3b/5x5"
  name: "inception_3b/relu_5x5"
  type: RELU
}
layers {
  bottom: "inception_3a/output"
  top: "inception_3b/pool"
  name: "inception_3b/pool"
  type: POOLING
  pooling_param {
    pool: MAX
    kernel_size: 3
    stride: 1
    pad: 1
  }
}
layers {
  bottom: "inception_3b/pool"
  top: "inception_3b/pool_proj"
  name: "inception_3b/pool_proj"
  type: CONVOLUTION
  blobs_lr: 1
  blobs_lr: 2
  weight_decay: 1
  weight_decay: 0
  convolution_param {
    num_output: 64
    kernel_size: 1
    weight_filler {
      type: "xavier"
      std: 0.1
    }
    bias_filler {
      type: "constant"
      value: 0.2
    }
  }
}
layers {
  bottom: "inception_3b/pool_proj"
  top: "inception_3b/pool_proj"
  name: "inception_3b/relu_pool_proj"
  type: RELU
}
layers {
  bottom: "inception_3b/1x1"
  bottom: "inception_3b/3x3"
  bottom: "inception_3b/5x5"
  bottom: "inception_3b/pool_proj"
  top: "inception_3b/output"
  name: "inception_3b/output"
  type: CONCAT
}
layers {
  bottom: "inception_3b/output"
  top: "pool3/3x3_s2"
  name: "pool3/3x3_s2"
  type: POOLING
  pooling_param {
    pool: MAX
    kernel_size: 3
    stride: 2
  }
}
layers {
  bottom: "pool3/3x3_s2"
  top: "inception_4a/1x1"
  name: "inception_4a/1x1"
  type: CONVOLUTION
  blobs_lr: 1
  blobs_lr: 2
  weight_decay: 1
  weight_decay: 0
  convolution_param {
    num_output: 192
    kernel_size: 1
    weight_filler {
      type: "xavier"
      std: 0.03
    }
    bias_filler {
      type: "constant"
      value: 0.2
    }
  }
}
layers {
  bottom: "inception_4a/1x1"
  top: "inception_4a/1x1"
  name: "inception_4a/relu_1x1"
  type: RELU
}
layers {
  bottom: "pool3/3x3_s2"
  top: "inception_4a/3x3_reduce"
  name: "inception_4a/3x3_reduce"
  type: CONVOLUTION
  blobs_lr: 1
  blobs_lr: 2
  weight_decay: 1
  weight_decay: 0
  convolution_param {
    num_output: 96
    kernel_size: 1
    weight_filler {
      type: "xavier"
      std: 0.09
    }
    bias_filler {
      type: "constant"
      value: 0.2
    }
  }
}
layers {
  bottom: "inception_4a/3x3_reduce"
  top: "inception_4a/3x3_reduce"
  name: "inception_4a/relu_3x3_reduce"
  type: RELU
}
layers {
  bottom: "inception_4a/3x3_reduce"
  top: "inception_4a/3x3"
  name: "inception_4a/3x3"
  type: CONVOLUTION
  blobs_lr: 1
  blobs_lr: 2
  weight_decay: 1
  weight_decay: 0
  convolution_param {
    num_output: 208
    pad: 1
    kernel_size: 3
    weight_filler {
      type: "xavier"
      std: 0.03
    }
    bias_filler {
      type: "constant"
      value: 0.2
    }
  }
}
layers {
  bottom: "inception_4a/3x3"
  top: "inception_4a/3x3"
  name: "inception_4a/relu_3x3"
  type: RELU
}
layers {
  bottom: "pool3/3x3_s2"
  top: "inception_4a/5x5_reduce"
  name: "inception_4a/5x5_reduce"
  type: CONVOLUTION
  blobs_lr: 1
  blobs_lr: 2
  weight_decay: 1
  weight_decay: 0
  convolution_param {
    num_output: 16
    kernel_size: 1
    weight_filler {
      type: "xavier"
      std: 0.2
    }
    bias_filler {
      type: "constant"
      value: 0.2
    }
  }
}
layers {
  bottom: "inception_4a/5x5_reduce"
  top: "inception_4a/5x5_reduce"
  name: "inception_4a/relu_5x5_reduce"
  type: RELU
}
layers {
  bottom: "inception_4a/5x5_reduce"
  top: "inception_4a/5x5"
  name: "inception_4a/5x5"
  type: CONVOLUTION
  blobs_lr: 1
  blobs_lr: 2
  weight_decay: 1
  weight_decay: 0
  convolution_param {
    num_output: 48
    pad: 2
    kernel_size: 5
    weight_filler {
      type: "xavier"
      std: 0.03
    }
    bias_filler {
      type: "constant"
      value: 0.2
    }
  }
}
layers {
  bottom: "inception_4a/5x5"
  top: "inception_4a/5x5"
  name: "inception_4a/relu_5x5"
  type: RELU
}
layers {
  bottom: "pool3/3x3_s2"
  top: "inception_4a/pool"
  name: "inception_4a/pool"
  type: POOLING
  pooling_param {
    pool: MAX
    kernel_size: 3
    stride: 1
    pad: 1
  }
}
layers {
  bottom: "inception_4a/pool"
  top: "inception_4a/pool_proj"
  name: "inception_4a/pool_proj"
  type: CONVOLUTION
  blobs_lr: 1
  blobs_lr: 2
  weight_decay: 1
  weight_decay: 0
  convolution_param {
    num_output: 64
    kernel_size: 1
    weight_filler {
      type: "xavier"
      std: 0.1
    }
    bias_filler {
      type: "constant"
      value: 0.2
    }
  }
}
layers {
  bottom: "inception_4a/pool_proj"
  top: "inception_4a/pool_proj"
  name: "inception_4a/relu_pool_proj"
  type: RELU
}
layers {
  bottom: "inception_4a/1x1"
  bottom: "inception_4a/3x3"
  bottom: "inception_4a/5x5"
  bottom: "inception_4a/pool_proj"
  top: "inception_4a/output"
  name: "inception_4a/output"
  type: CONCAT
}
layers {
  bottom: "inception_4a/output"
  top: "loss1/ave_pool"
  name: "loss1/ave_pool"
  type: POOLING
  pooling_param {
    pool: AVE
    kernel_size: 5
    stride: 3
  }
}
layers {
  bottom: "loss1/ave_pool"
  top: "loss1/conv"
  name: "loss1/conv"
  type: CONVOLUTION
  blobs_lr: 1
  blobs_lr: 2
  weight_decay: 1
  weight_decay: 0
  convolution_param {
    num_output: 128
    kernel_size: 1
    weight_filler {
      type: "xavier"
      std: 0.08
    }
    bias_filler {
      type: "constant"
      value: 0.2
    }
  }
}
layers {
  bottom: "loss1/conv"
  top: "loss1/conv"
  name: "loss1/relu_conv"
  type: RELU
}
layers {
  bottom: "loss1/conv"
  top: "loss1/fc"
  name: "loss1/fc"
  type: INNER_PRODUCT
  blobs_lr: 1
  blobs_lr: 2
  weight_decay: 1
  weight_decay: 0
  inner_product_param {
    num_output: 1024
    weight_filler {
      type: "xavier"
      std: 0.02
    }
    bias_filler {
      type: "constant"
      value: 0.2
    }
  }
}
layers {
  bottom: "loss1/fc"
  top: "loss1/fc"
  name: "loss1/relu_fc"
  type: RELU
}
layers {
  bottom: "loss1/fc"
  top: "loss1/fc"
  name: "loss1/drop_fc"
  type: DROPOUT
  dropout_param {
    dropout_ratio: 0.7
  }
}
layers {
  bottom: "loss1/fc"
  top: "loss1/classifier"
  name: "loss1/classifier"
  type: INNER_PRODUCT
  blobs_lr: 1
  blobs_lr: 2
  weight_decay: 1
  weight_decay: 0
  inner_product_param {
    num_output: 121
    weight_filler {
      type: "xavier"
      std: 0.0009765625
    }
    bias_filler {
      type: "constant"
      value: 0
    }
  }
}
layers {
  bottom: "loss1/classifier"
  bottom: "label"
  top: "loss1/loss1"
  name: "loss1/loss"
  type: SOFTMAX_LOSS
  loss_weight: 0.3
}
layers {
  bottom: "loss1/classifier"
  bottom: "label"
  top: "loss1/top-1"
  name: "loss1/top-1"
  type: ACCURACY
  include {
    phase: TEST
  }
}
layers {
  bottom: "loss1/classifier"
  bottom: "label"
  top: "loss1/top-5"
  name: "loss1/top-5"
  type: ACCURACY
  accuracy_param {
    top_k: 5
  }
  include {
    phase: TEST
  }
}
layers {
  bottom: "inception_4a/output"
  top: "inception_4b/1x1"
  name: "inception_4b/1x1"
  type: CONVOLUTION
  blobs_lr: 1
  blobs_lr: 2
  weight_decay: 1
  weight_decay: 0
  convolution_param {
    num_output: 160
    kernel_size: 1
    weight_filler {
      type: "xavier"
      std: 0.03
    }
    bias_filler {
      type: "constant"
      value: 0.2
    }
  }
}
layers {
  bottom: "inception_4b/1x1"
  top: "inception_4b/1x1"
  name: "inception_4b/relu_1x1"
  type: RELU
}
layers {
  bottom: "inception_4a/output"
  top: "inception_4b/3x3_reduce"
  name: "inception_4b/3x3_reduce"
  type: CONVOLUTION
  blobs_lr: 1
  blobs_lr: 2
  weight_decay: 1
  weight_decay: 0
  convolution_param {
    num_output: 112
    kernel_size: 1
    weight_filler {
      type: "xavier"
      std: 0.09
    }
    bias_filler {
      type: "constant"
      value: 0.2
    }
  }
}
layers {
  bottom: "inception_4b/3x3_reduce"
  top: "inception_4b/3x3_reduce"
  name: "inception_4b/relu_3x3_reduce"
  type: RELU
}
layers {
  bottom: "inception_4b/3x3_reduce"
  top: "inception_4b/3x3"
  name: "inception_4b/3x3"
  type: CONVOLUTION
  blobs_lr: 1
  blobs_lr: 2
  weight_decay: 1
  weight_decay: 0
  convolution_param {
    num_output: 224
    pad: 1
    kernel_size: 3
    weight_filler {
      type: "xavier"
      std: 0.03
    }
    bias_filler {
      type: "constant"
      value: 0.2
    }
  }
}
layers {
  bottom: "inception_4b/3x3"
  top: "inception_4b/3x3"
  name: "inception_4b/relu_3x3"
  type: RELU
}
layers {
  bottom: "inception_4a/output"
  top: "inception_4b/5x5_reduce"
  name: "inception_4b/5x5_reduce"
  type: CONVOLUTION
  blobs_lr: 1
  blobs_lr: 2
  weight_decay: 1
  weight_decay: 0
  convolution_param {
    num_output: 24
    kernel_size: 1
    weight_filler {
      type: "xavier"
      std: 0.2
    }
    bias_filler {
      type: "constant"
      value: 0.2
    }
  }
}
layers {
  bottom: "inception_4b/5x5_reduce"
  top: "inception_4b/5x5_reduce"
  name: "inception_4b/relu_5x5_reduce"
  type: RELU
}
layers {
  bottom: "inception_4b/5x5_reduce"
  top: "inception_4b/5x5"
  name: "inception_4b/5x5"
  type: CONVOLUTION
  blobs_lr: 1
  blobs_lr: 2
  weight_decay: 1
  weight_decay: 0
  convolution_param {
    num_output: 64
    pad: 2
    kernel_size: 5
    weight_filler {
      type: "xavier"
      std: 0.03
    }
    bias_filler {
      type: "constant"
      value: 0.2
    }
  }
}
layers {
  bottom: "inception_4b/5x5"
  top: "inception_4b/5x5"
  name: "inception_4b/relu_5x5"
  type: RELU
}
layers {
  bottom: "inception_4a/output"
  top: "inception_4b/pool"
  name: "inception_4b/pool"
  type: POOLING
  pooling_param {
    pool: MAX
    kernel_size: 3
    stride: 1
    pad: 1
  }
}
layers {
  bottom: "inception_4b/pool"
  top: "inception_4b/pool_proj"
  name: "inception_4b/pool_proj"
  type: CONVOLUTION
  blobs_lr: 1
  blobs_lr: 2
  weight_decay: 1
  weight_decay: 0
  convolution_param {
    num_output: 64
    kernel_size: 1
    weight_filler {
      type: "xavier"
      std: 0.1
    }
    bias_filler {
      type: "constant"
      value: 0.2
    }
  }
}
layers {
  bottom: "inception_4b/pool_proj"
  top: "inception_4b/pool_proj"
  name: "inception_4b/relu_pool_proj"
  type: RELU
}
layers {
  bottom: "inception_4b/1x1"
  bottom: "inception_4b/3x3"
  bottom: "inception_4b/5x5"
  bottom: "inception_4b/pool_proj"
  top: "inception_4b/output"
  name: "inception_4b/output"
  type: CONCAT
}
layers {
  bottom: "inception_4b/output"
  top: "inception_4c/1x1"
  name: "inception_4c/1x1"
  type: CONVOLUTION
  blobs_lr: 1
  blobs_lr: 2
  weight_decay: 1
  weight_decay: 0
  convolution_param {
    num_output: 128
    kernel_size: 1
    weight_filler {
      type: "xavier"
      std: 0.03
    }
    bias_filler {
      type: "constant"
      value: 0.2
    }
  }
}
layers {
  bottom: "inception_4c/1x1"
  top: "inception_4c/1x1"
  name: "inception_4c/relu_1x1"
  type: RELU
}
layers {
  bottom: "inception_4b/output"
  top: "inception_4c/3x3_reduce"
  name: "inception_4c/3x3_reduce"
  type: CONVOLUTION
  blobs_lr: 1
  blobs_lr: 2
  weight_decay: 1
  weight_decay: 0
  convolution_param {
    num_output: 128
    kernel_size: 1
    weight_filler {
      type: "xavier"
      std: 0.09
    }
    bias_filler {
      type: "constant"
      value: 0.2
    }
  }
}
layers {
  bottom: "inception_4c/3x3_reduce"
  top: "inception_4c/3x3_reduce"
  name: "inception_4c/relu_3x3_reduce"
  type: RELU
}
layers {
  bottom: "inception_4c/3x3_reduce"
  top: "inception_4c/3x3"
  name: "inception_4c/3x3"
  type: CONVOLUTION
  blobs_lr: 1
  blobs_lr: 2
  weight_decay: 1
  weight_decay: 0
  convolution_param {
    num_output: 256
    pad: 1
    kernel_size: 3
    weight_filler {
      type: "xavier"
      std: 0.03
    }
    bias_filler {
      type: "constant"
      value: 0.2
    }
  }
}
layers {
  bottom: "inception_4c/3x3"
  top: "inception_4c/3x3"
  name: "inception_4c/relu_3x3"
  type: RELU
}
layers {
  bottom: "inception_4b/output"
  top: "inception_4c/5x5_reduce"
  name: "inception_4c/5x5_reduce"
  type: CONVOLUTION
  blobs_lr: 1
  blobs_lr: 2
  weight_decay: 1
  weight_decay: 0
  convolution_param {
    num_output: 24
    kernel_size: 1
    weight_filler {
      type: "xavier"
      std: 0.2
    }
    bias_filler {
      type: "constant"
      value: 0.2
    }
  }
}
layers {
  bottom: "inception_4c/5x5_reduce"
  top: "inception_4c/5x5_reduce"
  name: "inception_4c/relu_5x5_reduce"
  type: RELU
}
layers {
  bottom: "inception_4c/5x5_reduce"
  top: "inception_4c/5x5"
  name: "inception_4c/5x5"
  type: CONVOLUTION
  blobs_lr: 1
  blobs_lr: 2
  weight_decay: 1
  weight_decay: 0
  convolution_param {
    num_output: 64
    pad: 2
    kernel_size: 5
    weight_filler {
      type: "xavier"
      std: 0.03
    }
    bias_filler {
      type: "constant"
      value: 0.2
    }
  }
}
layers {
  bottom: "inception_4c/5x5"
  top: "inception_4c/5x5"
  name: "inception_4c/relu_5x5"
  type: RELU
}
layers {
  bottom: "inception_4b/output"
  top: "inception_4c/pool"
  name: "inception_4c/pool"
  type: POOLING
  pooling_param {
    pool: MAX
    kernel_size: 3
    stride: 1
    pad: 1
  }
}
layers {
  bottom: "inception_4c/pool"
  top: "inception_4c/pool_proj"
  name: "inception_4c/pool_proj"
  type: CONVOLUTION
  blobs_lr: 1
  blobs_lr: 2
  weight_decay: 1
  weight_decay: 0
  convolution_param {
    num_output: 64
    kernel_size: 1
    weight_filler {
      type: "xavier"
      std: 0.1
    }
    bias_filler {
      type: "constant"
      value: 0.2
    }
  }
}
layers {
  bottom: "inception_4c/pool_proj"
  top: "inception_4c/pool_proj"
  name: "inception_4c/relu_pool_proj"
  type: RELU
}
layers {
  bottom: "inception_4c/1x1"
  bottom: "inception_4c/3x3"
  bottom: "inception_4c/5x5"
  bottom: "inception_4c/pool_proj"
  top: "inception_4c/output"
  name: "inception_4c/output"
  type: CONCAT
}
layers {
  bottom: "inception_4c/output"
  top: "inception_4d/1x1"
  name: "inception_4d/1x1"
  type: CONVOLUTION
  blobs_lr: 1
  blobs_lr: 2
  weight_decay: 1
  weight_decay: 0
  convolution_param {
    num_output: 112
    kernel_size: 1
    weight_filler {
      type: "xavier"
      std: 0.03
    }
    bias_filler {
      type: "constant"
      value: 0.2
    }
  }
}
layers {
  bottom: "inception_4d/1x1"
  top: "inception_4d/1x1"
  name: "inception_4d/relu_1x1"
  type: RELU
}
layers {
  bottom: "inception_4c/output"
  top: "inception_4d/3x3_reduce"
  name: "inception_4d/3x3_reduce"
  type: CONVOLUTION
  blobs_lr: 1
  blobs_lr: 2
  weight_decay: 1
  weight_decay: 0
  convolution_param {
    num_output: 144
    kernel_size: 1
    weight_filler {
      type: "xavier"
      std: 0.09
    }
    bias_filler {
      type: "constant"
      value: 0.2
    }
  }
}
layers {
  bottom: "inception_4d/3x3_reduce"
  top: "inception_4d/3x3_reduce"
  name: "inception_4d/relu_3x3_reduce"
  type: RELU
}
layers {
  bottom: "inception_4d/3x3_reduce"
  top: "inception_4d/3x3"
  name: "inception_4d/3x3"
  type: CONVOLUTION
  blobs_lr: 1
  blobs_lr: 2
  weight_decay: 1
  weight_decay: 0
  convolution_param {
    num_output: 288
    pad: 1
    kernel_size: 3
    weight_filler {
      type: "xavier"
      std: 0.03
    }
    bias_filler {
      type: "constant"
      value: 0.2
    }
  }
}
layers {
  bottom: "inception_4d/3x3"
  top: "inception_4d/3x3"
  name: "inception_4d/relu_3x3"
  type: RELU
}
layers {
  bottom: "inception_4c/output"
  top: "inception_4d/5x5_reduce"
  name: "inception_4d/5x5_reduce"
  type: CONVOLUTION
  blobs_lr: 1
  blobs_lr: 2
  weight_decay: 1
  weight_decay: 0
  convolution_param {
    num_output: 32
    kernel_size: 1
    weight_filler {
      type: "xavier"
      std: 0.2
    }
    bias_filler {
      type: "constant"
      value: 0.2
    }
  }
}
layers {
  bottom: "inception_4d/5x5_reduce"
  top: "inception_4d/5x5_reduce"
  name: "inception_4d/relu_5x5_reduce"
  type: RELU
}
layers {
  bottom: "inception_4d/5x5_reduce"
  top: "inception_4d/5x5"
  name: "inception_4d/5x5"
  type: CONVOLUTION
  blobs_lr: 1
  blobs_lr: 2
  weight_decay: 1
  weight_decay: 0
  convolution_param {
    num_output: 64
    pad: 2
    kernel_size: 5
    weight_filler {
      type: "xavier"
      std: 0.03
    }
    bias_filler {
      type: "constant"
      value: 0.2
    }
  }
}
layers {
  bottom: "inception_4d/5x5"
  top: "inception_4d/5x5"
  name: "inception_4d/relu_5x5"
  type: RELU
}
layers {
  bottom: "inception_4c/output"
  top: "inception_4d/pool"
  name: "inception_4d/pool"
  type: POOLING
  pooling_param {
    pool: MAX
    kernel_size: 3
    stride: 1
    pad: 1
  }
}
layers {
  bottom: "inception_4d/pool"
  top: "inception_4d/pool_proj"
  name: "inception_4d/pool_proj"
  type: CONVOLUTION
  blobs_lr: 1
  blobs_lr: 2
  weight_decay: 1
  weight_decay: 0
  convolution_param {
    num_output: 64
    kernel_size: 1
    weight_filler {
      type: "xavier"
      std: 0.1
    }
    bias_filler {
      type: "constant"
      value: 0.2
    }
  }
}
layers {
  bottom: "inception_4d/pool_proj"
  top: "inception_4d/pool_proj"
  name: "inception_4d/relu_pool_proj"
  type: RELU
}
layers {
  bottom: "inception_4d/1x1"
  bottom: "inception_4d/3x3"
  bottom: "inception_4d/5x5"
  bottom: "inception_4d/pool_proj"
  top: "inception_4d/output"
  name: "inception_4d/output"
  type: CONCAT
}
layers {
  bottom: "inception_4d/output"
  top: "loss2/ave_pool"
  name: "loss2/ave_pool"
  type: POOLING
  pooling_param {
    pool: AVE
    kernel_size: 5
    stride: 3
  }
}
layers {
  bottom: "loss2/ave_pool"
  top: "loss2/conv"
  name: "loss2/conv"
  type: CONVOLUTION
  blobs_lr: 1
  blobs_lr: 2
  weight_decay: 1
  weight_decay: 0
  convolution_param {
    num_output: 128
    kernel_size: 1
    weight_filler {
      type: "xavier"
      std: 0.08
    }
    bias_filler {
      type: "constant"
      value: 0.2
    }
  }
}
layers {
  bottom: "loss2/conv"
  top: "loss2/conv"
  name: "loss2/relu_conv"
  type: RELU
}
layers {
  bottom: "loss2/conv"
  top: "loss2/fc"
  name: "loss2/fc"
  type: INNER_PRODUCT
  blobs_lr: 1
  blobs_lr: 2
  weight_decay: 1
  weight_decay: 0
  inner_product_param {
    num_output: 1024
    weight_filler {
      type: "xavier"
      std: 0.02
    }
    bias_filler {
      type: "constant"
      value: 0.2
    }
  }
}
layers {
  bottom: "loss2/fc"
  top: "loss2/fc"
  name: "loss2/relu_fc"
  type: RELU
}
layers {
  bottom: "loss2/fc"
  top: "loss2/fc"
  name: "loss2/drop_fc"
  type: DROPOUT
  dropout_param {
    dropout_ratio: 0.7
  }
}
layers {
  bottom: "loss2/fc"
  top: "loss2/classifier"
  name: "loss2/classifier"
  type: INNER_PRODUCT
  blobs_lr: 1
  blobs_lr: 2
  weight_decay: 1
  weight_decay: 0
  inner_product_param {
    num_output: 121
    weight_filler {
      type: "xavier"
      std: 0.0009765625
    }
    bias_filler {
      type: "constant"
      value: 0
    }
  }
}
layers {
  bottom: "loss2/classifier"
  bottom: "label"
  top: "loss2/loss1"
  name: "loss2/loss"
  type: SOFTMAX_LOSS
  loss_weight: 0.3
}
layers {
  bottom: "loss2/classifier"
  bottom: "label"
  top: "loss2/top-1"
  name: "loss2/top-1"
  type: ACCURACY
  include {
    phase: TEST
  }
}
layers {
  bottom: "loss2/classifier"
  bottom: "label"
  top: "loss2/top-5"
  name: "loss2/top-5"
  type: ACCURACY
  accuracy_param {
    top_k: 5
  }
  include {
    phase: TEST
  }
}
layers {
  bottom: "inception_4d/output"
  top: "inception_4e/1x1"
  name: "inception_4e/1x1"
  type: CONVOLUTION
  blobs_lr: 1
  blobs_lr: 2
  weight_decay: 1
  weight_decay: 0
  convolution_param {
    num_output: 256
    kernel_size: 1
    weight_filler {
      type: "xavier"
      std: 0.03
    }
    bias_filler {
      type: "constant"
      value: 0.2
    }
  }
}
layers {
  bottom: "inception_4e/1x1"
  top: "inception_4e/1x1"
  name: "inception_4e/relu_1x1"
  type: RELU
}
layers {
  bottom: "inception_4d/output"
  top: "inception_4e/3x3_reduce"
  name: "inception_4e/3x3_reduce"
  type: CONVOLUTION
  blobs_lr: 1
  blobs_lr: 2
  weight_decay: 1
  weight_decay: 0
  convolution_param {
    num_output: 160
    kernel_size: 1
    weight_filler {
      type: "xavier"
      std: 0.09
    }
    bias_filler {
      type: "constant"
      value: 0.2
    }
  }
}
layers {
  bottom: "inception_4e/3x3_reduce"
  top: "inception_4e/3x3_reduce"
  name: "inception_4e/relu_3x3_reduce"
  type: RELU
}
layers {
  bottom: "inception_4e/3x3_reduce"
  top: "inception_4e/3x3"
  name: "inception_4e/3x3"
  type: CONVOLUTION
  blobs_lr: 1
  blobs_lr: 2
  weight_decay: 1
  weight_decay: 0
  convolution_param {
    num_output: 320
    pad: 1
    kernel_size: 3
    weight_filler {
      type: "xavier"
      std: 0.03
    }
    bias_filler {
      type: "constant"
      value: 0.2
    }
  }
}
layers {
  bottom: "inception_4e/3x3"
  top: "inception_4e/3x3"
  name: "inception_4e/relu_3x3"
  type: RELU
}
layers {
  bottom: "inception_4d/output"
  top: "inception_4e/5x5_reduce"
  name: "inception_4e/5x5_reduce"
  type: CONVOLUTION
  blobs_lr: 1
  blobs_lr: 2
  weight_decay: 1
  weight_decay: 0
  convolution_param {
    num_output: 32
    kernel_size: 1
    weight_filler {
      type: "xavier"
      std: 0.2
    }
    bias_filler {
      type: "constant"
      value: 0.2
    }
  }
}
layers {
  bottom: "inception_4e/5x5_reduce"
  top: "inception_4e/5x5_reduce"
  name: "inception_4e/relu_5x5_reduce"
  type: RELU
}
layers {
  bottom: "inception_4e/5x5_reduce"
  top: "inception_4e/5x5"
  name: "inception_4e/5x5"
  type: CONVOLUTION
  blobs_lr: 1
  blobs_lr: 2
  weight_decay: 1
  weight_decay: 0
  convolution_param {
    num_output: 128
    pad: 2
    kernel_size: 5
    weight_filler {
      type: "xavier"
      std: 0.03
    }
    bias_filler {
      type: "constant"
      value: 0.2
    }
  }
}
layers {
  bottom: "inception_4e/5x5"
  top: "inception_4e/5x5"
  name: "inception_4e/relu_5x5"
  type: RELU
}
layers {
  bottom: "inception_4d/output"
  top: "inception_4e/pool"
  name: "inception_4e/pool"
  type: POOLING
  pooling_param {
    pool: MAX
    kernel_size: 3
    stride: 1
    pad: 1
  }
}
layers {
  bottom: "inception_4e/pool"
  top: "inception_4e/pool_proj"
  name: "inception_4e/pool_proj"
  type: CONVOLUTION
  blobs_lr: 1
  blobs_lr: 2
  weight_decay: 1
  w
I0308 01:11:49.385344  9810 net.cpp:67] Creating Layer data
I0308 01:11:49.385355  9810 net.cpp:356] data -> data
I0308 01:11:49.385365  9810 net.cpp:356] data -> label
I0308 01:11:49.385372  9810 net.cpp:96] Setting up data
I0308 01:11:49.385421  9810 data_layer.cpp:68] Opening lmdb data/256_scale_aug2/val_lmdb
I0308 01:11:49.385488  9810 data_layer.cpp:128] output data size: 50,1,224,224
I0308 01:11:49.385494  9810 base_data_layer.cpp:36] Loading mean file fromdata/256_scale_aug2/val_mean.binaryproto
I0308 01:11:49.388746  9810 net.cpp:103] Top shape: 50 1 224 224 (2508800)
I0308 01:11:49.388758  9810 net.cpp:103] Top shape: 50 1 1 1 (50)
I0308 01:11:49.388768  9810 net.cpp:67] Creating Layer label_data_1_split
I0308 01:11:49.388789  9810 net.cpp:394] label_data_1_split <- label
I0308 01:11:49.388797  9810 net.cpp:356] label_data_1_split -> label_data_1_split_0
I0308 01:11:49.388806  9810 net.cpp:356] label_data_1_split -> label_data_1_split_1
I0308 01:11:49.388815  9810 net.cpp:356] label_data_1_split -> label_data_1_split_2
I0308 01:11:49.388828  9810 net.cpp:356] label_data_1_split -> label_data_1_split_3
I0308 01:11:49.388839  9810 net.cpp:356] label_data_1_split -> label_data_1_split_4
I0308 01:11:49.388850  9810 net.cpp:356] label_data_1_split -> label_data_1_split_5
I0308 01:11:49.388857  9810 net.cpp:356] label_data_1_split -> label_data_1_split_6
I0308 01:11:49.388864  9810 net.cpp:356] label_data_1_split -> label_data_1_split_7
I0308 01:11:49.388871  9810 net.cpp:356] label_data_1_split -> label_data_1_split_8
I0308 01:11:49.388877  9810 net.cpp:96] Setting up label_data_1_split
I0308 01:11:49.388885  9810 net.cpp:103] Top shape: 50 1 1 1 (50)
I0308 01:11:49.388888  9810 net.cpp:103] Top shape: 50 1 1 1 (50)
I0308 01:11:49.388892  9810 net.cpp:103] Top shape: 50 1 1 1 (50)
I0308 01:11:49.388896  9810 net.cpp:103] Top shape: 50 1 1 1 (50)
I0308 01:11:49.388900  9810 net.cpp:103] Top shape: 50 1 1 1 (50)
I0308 01:11:49.388905  9810 net.cpp:103] Top shape: 50 1 1 1 (50)
I0308 01:11:49.388908  9810 net.cpp:103] Top shape: 50 1 1 1 (50)
I0308 01:11:49.388912  9810 net.cpp:103] Top shape: 50 1 1 1 (50)
I0308 01:11:49.388916  9810 net.cpp:103] Top shape: 50 1 1 1 (50)
I0308 01:11:49.388923  9810 net.cpp:67] Creating Layer conv1/7x7_s2
I0308 01:11:49.388927  9810 net.cpp:394] conv1/7x7_s2 <- data
I0308 01:11:49.388934  9810 net.cpp:356] conv1/7x7_s2 -> conv1/7x7_s2
I0308 01:11:49.388942  9810 net.cpp:96] Setting up conv1/7x7_s2
I0308 01:11:49.389034  9810 net.cpp:103] Top shape: 50 64 112 112 (40140800)
I0308 01:11:49.389050  9810 net.cpp:67] Creating Layer conv1/relu_7x7
I0308 01:11:49.389055  9810 net.cpp:394] conv1/relu_7x7 <- conv1/7x7_s2
I0308 01:11:49.389060  9810 net.cpp:345] conv1/relu_7x7 -> conv1/7x7_s2 (in-place)
I0308 01:11:49.389067  9810 net.cpp:96] Setting up conv1/relu_7x7
I0308 01:11:49.389073  9810 net.cpp:103] Top shape: 50 64 112 112 (40140800)
I0308 01:11:49.389081  9810 net.cpp:67] Creating Layer pool1/3x3_s2
I0308 01:11:49.389085  9810 net.cpp:394] pool1/3x3_s2 <- conv1/7x7_s2
I0308 01:11:49.389092  9810 net.cpp:356] pool1/3x3_s2 -> pool1/3x3_s2
I0308 01:11:49.389098  9810 net.cpp:96] Setting up pool1/3x3_s2
I0308 01:11:49.389106  9810 net.cpp:103] Top shape: 50 64 56 56 (10035200)
I0308 01:11:49.389113  9810 net.cpp:67] Creating Layer pool1/norm1
I0308 01:11:49.389117  9810 net.cpp:394] pool1/norm1 <- pool1/3x3_s2
I0308 01:11:49.389122  9810 net.cpp:356] pool1/norm1 -> pool1/norm1
I0308 01:11:49.389128  9810 net.cpp:96] Setting up pool1/norm1
I0308 01:11:49.389133  9810 net.cpp:103] Top shape: 50 64 56 56 (10035200)
I0308 01:11:49.389139  9810 net.cpp:67] Creating Layer conv2/3x3_reduce
I0308 01:11:49.389143  9810 net.cpp:394] conv2/3x3_reduce <- pool1/norm1
I0308 01:11:49.389149  9810 net.cpp:356] conv2/3x3_reduce -> conv2/3x3_reduce
I0308 01:11:49.389156  9810 net.cpp:96] Setting up conv2/3x3_reduce
I0308 01:11:49.389328  9810 net.cpp:103] Top shape: 50 64 56 56 (10035200)
I0308 01:11:49.389343  9810 net.cpp:67] Creating Layer conv2/relu_3x3_reduce
I0308 01:11:49.389349  9810 net.cpp:394] conv2/relu_3x3_reduce <- conv2/3x3_reduce
I0308 01:11:49.389355  9810 net.cpp:345] conv2/relu_3x3_reduce -> conv2/3x3_reduce (in-place)
I0308 01:11:49.389361  9810 net.cpp:96] Setting up conv2/relu_3x3_reduce
I0308 01:11:49.389369  9810 net.cpp:103] Top shape: 50 64 56 56 (10035200)
I0308 01:11:49.389376  9810 net.cpp:67] Creating Layer conv2/3x3
I0308 01:11:49.389380  9810 net.cpp:394] conv2/3x3 <- conv2/3x3_reduce
I0308 01:11:49.389386  9810 net.cpp:356] conv2/3x3 -> conv2/3x3
I0308 01:11:49.389394  9810 net.cpp:96] Setting up conv2/3x3
I0308 01:11:49.390375  9810 net.cpp:103] Top shape: 50 192 56 56 (30105600)
I0308 01:11:49.390391  9810 net.cpp:67] Creating Layer conv2/relu_3x3
I0308 01:11:49.390409  9810 net.cpp:394] conv2/relu_3x3 <- conv2/3x3
I0308 01:11:49.390416  9810 net.cpp:345] conv2/relu_3x3 -> conv2/3x3 (in-place)
I0308 01:11:49.390424  9810 net.cpp:96] Setting up conv2/relu_3x3
I0308 01:11:49.390430  9810 net.cpp:103] Top shape: 50 192 56 56 (30105600)
I0308 01:11:49.390436  9810 net.cpp:67] Creating Layer conv2/norm2
I0308 01:11:49.390440  9810 net.cpp:394] conv2/norm2 <- conv2/3x3
I0308 01:11:49.390446  9810 net.cpp:356] conv2/norm2 -> conv2/norm2
I0308 01:11:49.390454  9810 net.cpp:96] Setting up conv2/norm2
I0308 01:11:49.390458  9810 net.cpp:103] Top shape: 50 192 56 56 (30105600)
I0308 01:11:49.390463  9810 net.cpp:67] Creating Layer pool2/3x3_s2
I0308 01:11:49.390468  9810 net.cpp:394] pool2/3x3_s2 <- conv2/norm2
I0308 01:11:49.390473  9810 net.cpp:356] pool2/3x3_s2 -> pool2/3x3_s2
I0308 01:11:49.390480  9810 net.cpp:96] Setting up pool2/3x3_s2
I0308 01:11:49.390486  9810 net.cpp:103] Top shape: 50 192 28 28 (7526400)
I0308 01:11:49.390492  9810 net.cpp:67] Creating Layer pool2/3x3_s2_pool2/3x3_s2_0_split
I0308 01:11:49.390496  9810 net.cpp:394] pool2/3x3_s2_pool2/3x3_s2_0_split <- pool2/3x3_s2
I0308 01:11:49.390501  9810 net.cpp:356] pool2/3x3_s2_pool2/3x3_s2_0_split -> pool2/3x3_s2_pool2/3x3_s2_0_split_0
I0308 01:11:49.390508  9810 net.cpp:356] pool2/3x3_s2_pool2/3x3_s2_0_split -> pool2/3x3_s2_pool2/3x3_s2_0_split_1
I0308 01:11:49.390516  9810 net.cpp:356] pool2/3x3_s2_pool2/3x3_s2_0_split -> pool2/3x3_s2_pool2/3x3_s2_0_split_2
I0308 01:11:49.390522  9810 net.cpp:356] pool2/3x3_s2_pool2/3x3_s2_0_split -> pool2/3x3_s2_pool2/3x3_s2_0_split_3
I0308 01:11:49.390527  9810 net.cpp:96] Setting up pool2/3x3_s2_pool2/3x3_s2_0_split
I0308 01:11:49.390532  9810 net.cpp:103] Top shape: 50 192 28 28 (7526400)
I0308 01:11:49.390537  9810 net.cpp:103] Top shape: 50 192 28 28 (7526400)
I0308 01:11:49.390540  9810 net.cpp:103] Top shape: 50 192 28 28 (7526400)
I0308 01:11:49.390544  9810 net.cpp:103] Top shape: 50 192 28 28 (7526400)
I0308 01:11:49.390549  9810 net.cpp:67] Creating Layer inception_3a/1x1
I0308 01:11:49.390554  9810 net.cpp:394] inception_3a/1x1 <- pool2/3x3_s2_pool2/3x3_s2_0_split_0
I0308 01:11:49.390560  9810 net.cpp:356] inception_3a/1x1 -> inception_3a/1x1
I0308 01:11:49.390566  9810 net.cpp:96] Setting up inception_3a/1x1
I0308 01:11:49.390699  9810 net.cpp:103] Top shape: 50 64 28 28 (2508800)
I0308 01:11:49.390712  9810 net.cpp:67] Creating Layer inception_3a/relu_1x1
I0308 01:11:49.390715  9810 net.cpp:394] inception_3a/relu_1x1 <- inception_3a/1x1
I0308 01:11:49.390722  9810 net.cpp:345] inception_3a/relu_1x1 -> inception_3a/1x1 (in-place)
I0308 01:11:49.390728  9810 net.cpp:96] Setting up inception_3a/relu_1x1
I0308 01:11:49.390734  9810 net.cpp:103] Top shape: 50 64 28 28 (2508800)
I0308 01:11:49.390740  9810 net.cpp:67] Creating Layer inception_3a/3x3_reduce
I0308 01:11:49.390745  9810 net.cpp:394] inception_3a/3x3_reduce <- pool2/3x3_s2_pool2/3x3_s2_0_split_1
I0308 01:11:49.390751  9810 net.cpp:356] inception_3a/3x3_reduce -> inception_3a/3x3_reduce
I0308 01:11:49.390758  9810 net.cpp:96] Setting up inception_3a/3x3_reduce
I0308 01:11:49.390930  9810 net.cpp:103] Top shape: 50 96 28 28 (3763200)
I0308 01:11:49.390945  9810 net.cpp:67] Creating Layer inception_3a/relu_3x3_reduce
I0308 01:11:49.390950  9810 net.cpp:394] inception_3a/relu_3x3_reduce <- inception_3a/3x3_reduce
I0308 01:11:49.390956  9810 net.cpp:345] inception_3a/relu_3x3_reduce -> inception_3a/3x3_reduce (in-place)
I0308 01:11:49.390964  9810 net.cpp:96] Setting up inception_3a/relu_3x3_reduce
I0308 01:11:49.390969  9810 net.cpp:103] Top shape: 50 96 28 28 (3763200)
I0308 01:11:49.390975  9810 net.cpp:67] Creating Layer inception_3a/3x3
I0308 01:11:49.390980  9810 net.cpp:394] inception_3a/3x3 <- inception_3a/3x3_reduce
I0308 01:11:49.390986  9810 net.cpp:356] inception_3a/3x3 -> inception_3a/3x3
I0308 01:11:49.390992  9810 net.cpp:96] Setting up inception_3a/3x3
I0308 01:11:49.391947  9810 net.cpp:103] Top shape: 50 128 28 28 (5017600)
I0308 01:11:49.391968  9810 net.cpp:67] Creating Layer inception_3a/relu_3x3
I0308 01:11:49.391986  9810 net.cpp:394] inception_3a/relu_3x3 <- inception_3a/3x3
I0308 01:11:49.391993  9810 net.cpp:345] inception_3a/relu_3x3 -> inception_3a/3x3 (in-place)
I0308 01:11:49.392000  9810 net.cpp:96] Setting up inception_3a/relu_3x3
I0308 01:11:49.392007  9810 net.cpp:103] Top shape: 50 128 28 28 (5017600)
I0308 01:11:49.392014  9810 net.cpp:67] Creating Layer inception_3a/5x5_reduce
I0308 01:11:49.392019  9810 net.cpp:394] inception_3a/5x5_reduce <- pool2/3x3_s2_pool2/3x3_s2_0_split_2
I0308 01:11:49.392025  9810 net.cpp:356] inception_3a/5x5_reduce -> inception_3a/5x5_reduce
I0308 01:11:49.392032  9810 net.cpp:96] Setting up inception_3a/5x5_reduce
I0308 01:11:49.392177  9810 net.cpp:103] Top shape: 50 16 28 28 (627200)
I0308 01:11:49.392199  9810 net.cpp:67] Creating Layer inception_3a/relu_5x5_reduce
I0308 01:11:49.392204  9810 net.cpp:394] inception_3a/relu_5x5_reduce <- inception_3a/5x5_reduce
I0308 01:11:49.392210  9810 net.cpp:345] inception_3a/relu_5x5_reduce -> inception_3a/5x5_reduce (in-place)
I0308 01:11:49.392216  9810 net.cpp:96] Setting up inception_3a/relu_5x5_reduce
I0308 01:11:49.392223  9810 net.cpp:103] Top shape: 50 16 28 28 (627200)
I0308 01:11:49.392230  9810 net.cpp:67] Creating Layer inception_3a/5x5
I0308 01:11:49.392235  9810 net.cpp:394] inception_3a/5x5 <- inception_3a/5x5_reduce
I0308 01:11:49.392242  9810 net.cpp:356] inception_3a/5x5 -> inception_3a/5x5
I0308 01:11:49.392251  9810 net.cpp:96] Setting up inception_3a/5x5
I0308 01:11:49.392381  9810 net.cpp:103] Top shape: 50 32 28 28 (1254400)
I0308 01:11:49.392400  9810 net.cpp:67] Creating Layer inception_3a/relu_5x5
I0308 01:11:49.392405  9810 net.cpp:394] inception_3a/relu_5x5 <- inception_3a/5x5
I0308 01:11:49.392410  9810 net.cpp:345] inception_3a/relu_5x5 -> inception_3a/5x5 (in-place)
I0308 01:11:49.392416  9810 net.cpp:96] Setting up inception_3a/relu_5x5
I0308 01:11:49.392423  9810 net.cpp:103] Top shape: 50 32 28 28 (1254400)
I0308 01:11:49.392429  9810 net.cpp:67] Creating Layer inception_3a/pool
I0308 01:11:49.392433  9810 net.cpp:394] inception_3a/pool <- pool2/3x3_s2_pool2/3x3_s2_0_split_3
I0308 01:11:49.392439  9810 net.cpp:356] inception_3a/pool -> inception_3a/pool
I0308 01:11:49.392446  9810 net.cpp:96] Setting up inception_3a/pool
I0308 01:11:49.392453  9810 net.cpp:103] Top shape: 50 192 28 28 (7526400)
I0308 01:11:49.392459  9810 net.cpp:67] Creating Layer inception_3a/pool_proj
I0308 01:11:49.392464  9810 net.cpp:394] inception_3a/pool_proj <- inception_3a/pool
I0308 01:11:49.392470  9810 net.cpp:356] inception_3a/pool_proj -> inception_3a/pool_proj
I0308 01:11:49.392477  9810 net.cpp:96] Setting up inception_3a/pool_proj
I0308 01:11:49.392563  9810 net.cpp:103] Top shape: 50 32 28 28 (1254400)
I0308 01:11:49.392585  9810 net.cpp:67] Creating Layer inception_3a/relu_pool_proj
…
I0308 01:11:49.420285  9810 net.cpp:103] Top shape: 50 160 14 14 (1568000)
I0308 01:11:49.420295  9810 net.cpp:67] Creating Layer inception_4b/3x3_reduce
I0308 01:11:49.420300  9810 net.cpp:394] inception_4b/3x3_reduce <- inception_4a/output_inception_4a/output_0_split_2
I0308 01:11:49.420306  9810 net.cpp:356] inception_4b/3x3_reduce -> inception_4b/3x3_reduce
I0308 01:11:49.420312  9810 net.cpp:96] Setting up inception_4b/3x3_reduce
I0308 01:11:49.420830  9810 net.cpp:103] Top shape: 50 112 14 14 (1097600)
I0308 01:11:49.420852  9810 net.cpp:67] Creating Layer inception_4b/relu_3x3_reduce
I0308 01:11:49.420858  9810 net.cpp:394] inception_4b/relu_3x3_reduce <- inception_4b/3x3_reduce
I0308 01:11:49.420864  9810 net.cpp:345] inception_4b/relu_3x3_reduce -> inception_4b/3x3_reduce (in-place)
I0308 01:11:49.420872  9810 net.cpp:96] Setting up inception_4b/relu_3x3_reduce
I0308 01:11:49.420881  9810 net.cpp:103] Top shape: 50 112 14 14 (1097600)
I0308 01:11:49.420889  9810 net.cpp:67] Creating Layer inception_4b/3x3
I0308 01:11:49.420894  9810 net.cpp:394] inception_4b/3x3 <- inception_4b/3x3_reduce
I0308 01:11:49.420900  9810 net.cpp:356] inception_4b/3x3 -> inception_4b/3x3
I0308 01:11:49.420907  9810 net.cpp:96] Setting up inception_4b/3x3
I0308 01:11:49.422824  9810 net.cpp:103] Top shape: 50 224 14 14 (2195200)
I0308 01:11:49.422845  9810 net.cpp:67] Creating Layer inception_4b/relu_3x3
I0308 01:11:49.422852  9810 net.cpp:394] inception_4b/relu_3x3 <- inception_4b/3x3
I0308 01:11:49.422857  9810 net.cpp:345] inception_4b/relu_3x3 -> inception_4b/3x3 (in-place)
I0308 01:11:49.422864  9810 net.cpp:96] Setting up inception_4b/relu_3x3
I0308 01:11:49.422871  9810 net.cpp:103] Top shape: 50 224 14 14 (2195200)
I0308 01:11:49.422878  9810 net.cpp:67] Creating Layer inception_4b/5x5_reduce
I0308 01:11:49.422883  9810 net.cpp:394] inception_4b/5x5_reduce <- inception_4a/output_inception_4a/output_0_split_3
I0308 01:11:49.422890  9810 net.cpp:356] inception_4b/5x5_reduce -> inception_4b/5x5_reduce
I0308 01:11:49.422898  9810 net.cpp:96] Setting up inception_4b/5x5_reduce
I0308 01:11:49.423049  9810 net.cpp:103] Top shape: 50 24 14 14 (235200)
I0308 01:11:49.423069  9810 net.cpp:67] Creating Layer inception_4b/relu_5x5_reduce
I0308 01:11:49.423075  9810 net.cpp:394] inception_4b/relu_5x5_reduce <- inception_4b/5x5_reduce
I0308 01:11:49.423081  9810 net.cpp:345] inception_4b/relu_5x5_reduce -> inception_4b/5x5_reduce (in-place)
I0308 01:11:49.423089  9810 net.cpp:96] Setting up inception_4b/relu_5x5_reduce
I0308 01:11:49.423094  9810 net.cpp:103] Top shape: 50 24 14 14 (235200)
I0308 01:11:49.423104  9810 net.cpp:67] Creating Layer inception_4b/5x5
I0308 01:11:49.423109  9810 net.cpp:394] inception_4b/5x5 <- inception_4b/5x5_reduce
I0308 01:11:49.423115  9810 net.cpp:356] inception_4b/5x5 -> inception_4b/5x5
I0308 01:11:49.423121  9810 net.cpp:96] Setting up inception_4b/5x5
I0308 01:11:49.423578  9810 net.cpp:103] Top shape: 50 64 14 14 (627200)
I0308 01:11:49.423601  9810 net.cpp:67] Creating Layer inception_4b/relu_5x5
I0308 01:11:49.423607  9810 net.cpp:394] inception_4b/relu_5x5 <- inception_4b/5x5
I0308 01:11:49.423614  9810 net.cpp:345] inception_4b/relu_5x5 -> inception_4b/5x5 (in-place)
I0308 01:11:49.423620  9810 net.cpp:96] Setting up inception_4b/relu_5x5
I0308 01:11:49.423627  9810 net.cpp:103] Top shape: 50 64 14 14 (627200)
I0308 01:11:49.423635  9810 net.cpp:67] Creating Layer inception_4b/pool
I0308 01:11:49.423651  9810 net.cpp:394] inception_4b/pool <- inception_4a/output_inception_4a/output_0_split_4
I0308 01:11:49.423661  9810 net.cpp:356] inception_4b/pool -> inception_4b/pool
I0308 01:11:49.423667  9810 net.cpp:96] Setting up inception_4b/pool
I0308 01:11:49.423676  9810 net.cpp:103] Top shape: 50 512 14 14 (5017600)
I0308 01:11:49.423684  9810 net.cpp:67] Creating Layer inception_4b/pool_proj
I0308 01:11:49.423688  9810 net.cpp:394] inception_4b/pool_proj <- inception_4b/pool
I0308 01:11:49.423696  9810 net.cpp:356] inception_4b/pool_proj -> inception_4b/pool_proj
I0308 01:11:49.423703  9810 net.cpp:96] Setting up inception_4b/pool_proj
I0308 01:11:49.424023  9810 net.cpp:103] Top shape: 50 64 14 14 (627200)
I0308 01:11:49.424049  9810 net.cpp:67] Creating Layer inception_4b/relu_pool_proj
I0308 01:11:49.424054  9810 net.cpp:394] inception_4b/relu_pool_proj <- inception_4b/pool_proj
I0308 01:11:49.424060  9810 net.cpp:345] inception_4b/relu_pool_proj -> inception_4b/pool_proj (in-place)
I0308 01:11:49.424067  9810 net.cpp:96] Setting up inception_4b/relu_pool_proj
I0308 01:11:49.424074  9810 net.cpp:103] Top shape: 50 64 14 14 (627200)
I0308 01:11:49.424080  9810 net.cpp:67] Creating Layer inception_4b/output
I0308 01:11:49.424085  9810 net.cpp:394] inception_4b/output <- inception_4b/1x1
I0308 01:11:49.424093  9810 net.cpp:394] inception_4b/output <- inception_4b/3x3
I0308 01:11:49.424098  9810 net.cpp:394] inception_4b/output <- inception_4b/5x5
I0308 01:11:49.424103  9810 net.cpp:394] inception_4b/output <- inception_4b/pool_proj
I0308 01:11:49.424109  9810 net.cpp:356] inception_4b/output -> inception_4b/output
I0308 01:11:49.424115  9810 net.cpp:96] Setting up inception_4b/output
I0308 01:11:49.424120  9810 net.cpp:103] Top shape: 50 512 14 14 (5017600)
I0308 01:11:49.424126  9810 net.cpp:67] Creating Layer inception_4b/output_inception_4b/output_0_split
I0308 01:11:49.424130  9810 net.cpp:394] inception_4b/output_inception_4b/output_0_split <- inception_4b/output
I0308 01:11:49.424136  9810 net.cpp:356] inception_4b/output_inception_4b/output_0_split -> inception_4b/output_inception_4b/output_0_split_0
I0308 01:11:49.424142  9810 net.cpp:356] inception_4b/output_inception_4b/output_0_split -> inception_4b/output_inception_4b/output_0_split_1
I0308 01:11:49.424151  9810 net.cpp:356] inception_4b/output_inception_4b/output_0_split -> inception_4b/output_inception_4b/output_0_split_2
I0308 01:11:49.424159  9810 net.cpp:356] inception_4b/output_inception_4b/output_0_split -> inception_4b/output_inception_4b/output_0_split_3
I0308 01:11:49.424165  9810 net.cpp:96] Setting up inception_4b/output_inception_4b/output_0_split
I0308 01:11:49.424170  9810 net.cpp:103] Top shape: 50 512 14 14 (5017600)
I0308 01:11:49.424175  9810 net.cpp:103] Top shape: 50 512 14 14 (5017600)
I0308 01:11:49.424178  9810 net.cpp:103] Top shape: 50 512 14 14 (5017600)
I0308 01:11:49.424181  9810 net.cpp:103] Top shape: 50 512 14 14 (5017600)
I0308 01:11:49.424190  9810 net.cpp:67] Creating Layer inception_4c/1x1
I0308 01:11:49.424195  9810 net.cpp:394] inception_4c/1x1 <- inception_4b/output_inception_4b/output_0_split_0
I0308 01:11:49.424201  9810 net.cpp:356] inception_4c/1x1 -> inception_4c/1x1
I0308 01:11:49.424207  9810 net.cpp:96] Setting up inception_4c/1x1
I0308 01:11:49.424813  9810 net.cpp:103] Top shape: 50 128 14 14 (1254400)
I0308 01:11:49.424835  9810 net.cpp:67] Creating Layer inception_4c/relu_1x1
I0308 01:11:49.424841  9810 net.cpp:394] inception_4c/relu_1x1 <- inception_4c/1x1
I0308 01:11:49.424849  9810 net.cpp:345] inception_4c/relu_1x1 -> inception_4c/1x1 (in-place)
I0308 01:11:49.424856  9810 net.cpp:96] Setting up inception_4c/relu_1x1
I0308 01:11:49.424864  9810 net.cpp:103] Top shape: 50 128 14 14 (1254400)
I0308 01:11:49.424870  9810 net.cpp:67] Creating Layer inception_4c/3x3_reduce
I0308 01:11:49.424875  9810 net.cpp:394] inception_4c/3x3_reduce <- inception_4b/output_inception_4b/output_0_split_1
I0308 01:11:49.424883  9810 net.cpp:356] inception_4c/3x3_reduce -> inception_4c/3x3_reduce
I0308 01:11:49.424901  9810 net.cpp:96] Setting up inception_4c/3x3_reduce
I0308 01:11:49.425493  9810 net.cpp:103] Top shape: 50 128 14 14 (1254400)
I0308 01:11:49.425513  9810 net.cpp:67] Creating Layer inception_4c/relu_3x3_reduce
I0308 01:11:49.425519  9810 net.cpp:394] inception_4c/relu_3x3_reduce <- inception_4c/3x3_reduce
I0308 01:11:49.425525  9810 net.cpp:345] inception_4c/relu_3x3_reduce -> inception_4c/3x3_reduce (in-place)
I0308 01:11:49.425532  9810 net.cpp:96] Setting up inception_4c/relu_3x3_reduce
I0308 01:11:49.425539  9810 net.cpp:103] Top shape: 50 128 14 14 (1254400)
I0308 01:11:49.425549  9810 net.cpp:67] Creating Layer inception_4c/3x3
I0308 01:11:49.425552  9810 net.cpp:394] inception_4c/3x3 <- inception_4c/3x3_reduce
I0308 01:11:49.425559  9810 net.cpp:356] inception_4c/3x3 -> inception_4c/3x3
I0308 01:11:49.425565  9810 net.cpp:96] Setting up inception_4c/3x3
I0308 01:11:49.428032  9810 net.cpp:103] Top shape: 50 256 14 14 (2508800)
I0308 01:11:49.428063  9810 net.cpp:67] Creating Layer inception_4c/relu_3x3
I0308 01:11:49.428073  9810 net.cpp:394] inception_4c/relu_3x3 <- inception_4c/3x3
I0308 01:11:49.428079  9810 net.cpp:345] inception_4c/relu_3x3 -> inception_4c/3x3 (in-place)
I0308 01:11:49.428086  9810 net.cpp:96] Setting up inception_4c/relu_3x3
I0308 01:11:49.428092  9810 net.cpp:103] Top shape: 50 256 14 14 (2508800)
I0308 01:11:49.428100  9810 net.cpp:67] Creating Layer inception_4c/5x5_reduce
I0308 01:11:49.428104  9810 net.cpp:394] inception_4c/5x5_reduce <- inception_4b/output_inception_4b/output_0_split_2
I0308 01:11:49.428112  9810 net.cpp:356] inception_4c/5x5_reduce -> inception_4c/5x5_reduce
I0308 01:11:49.428117  9810 net.cpp:96] Setting up inception_4c/5x5_reduce
I0308 01:11:49.428349  9810 net.cpp:103] Top shape: 50 24 14 14 (235200)
I0308 01:11:49.428375  9810 net.cpp:67] Creating Layer inception_4c/relu_5x5_reduce
I0308 01:11:49.428381  9810 net.cpp:394] inception_4c/relu_5x5_reduce <- inception_4c/5x5_reduce
I0308 01:11:49.428387  9810 net.cpp:345] inception_4c/relu_5x5_reduce -> inception_4c/5x5_reduce (in-place)
I0308 01:11:49.428395  9810 net.cpp:96] Setting up inception_4c/relu_5x5_reduce
I0308 01:11:49.428401  9810 net.cpp:103] Top shape: 50 24 14 14 (235200)
I0308 01:11:49.428410  9810 net.cpp:67] Creating Layer inception_4c/5x5
I0308 01:11:49.428414  9810 net.cpp:394] inception_4c/5x5 <- inception_4c/5x5_reduce
I0308 01:11:49.428421  9810 net.cpp:356] inception_4c/5x5 -> inception_4c/5x5
I0308 01:11:49.428427  9810 net.cpp:96] Setting up inception_4c/5x5
I0308 01:11:49.428796  9810 net.cpp:103] Top shape: 50 64 14 14 (627200)
I0308 01:11:49.428815  9810 net.cpp:67] Creating Layer inception_4c/relu_5x5
I0308 01:11:49.428820  9810 net.cpp:394] inception_4c/relu_5x5 <- inception_4c/5x5
I0308 01:11:49.428827  9810 net.cpp:345] inception_4c/relu_5x5 -> inception_4c/5x5 (in-place)
I0308 01:11:49.428833  9810 net.cpp:96] Setting up inception_4c/relu_5x5
I0308 01:11:49.428839  9810 net.cpp:103] Top shape: 50 64 14 14 (627200)
I0308 01:11:49.428848  9810 net.cpp:67] Creating Layer inception_4c/pool
I0308 01:11:49.428853  9810 net.cpp:394] inception_4c/pool <- inception_4b/output_inception_4b/output_0_split_3
I0308 01:11:49.428858  9810 net.cpp:356] inception_4c/pool -> inception_4c/pool
I0308 01:11:49.428864  9810 net.cpp:96] Setting up inception_4c/pool
I0308 01:11:49.428871  9810 net.cpp:103] Top shape: 50 512 14 14 (5017600)
I0308 01:11:49.428880  9810 net.cpp:67] Creating Layer inception_4c/pool_proj
I0308 01:11:49.428885  9810 net.cpp:394] inception_4c/pool_proj <- inception_4c/pool
I0308 01:11:49.428891  9810 net.cpp:356] inception_4c/pool_proj -> inception_4c/pool_proj
I0308 01:11:49.428899  9810 net.cpp:96] Setting up inception_4c/pool_proj
I0308 01:11:49.429215  9810 net.cpp:103] Top shape: 50 64 14 14 (627200)
I0308 01:11:49.429237  9810 net.cpp:67] Creating Layer inception_4c/relu_pool_proj
I0308 01:11:49.429244  9810 net.cpp:394] inception_4c/relu_pool_proj <- inception_4c/pool_proj
I0308 01:11:49.429250  9810 net.cpp:345] inception_4c/relu_pool_proj -> inception_4c/pool_proj (in-place)
I0308 01:11:49.429278  9810 net.cpp:96] Setting up inception_4c/relu_pool_proj
I0308 01:11:49.429286  9810 net.cpp:103] Top shape: 50 64 14 14 (627200)
I0308 01:11:49.429293  9810 net.cpp:67] Creating Layer inception_4c/output
I0308 01:11:49.429297  9810 net.cpp:394] inception_4c/output <- inception_4c/1x1
I0308 01:11:49.429306  9810 net.cpp:394] inception_4c/output <- inception_4c/3x3
I0308 01:11:49.429311  9810 net.cpp:394] inception_4c/output <- inception_4c/5x5
I0308 01:11:49.429316  9810 net.cpp:394] inception_4c/output <- inception_4c/pool_proj
I0308 01:11:49.429322  9810 net.cpp:356] inception_4c/output -> inception_4c/output
I0308 01:11:49.429327  9810 net.cpp:96] Setting up inception_4c/output
I0308 01:11:49.429332  9810 net.cpp:103] Top shape: 50 512 14 14 (5017600)
I0308 01:11:49.429338  9810 net.cpp:67] Creating Layer inception_4c/output_inception_4c/output_0_split
I0308 01:11:49.429342  9810 net.cpp:394] inception_4c/output_inception_4c/output_0_split <- inception_4c/output
I0308 01:11:49.429348  9810 net.cpp:356] inception_4c/output_inception_4c/output_0_split -> inception_4c/output_inception_4c/output_0_split_0
I0308 01:11:49.429355  9810 net.cpp:356] inception_4c/output_inception_4c/output_0_split -> inception_4c/output_inception_4c/output_0_split_1
I0308 01:11:49.429363  9810 net.cpp:356] inception_4c/output_inception_4c/output_0_split -> inception_4c/output_inception_4c/output_0_split_2
I0308 01:11:49.429370  9810 net.cpp:356] inception_4c/output_inception_4c/output_0_split -> inception_4c/output_inception_4c/output_0_split_3
I0308 01:11:49.429376  9810 net.cpp:96] Setting up inception_4c/output_inception_4c/output_0_split
I0308 01:11:49.429381  9810 net.cpp:103] Top shape: 50 512 14 14 (5017600)
I0308 01:11:49.429385  9810 net.cpp:103] Top shape: 50 512 14 14 (5017600)
I0308 01:11:49.429389  9810 net.cpp:103] Top shape: 50 512 14 14 (5017600)
I0308 01:11:49.429393  9810 net.cpp:103] Top shape: 50 512 14 14 (5017600)
I0308 01:11:49.429400  9810 net.cpp:67] Creating Layer inception_4d/1x1
I0308 01:11:49.429405  9810 net.cpp:394] inception_4d/1x1 <- inception_4c/output_inception_4c/output_0_split_0
I0308 01:11:49.429411  9810 net.cpp:356] inception_4d/1x1 -> inception_4d/1x1
I0308 01:11:49.429419  9810 net.cpp:96] Setting up inception_4d/1x1
I0308 01:11:49.429955  9810 net.cpp:103] Top shape: 50 112 14 14 (1097600)
I0308 01:11:49.429976  9810 net.cpp:67] Creating Layer inception_4d/relu_1x1
I0308 01:11:49.429981  9810 net.cpp:394] inception_4d/relu_1x1 <- inception_4d/1x1
I0308 01:11:49.429990  9810 net.cpp:345] inception_4d/relu_1x1 -> inception_4d/1x1 (in-place)
I0308 01:11:49.429996  9810 net.cpp:96] Setting up inception_4d/relu_1x1
I0308 01:11:49.430003  9810 net.cpp:103] Top shape: 50 112 14 14 (1097600)
I0308 01:11:49.430011  9810 net.cpp:67] Creating Layer inception_4d/3x3_reduce
I0308 01:11:49.430014  9810 net.cpp:394] inception_4d/3x3_reduce <- inception_4c/output_inception_4c/output_0_split_1
I0308 01:11:49.430022  9810 net.cpp:356] inception_4d/3x3_reduce -> inception_4d/3x3_reduce
I0308 01:11:49.430030  9810 net.cpp:96] Setting up inception_4d/3x3_reduce
I0308 01:11:49.430697  9810 net.cpp:103] Top shape: 50 144 14 14 (1411200)
I0308 01:11:49.430718  9810 net.cpp:67] Creating Layer inception_4d/relu_3x3_reduce
I0308 01:11:49.430724  9810 net.cpp:394] inception_4d/relu_3x3_reduce <- inception_4d/3x3_reduce
I0308 01:11:49.430730  9810 net.cpp:345] inception_4d/relu_3x3_reduce -> inception_4d/3x3_reduce (in-place)
I0308 01:11:49.430737  9810 net.cpp:96] Setting up inception_4d/relu_3x3_reduce
I0308 01:11:49.430744  9810 net.cpp:103] Top shape: 50 144 14 14 (1411200)
I0308 01:11:49.430753  9810 net.cpp:67] Creating Layer inception_4d/3x3
I0308 01:11:49.430758  9810 net.cpp:394] inception_4d/3x3 <- inception_4d/3x3_reduce
I0308 01:11:49.430764  9810 net.cpp:356] inception_4d/3x3 -> inception_4d/3x3
I0308 01:11:49.430770  9810 net.cpp:96] Setting up inception_4d/3x3
I0308 01:11:49.433943  9810 net.cpp:103] Top shape: 50 288 14 14 (2822400)
I0308 01:11:49.433967  9810 net.cpp:67] Creating Layer inception_4d/relu_3x3
I0308 01:11:49.433991  9810 net.cpp:394] inception_4d/relu_3x3 <- inception_4d/3x3
I0308 01:11:49.433998  9810 net.cpp:345] inception_4d/relu_3x3 -> inception_4d/3x3 (in-place)
I0308 01:11:49.434005  9810 net.cpp:96] Setting up inception_4d/relu_3x3
I0308 01:11:49.434012  9810 net.cpp:103] Top shape: 50 288 14 14 (2822400)
I0308 01:11:49.434022  9810 net.cpp:67] Creating Layer inception_4d/5x5_reduce
I0308 01:11:49.434027  9810 net.cpp:394] inception_4d/5x5_reduce <- inception_4c/output_inception_4c/output_0_split_2
I0308 01:11:49.434033  9810 net.cpp:356] inception_4d/5x5_reduce -> inception_4d/5x5_reduce
I0308 01:11:49.434041  9810 net.cpp:96] Setting up inception_4d/5x5_reduce
I0308 01:11:49.434237  9810 net.cpp:103] Top shape: 50 32 14 14 (313600)
I0308 01:11:49.434257  9810 net.cpp:67] Creating Layer inception_4d/relu_5x5_reduce
I0308 01:11:49.434262  9810 net.cpp:394] inception_4d/relu_5x5_reduce <- inception_4d/5x5_reduce
I0308 01:11:49.434268  9810 net.cpp:345] inception_4d/relu_5x5_reduce -> inception_4d/5x5_reduce (in-place)
I0308 01:11:49.434274  9810 net.cpp:96] Setting up inception_4d/relu_5x5_reduce
I0308 01:11:49.434283  9810 net.cpp:103] Top shape: 50 32 14 14 (313600)
I0308 01:11:49.434293  9810 net.cpp:67] Creating Layer inception_4d/5x5
I0308 01:11:49.434298  9810 net.cpp:394] inception_4d/5x5 <- inception_4d/5x5_reduce
I0308 01:11:49.434305  9810 net.cpp:356] inception_4d/5x5 -> inception_4d/5x5
I0308 01:11:49.434312  9810 net.cpp:96] Setting up inception_4d/5x5
I0308 01:11:49.434793  9810 net.cpp:103] Top shape: 50 64 14 14 (627200)
I0308 01:11:49.434813  9810 net.cpp:67] Creating Layer inception_4d/relu_5x5
I0308 01:11:49.434818  9810 net.cpp:394] inception_4d/relu_5x5 <- inception_4d/5x5
I0308 01:11:49.434824  9810 net.cpp:345] inception_4d/relu_5x5 -> inception_4d/5x5 (in-place)
I0308 01:11:49.434834  9810 net.cpp:96] Setting up inception_4d/relu_5x5
I0308 01:11:49.434840  9810 net.cpp:103] Top shape: 50 64 14 14 (627200)
I0308 01:11:49.434849  9810 net.cpp:67] Creating Layer inception_4d/pool
I0308 01:11:49.434854  9810 net.cpp:394] inception_4d/pool <- inception_4c/output_inception_4c/output_0_split_3
I0308 01:11:49.434861  9810 net.cpp:356] inception_4d/pool -> inception_4d/pool
I0308 01:11:49.434873  9810 net.cpp:96] Setting up inception_4d/pool
I0308 01:11:49.434887  9810 net.cpp:103] Top shape: 50 512 14 14 (5017600)
I0308 01:11:49.434902  9810 net.cpp:67] Creating Layer inception_4d/pool_proj
I0308 01:11:49.434908  9810 net.cpp:394] inception_4d/pool_proj <- inception_4d/pool
I0308 01:11:49.434914  9810 net.cpp:356] inception_4d/pool_proj -> inception_4d/pool_proj
I0308 01:11:49.434921  9810 net.cpp:96] Setting up inception_4d/pool_proj
I0308 01:11:49.435236  9810 net.cpp:103] Top shape: 50 64 14 14 (627200)
I0308 01:11:49.435258  9810 net.cpp:67] Creating Layer inception_4d/relu_pool_proj
I0308 01:11:49.435264  9810 net.cpp:394] inception_4d/relu_pool_proj <- inception_4d/pool_proj
I0308 01:11:49.435271  9810 net.cpp:345] inception_4d/relu_pool_proj -> inception_4d/pool_proj (in-place)
I0308 01:11:49.435276  9810 net.cpp:96] Setting up inception_4d/relu_pool_proj
I0308 01:11:49.435283  9810 net.cpp:103] Top shape: 50 64 14 14 (627200)
I0308 01:11:49.435289  9810 net.cpp:67] Creating Layer inception_4d/output
I0308 01:11:49.435294  9810 net.cpp:394] inception_4d/output <- inception_4d/1x1
I0308 01:11:49.435299  9810 net.cpp:394] inception_4d/output <- inception_4d/3x3
I0308 01:11:49.435307  9810 net.cpp:394] inception_4d/output <- inception_4d/5x5
I0308 01:11:49.435312  9810 net.cpp:394] inception_4d/output <- inception_4d/pool_proj
I0308 01:11:49.435317  9810 net.cpp:356] inception_4d/output -> inception_4d/output
I0308 01:11:49.435323  9810 net.cpp:96] Setting up inception_4d/output
I0308 01:11:49.435329  9810 net.cpp:103] Top shape: 50 528 14 14 (5174400)
I0308 01:11:49.435336  9810 net.cpp:67] Creating Layer inception_4d/output_inception_4d/output_0_split
I0308 01:11:49.435341  9810 net.cpp:394] inception_4d/output_inception_4d/output_0_split <- inception_4d/output
I0308 01:11:49.435359  9810 net.cpp:356] inception_4d/output_inception_4d/output_0_split -> inception_4d/output_inception_4d/output_0_split_0
I0308 01:11:49.435367  9810 net.cpp:356] inception_4d/output_inception_4d/output_0_split -> inception_4d/output_inception_4d/output_0_split_1
I0308 01:11:49.435374  9810 net.cpp:356] inception_4d/output_inception_4d/output_0_split -> inception_4d/output_inception_4d/output_0_split_2
I0308 01:11:49.435384  9810 net.cpp:356] inception_4d/output_inception_4d/output_0_split -> inception_4d/output_inception_4d/output_0_split_3
I0308 01:11:49.435390  9810 net.cpp:356] inception_4d/output_inception_4d/output_0_split -> inception_4d/output_inception_4d/output_0_split_4
I0308 01:11:49.435396  9810 net.cpp:96] Setting up inception_4d/output_inception_4d/output_0_split
I0308 01:11:49.435402  9810 net.cpp:103] Top shape: 50 528 14 14 (5174400)
I0308 01:11:49.435406  9810 net.cpp:103] Top shape: 50 528 14 14 (5174400)
I0308 01:11:49.435410  9810 net.cpp:103] Top shape: 50 528 14 14 (5174400)
I0308 01:11:49.435413  9810 net.cpp:103] Top shape: 50 528 14 14 (5174400)
I0308 01:11:49.435417  9810 net.cpp:103] Top shape: 50 528 14 14 (5174400)
I0308 01:11:49.435422  9810 net.cpp:67] Creating Layer loss2/ave_pool
I0308 01:11:49.435430  9810 net.cpp:394] loss2/ave_pool <- inception_4d/output_inception_4d/output_0_split_0
I0308 01:11:49.435436  9810 net.cpp:356] loss2/ave_pool -> loss2/ave_pool
I0308 01:11:49.435441  9810 net.cpp:96] Setting up loss2/ave_pool
I0308 01:11:49.435449  9810 net.cpp:103] Top shape: 50 528 4 4 (422400)
I0308 01:11:49.435456  9810 net.cpp:67] Creating Layer loss2/conv
I0308 01:11:49.435461  9810 net.cpp:394] loss2/conv <- loss2/ave_pool
I0308 01:11:49.435469  9810 net.cpp:356] loss2/conv -> loss2/conv
I0308 01:11:49.435477  9810 net.cpp:96] Setting up loss2/conv
I0308 01:11:49.436080  9810 net.cpp:103] Top shape: 50 128 4 4 (102400)
I0308 01:11:49.436102  9810 net.cpp:67] Creating Layer loss2/relu_conv
I0308 01:11:49.436108  9810 net.cpp:394] loss2/relu_conv <- loss2/conv
I0308 01:11:49.436115  9810 net.cpp:345] loss2/relu_conv -> loss2/conv (in-place)
I0308 01:11:49.436121  9810 net.cpp:96] Setting up loss2/relu_conv
I0308 01:11:49.436127  9810 net.cpp:103] Top shape: 50 128 4 4 (102400)
I0308 01:11:49.436135  9810 net.cpp:67] Creating Layer loss2/fc
I0308 01:11:49.436138  9810 net.cpp:394] loss2/fc <- loss2/conv
I0308 01:11:49.436146  9810 net.cpp:356] loss2/fc -> loss2/fc
I0308 01:11:49.436153  9810 net.cpp:96] Setting up loss2/fc
I0308 01:11:49.452322  9810 net.cpp:103] Top shape: 50 1024 1 1 (51200)
I0308 01:11:49.452347  9810 net.cpp:67] Creating Layer loss2/relu_fc
I0308 01:11:49.452353  9810 net.cpp:394] loss2/relu_fc <- loss2/fc
I0308 01:11:49.452361  9810 net.cpp:345] loss2/relu_fc -> loss2/fc (in-place)
I0308 01:11:49.452368  9810 net.cpp:96] Setting up loss2/relu_fc
I0308 01:11:49.452379  9810 net.cpp:103] Top shape: 50 1024 1 1 (51200)
I0308 01:11:49.452386  9810 net.cpp:67] Creating Layer loss2/drop_fc
I0308 01:11:49.452390  9810 net.cpp:394] loss2/drop_fc <- loss2/fc
I0308 01:11:49.452397  9810 net.cpp:345] loss2/drop_fc -> loss2/fc (in-place)
I0308 01:11:49.452404  9810 net.cpp:96] Setting up loss2/drop_fc
I0308 01:11:49.452409  9810 net.cpp:103] Top shape: 50 1024 1 1 (51200)
I0308 01:11:49.452415  9810 net.cpp:67] Creating Layer loss2/classifier
I0308 01:11:49.452419  9810 net.cpp:394] loss2/classifier <- loss2/fc
I0308 01:11:49.452425  9810 net.cpp:356] loss2/classifier -> loss2/classifier
I0308 01:11:49.452432  9810 net.cpp:96] Setting up loss2/classifier
I0308 01:11:49.453446  9810 net.cpp:103] Top shape: 50 121 1 1 (6050)
I0308 01:11:49.453466  9810 net.cpp:67] Creating Layer loss2/classifier_loss2/classifier_0_split
I0308 01:11:49.453471  9810 net.cpp:394] loss2/classifier_loss2/classifier_0_split <- loss2/classifier
I0308 01:11:49.453480  9810 net.cpp:356] loss2/classifier_loss2/classifier_0_split -> loss2/classifier_loss2/classifier_0_split_0
I0308 01:11:49.453488  9810 net.cpp:356] loss2/classifier_loss2/classifier_0_split -> loss2/classifier_loss2/classifier_0_split_1
I0308 01:11:49.453508  9810 net.cpp:356] loss2/classifier_loss2/classifier_0_split -> loss2/classifier_loss2/classifier_0_split_2
I0308 01:11:49.453516  9810 net.cpp:96] Setting up loss2/classifier_loss2/classifier_0_split
I0308 01:11:49.453521  9810 net.cpp:103] Top shape: 50 121 1 1 (6050)
I0308 01:11:49.453527  9810 net.cpp:103] Top shape: 50 121 1 1 (6050)
I0308 01:11:49.453534  9810 net.cpp:103] Top shape: 50 121 1 1 (6050)
I0308 01:11:49.453547  9810 net.cpp:67] Creating Layer loss2/loss
I0308 01:11:49.453554  9810 net.cpp:394] loss2/loss <- loss2/classifier_loss2/classifier_0_split_0
I0308 01:11:49.453562  9810 net.cpp:394] loss2/loss <- label_data_1_split_3
I0308 01:11:49.453572  9810 net.cpp:356] loss2/loss -> loss2/loss1
I0308 01:11:49.453583  9810 net.cpp:96] Setting up loss2/loss
I0308 01:11:49.453627  9810 net.cpp:103] Top shape: 1 1 1 1 (1)
I0308 01:11:49.453688  9810 net.cpp:109]     with loss weight 0.3
I0308 01:11:49.453713  9810 net.cpp:67] Creating Layer loss2/top-1
I0308 01:11:49.453719  9810 net.cpp:394] loss2/top-1 <- loss2/classifier_loss2/classifier_0_split_1
I0308 01:11:49.453724  9810 net.cpp:394] loss2/top-1 <- label_data_1_split_4
I0308 01:11:49.453732  9810 net.cpp:356] loss2/top-1 -> loss2/top-1
I0308 01:11:49.453738  9810 net.cpp:96] Setting up loss2/top-1
I0308 01:11:49.453745  9810 net.cpp:103] Top shape: 1 1 1 1 (1)
I0308 01:11:49.453752  9810 net.cpp:67] Creating Layer loss2/top-5
I0308 01:11:49.453757  9810 net.cpp:394] loss2/top-5 <- loss2/classifier_loss2/classifier_0_split_2
I0308 01:11:49.453764  9810 net.cpp:394] loss2/top-5 <- label_data_1_split_5
I0308 01:11:49.453770  9810 net.cpp:356] loss2/top-5 -> loss2/top-5
I0308 01:11:49.453778  9810 net.cpp:96] Setting up loss2/top-5
I0308 01:11:49.453781  9810 net.cpp:103] Top shape: 1 1 1 1 (1)
I0308 01:11:49.453788  9810 net.cpp:67] Creating Layer inception_4e/1x1
I0308 01:11:49.453794  9810 net.cpp:394] inception_4e/1x1 <- inception_4d/output_inception_4d/output_0_split_1
I0308 01:11:49.453799  9810 net.cpp:356] inception_4e/1x1 -> inception_4e/1x1
I0308 01:11:49.453806  9810 net.cpp:96] Setting up inception_4e/1x1
I0308 01:11:49.455059  9810 net.cpp:103] Top shape: 50 256 14 14 (2508800)
I0308 01:11:49.455083  9810 net.cpp:67] Creating Layer inception_4e/relu_1x1
I0308 01:11:49.455090  9810 net.cpp:394] inception_4e/relu_1x1 <- inception_4e/1x1
I0308 01:11:49.455096  9810 net.cpp:345] inception_4e/relu_1x1 -> inception_4e/1x1 (in-place)
I0308 01:11:49.455102  9810 net.cpp:96] Setting up inception_4e/relu_1x1
I0308 01:11:49.455109  9810 net.cpp:103] Top shape: 50 256 14 14 (2508800)
I0308 01:11:49.455133  9810 net.cpp:67] Creating Layer inception_4e/3x3_reduce
I0308 01:11:49.455150  9810 net.cpp:394] inception_4e/3x3_reduce <- inception_4d/output_inception_4d/output_0_split_2
I0308 01:11:49.455163  9810 net.cpp:356] inception_4e/3x3_reduce -> inception_4e/3x3_reduce
I0308 01:11:49.455174  9810 net.cpp:96] Setting up inception_4e/3x3_reduce
I0308 01:11:49.455934  9810 net.cpp:103] Top shape: 50 160 14 14 (1568000)
I0308 01:11:49.455955  9810 net.cpp:67] Creating Layer inception_4e/relu_3x3_reduce
I0308 01:11:49.455961  9810 net.cpp:394] inception_4e/relu_3x3_reduce <- inception_4e/3x3_reduce
I0308 01:11:49.455967  9810 net.cpp:345] inception_4e/relu_3x3_reduce -> inception_4e/3x3_reduce (in-place)
I0308 01:11:49.455974  9810 net.cpp:96] Setting up inception_4e/relu_3x3_reduce
I0308 01:11:49.455981  9810 net.cpp:103] Top shape: 50 160 14 14 (1568000)
I0308 01:11:49.455991  9810 net.cpp:67] Creating Layer inception_4e/3x3
I0308 01:11:49.455996  9810 net.cpp:394] inception_4e/3x3 <- inception_4e/3x3_reduce
I0308 01:11:49.456003  9810 net.cpp:356] inception_4e/3x3 -> inception_4e/3x3
I0308 01:11:49.456010  9810 net.cpp:96] Setting up inception_4e/3x3
I0308 01:11:49.459880  9810 net.cpp:103] Top shape: 50 320 14 14 (3136000)
I0308 01:11:49.459906  9810 net.cpp:67] Creating Layer inception_4e/relu_3x3
I0308 01:11:49.459913  9810 net.cpp:394] inception_4e/relu_3x3 <- inception_4e/3x3
I0308 01:11:49.459933  9810 net.cpp:345] inception_4e/relu_3x3 -> inception_4e/3x3 (in-place)
I0308 01:11:49.459939  9810 net.cpp:96] Setting up inception_4e/relu_3x3
I0308 01:11:49.459946  9810 net.cpp:103] Top shape: 50 320 14 14 (3136000)
I0308 01:11:49.459957  9810 net.cpp:67] Creating Layer inception_4e/5x5_reduce
I0308 01:11:49.459962  9810 net.cpp:394] inception_4e/5x5_reduce <- inception_4d/output_inception_4d/output_0_split_3
I0308 01:11:49.459969  9810 net.cpp:356] inception_4e/5x5_reduce -> inception_4e/5x5_reduce
I0308 01:11:49.459975  9810 net.cpp:96] Setting up inception_4e/5x5_reduce
I0308 01:11:49.460162  9810 net.cpp:103] Top shape: 50 32 14 14 (313600)
I0308 01:11:49.460186  9810 net.cpp:67] Creating Layer inception_4e/relu_5x5_reduce
I0308 01:11:49.460191  9810 net.cpp:394] inception_4e/relu_5x5_reduce <- inception_4e/5x5_reduce
I0308 01:11:49.460197  9810 net.cpp:345] inception_4e/relu_5x5_reduce -> inception_4e/5x5_reduce (in-place)
I0308 01:11:49.460204  9810 net.cpp:96] Setting up inception_4e/relu_5x5_reduce
I0308 01:11:49.460211  9810 net.cpp:103] Top shape: 50 32 14 14 (313600)
I0308 01:11:49.460219  9810 net.cpp:67] Creating Layer inception_4e/5x5
I0308 01:11:49.460224  9810 net.cpp:394] inception_4e/5x5 <- inception_4e/5x5_reduce
I0308 01:11:49.460230  9810 net.cpp:356] inception_4e/5x5 -> inception_4e/5x5
I0308 01:11:49.460237  9810 net.cpp:96] Setting up inception_4e/5x5
I0308 01:11:49.461139  9810 net.cpp:103] Top shape: 50 128 14 14 (1254400)
I0308 01:11:49.461160  9810 net.cpp:67] Creating Layer inception_4e/relu_5x5
I0308 01:11:49.461165  9810 net.cpp:394] inception_4e/relu_5x5 <- inception_4e/5x5
I0308 01:11:49.461171  9810 net.cpp:345] inception_4e/relu_5x5 -> inception_4e/5x5 (in-place)
I0308 01:11:49.461179  9810 net.cpp:96] Setting up inception_4e/relu_5x5
I0308 01:11:49.461184  9810 net.cpp:103] Top shape: 50 128 14 14 (1254400)
I0308 01:11:49.461194  9810 net.cpp:67] Creating Layer inception_4e/pool
I0308 01:11:49.461199  9810 net.cpp:394] inception_4e/pool <- inception_4d/output_inception_4d/output_0_split_4
I0308 01:11:49.461205  9810 net.cpp:356] inception_4e/pool -> inception_4e/pool
I0308 01:11:49.461210  9810 net.cpp:96] Setting up inception_4e/pool
I0308 01:11:49.461218  9810 net.cpp:103] Top shape: 50 528 14 14 (5174400)
I0308 01:11:49.461227  9810 net.cpp:67] Creating Layer inception_4e/pool_proj
I0308 01:11:49.461232  9810 net.cpp:394] inception_4e/pool_proj <- inception_4e/pool
I0308 01:11:49.461238  9810 net.cpp:356] inception_4e/pool_proj -> inception_4e/pool_proj
I0308 01:11:49.461244  9810 net.cpp:96] Setting up inception_4e/pool_proj
I0308 01:11:49.461928  9810 net.cpp:103] Top shape: 50 128 14 14 (1254400)
I0308 01:11:49.461951  9810 net.cpp:67] Creating Layer inception_4e/relu_pool_proj
I0308 01:11:49.461957  9810 net.cpp:394] inception_4e/relu_pool_proj <- inception_4e/pool_proj
I0308 01:11:49.461963  9810 net.cpp:345] inception_4e/relu_pool_proj -> inception_4e/pool_proj (in-place)
I0308 01:11:49.461971  9810 net.cpp:96] Setting up inception_4e/relu_pool_proj
I0308 01:11:49.461978  9810 net.cpp:103] Top shape: 50 128 14 14 (1254400)
I0308 01:11:49.461984  9810 net.cpp:67] Creating Layer inception_4e/output
I0308 01:11:49.461988  9810 net.cpp:394] inception_4e/output <- inception_4e/1x1
I0308 01:11:49.461993  9810 net.cpp:394] inception_4e/output <- inception_4e/3x3
I0308 01:11:49.462002  9810 net.cpp:394] inception_4e/output <- inception_4e/5x5
I0308 01:11:49.462007  9810 net.cpp:394] inception_4e/output <- inception_4e/pool_proj
I0308 01:11:49.462014  9810 net.cpp:356] inception_4e/output -> inception_4e/output
I0308 01:11:49.462021  9810 net.cpp:96] Setting up inception_4e/output
I0308 01:11:49.462026  9810 net.cpp:103] Top shape: 50 832 14 14 (8153600)
I0308 01:11:49.462033  9810 net.cpp:67] Creating Layer pool4/3x3_s2
I0308 01:11:49.462036  9810 net.cpp:394] pool4/3x3_s2 <- inception_4e/output
I0308 01:11:49.462046  9810 net.cpp:356] pool4/3x3_s2 -> pool4/3x3_s2
I0308 01:11:49.462052  9810 net.cpp:96] Setting up pool4/3x3_s2
I0308 01:11:49.462060  9810 net.cpp:103] Top shape: 50 832 7 7 (2038400)
I0308 01:11:49.462100  9810 net.cpp:67] Creating Layer pool4/3x3_s2_pool4/3x3_s2_0_split
I0308 01:11:49.462105  9810 net.cpp:394] pool4/3x3_s2_pool4/3x3_s2_0_split <- pool4/3x3_s2
I0308 01:11:49.462111  9810 net.cpp:356] pool4/3x3_s2_pool4/3x3_s2_0_split -> pool4/3x3_s2_pool4/3x3_s2_0_split_0
I0308 01:11:49.462118  9810 net.cpp:356] pool4/3x3_s2_pool4/3x3_s2_0_split -> pool4/3x3_s2_pool4/3x3_s2_0_split_1
I0308 01:11:49.462126  9810 net.cpp:356] pool4/3x3_s2_pool4/3x3_s2_0_split -> pool4/3x3_s2_pool4/3x3_s2_0_split_2
I0308 01:11:49.462147  9810 net.cpp:356] pool4/3x3_s2_pool4/3x3_s2_0_split -> pool4/3x3_s2_pool4/3x3_s2_0_split_3
I0308 01:11:49.462162  9810 net.cpp:96] Setting up pool4/3x3_s2_pool4/3x3_s2_0_split
I0308 01:11:49.462167  9810 net.cpp:103] Top shape: 50 832 7 7 (2038400)
I0308 01:11:49.462172  9810 net.cpp:103] Top shape: 50 832 7 7 (2038400)
I0308 01:11:49.462179  9810 net.cpp:103] Top shape: 50 832 7 7 (2038400)
I0308 01:11:49.462184  9810 net.cpp:103] Top shape: 50 832 7 7 (2038400)
I0308 01:11:49.462191  9810 net.cpp:67] Creating Layer inception_5a/1x1
I0308 01:11:49.462198  9810 net.cpp:394] inception_5a/1x1 <- pool4/3x3_s2_pool4/3x3_s2_0_split_0
I0308 01:11:49.462204  9810 net.cpp:356] inception_5a/1x1 -> inception_5a/1x1
I0308 01:11:49.462211  9810 net.cpp:96] Setting up inception_5a/1x1
I0308 01:11:49.464074  9810 net.cpp:103] Top shape: 50 256 7 7 (627200)
I0308 01:11:49.464095  9810 net.cpp:67] Creating Layer inception_5a/relu_1x1
I0308 01:11:49.464104  9810 net.cpp:394] inception_5a/relu_1x1 <- inception_5a/1x1
I0308 01:11:49.464110  9810 net.cpp:345] inception_5a/relu_1x1 -> inception_5a/1x1 (in-place)
I0308 01:11:49.464118  9810 net.cpp:96] Setting up inception_5a/relu_1x1
I0308 01:11:49.464124  9810 net.cpp:103] Top shape: 50 256 7 7 (627200)
I0308 01:11:49.464134  9810 net.cpp:67] Creating Layer inception_5a/3x3_reduce
I0308 01:11:49.464139  9810 net.cpp:394] inception_5a/3x3_reduce <- pool4/3x3_s2_pool4/3x3_s2_0_split_1
I0308 01:11:49.464148  9810 net.cpp:356] inception_5a/3x3_reduce -> inception_5a/3x3_reduce
I0308 01:11:49.464155  9810 net.cpp:96] Setting up inception_5a/3x3_reduce
I0308 01:11:49.465296  9810 net.cpp:103] Top shape: 50 160 7 7 (392000)
I0308 01:11:49.465318  9810 net.cpp:67] Creating Layer inception_5a/relu_3x3_reduce
I0308 01:11:49.465324  9810 net.cpp:394] inception_5a/relu_3x3_reduce <- inception_5a/3x3_reduce
I0308 01:11:49.465333  9810 net.cpp:345] inception_5a/relu_3x3_reduce -> inception_5a/3x3_reduce (in-place)
I0308 01:11:49.465340  9810 net.cpp:96] Setting up inception_5a/relu_3x3_reduce
I0308 01:11:49.465347  9810 net.cpp:103] Top shape: 50 160 7 7 (392000)
I0308 01:11:49.465353  9810 net.cpp:67] Creating Layer inception_5a/3x3
I0308 01:11:49.465358  9810 net.cpp:394] inception_5a/3x3 <- inception_5a/3x3_reduce
I0308 01:11:49.465366  9810 net.cpp:356] inception_5a/3x3 -> inception_5a/3x3
I0308 01:11:49.465373  9810 net.cpp:96] Setting up inception_5a/3x3
I0308 01:11:49.469252  9810 net.cpp:103] Top shape: 50 320 7 7 (784000)
I0308 01:11:49.469275  9810 net.cpp:67] Creating Layer inception_5a/relu_3x3
I0308 01:11:49.469281  9810 net.cpp:394] inception_5a/relu_3x3 <- inception_5a/3x3
I0308 01:11:49.469290  9810 net.cpp:345] inception_5a/relu_3x3 -> inception_5a/3x3 (in-place)
I0308 01:11:49.469297  9810 net.cpp:96] Setting up inception_5a/relu_3x3
I0308 01:11:49.469305  9810 net.cpp:103] Top shape: 50 320 7 7 (784000)
I0308 01:11:49.469312  9810 net.cpp:67] Creating Layer inception_5a/5x5_reduce
I0308 01:11:49.469317  9810 net.cpp:394] inception_5a/5x5_reduce <- pool4/3x3_s2_pool4/3x3_s2_0_split_2
I0308 01:11:49.469326  9810 net.cpp:356] inception_5a/5x5_reduce -> inception_5a/5x5_reduce
I0308 01:11:49.469332  9810 net.cpp:96] Setting up inception_5a/5x5_reduce
I0308 01:11:49.469702  9810 net.cpp:103] Top shape: 50 32 7 7 (78400)
I0308 01:11:49.469729  9810 net.cpp:67] Creating Layer inception_5a/relu_5x5_reduce
I0308 01:11:49.469735  9810 net.cpp:394] inception_5a/relu_5x5_reduce <- inception_5a/5x5_reduce
I0308 01:11:49.469741  9810 net.cpp:345] inception_5a/relu_5x5_reduce -> inception_5a/5x5_reduce (in-place)
I0308 01:11:49.469765  9810 net.cpp:96] Setting up inception_5a/relu_5x5_reduce
I0308 01:11:49.469774  9810 net.cpp:103] Top shape: 50 32 7 7 (78400)
I0308 01:11:49.469784  9810 net.cpp:67] Creating Layer inception_5a/5x5
I0308 01:11:49.469787  9810 net.cpp:394] inception_5a/5x5 <- inception_5a/5x5_reduce
I0308 01:11:49.469794  9810 net.cpp:356] inception_5a/5x5 -> inception_5a/5x5
I0308 01:11:49.469801  9810 net.cpp:96] Setting up inception_5a/5x5
I0308 01:11:49.470808  9810 net.cpp:103] Top shape: 50 128 7 7 (313600)
I0308 01:11:49.470834  9810 net.cpp:67] Creating Layer inception_5a/relu_5x5
I0308 01:11:49.470839  9810 net.cpp:394] inception_5a/relu_5x5 <- inception_5a/5x5
I0308 01:11:49.470846  9810 net.cpp:345] inception_5a/relu_5x5 -> inception_5a/5x5 (in-place)
I0308 01:11:49.470854  9810 net.cpp:96] Setting up inception_5a/relu_5x5
I0308 01:11:49.470860  9810 net.cpp:103] Top shape: 50 128 7 7 (313600)
I0308 01:11:49.470866  9810 net.cpp:67] Creating Layer inception_5a/pool
I0308 01:11:49.470871  9810 net.cpp:394] inception_5a/pool <- pool4/3x3_s2_pool4/3x3_s2_0_split_3
I0308 01:11:49.470880  9810 net.cpp:356] inception_5a/pool -> inception_5a/pool
I0308 01:11:49.470885  9810 net.cpp:96] Setting up inception_5a/pool
I0308 01:11:49.470893  9810 net.cpp:103] Top shape: 50 832 7 7 (2038400)
I0308 01:11:49.470901  9810 net.cpp:67] Creating Layer inception_5a/pool_proj
I0308 01:11:49.470906  9810 net.cpp:394] inception_5a/pool_proj <- inception_5a/pool
I0308 01:11:49.470913  9810 net.cpp:356] inception_5a/pool_proj -> inception_5a/pool_proj
I0308 01:11:49.470921  9810 net.cpp:96] Setting up inception_5a/pool_proj
I0308 01:11:49.471925  9810 net.cpp:103] Top shape: 50 128 7 7 (313600)
I0308 01:11:49.471946  9810 net.cpp:67] Creating Layer inception_5a/relu_pool_proj
I0308 01:11:49.471953  9810 net.cpp:394] inception_5a/relu_pool_proj <- inception_5a/pool_proj
I0308 01:11:49.471961  9810 net.cpp:345] inception_5a/relu_pool_proj -> inception_5a/pool_proj (in-place)
I0308 01:11:49.471968  9810 net.cpp:96] Setting up inception_5a/relu_pool_proj
I0308 01:11:49.471976  9810 net.cpp:103] Top shape: 50 128 7 7 (313600)
I0308 01:11:49.471982  9810 net.cpp:67] Creating Layer inception_5a/output
I0308 01:11:49.471985  9810 net.cpp:394] inception_5a/output <- inception_5a/1x1
I0308 01:11:49.471992  9810 net.cpp:394] inception_5a/output <- inception_5a/3x3
I0308 01:11:49.471997  9810 net.cpp:394] inception_5a/output <- inception_5a/5x5
I0308 01:11:49.472002  9810 net.cpp:394] inception_5a/output <- inception_5a/pool_proj
I0308 01:11:49.472007  9810 net.cpp:356] inception_5a/output -> inception_5a/output
I0308 01:11:49.472013  9810 net.cpp:96] Setting up inception_5a/output
I0308 01:11:49.472018  9810 net.cpp:103] Top shape: 50 832 7 7 (2038400)
I0308 01:11:49.472024  9810 net.cpp:67] Creating Layer inception_5a/output_inception_5a/output_0_split
I0308 01:11:49.472028  9810 net.cpp:394] inception_5a/output_inception_5a/output_0_split <- inception_5a/output
I0308 01:11:49.472036  9810 net.cpp:356] inception_5a/output_inception_5a/output_0_split -> inception_5a/output_inception_5a/output_0_split_0
I0308 01:11:49.472043  9810 net.cpp:356] inception_5a/output_inception_5a/output_0_split -> inception_5a/output_inception_5a/output_0_split_1
I0308 01:11:49.472050  9810 net.cpp:356] inception_5a/output_inception_5a/output_0_split -> inception_5a/output_inception_5a/output_0_split_2
I0308 01:11:49.472057  9810 net.cpp:356] inception_5a/output_inception_5a/output_0_split -> inception_5a/output_inception_5a/output_0_split_3
I0308 01:11:49.472062  9810 net.cpp:96] Setting up inception_5a/output_inception_5a/output_0_split
I0308 01:11:49.472067  9810 net.cpp:103] Top shape: 50 832 7 7 (2038400)
I0308 01:11:49.472071  9810 net.cpp:103] Top shape: 50 832 7 7 (2038400)
I0308 01:11:49.472075  9810 net.cpp:103] Top shape: 50 832 7 7 (2038400)
I0308 01:11:49.472079  9810 net.cpp:103] Top shape: 50 832 7 7 (2038400)
I0308 01:11:49.472087  9810 net.cpp:67] Creating Layer inception_5b/1x1
I0308 01:11:49.472107  9810 net.cpp:394] inception_5b/1x1 <- inception_5a/output_inception_5a/output_0_split_0
I0308 01:11:49.472115  9810 net.cpp:356] inception_5b/1x1 -> inception_5b/1x1
I0308 01:11:49.472122  9810 net.cpp:96] Setting up inception_5b/1x1
I0308 01:11:49.474881  9810 net.cpp:103] Top shape: 50 384 7 7 (940800)
I0308 01:11:49.474906  9810 net.cpp:67] Creating Layer inception_5b/relu_1x1
I0308 01:11:49.474912  9810 net.cpp:394] inception_5b/relu_1x1 <- inception_5b/1x1
I0308 01:11:49.474920  9810 net.cpp:345] inception_5b/relu_1x1 -> inception_5b/1x1 (in-place)
I0308 01:11:49.474926  9810 net.cpp:96] Setting up inception_5b/relu_1x1
I0308 01:11:49.474932  9810 net.cpp:103] Top shape: 50 384 7 7 (940800)
I0308 01:11:49.474941  9810 net.cpp:67] Creating Layer inception_5b/3x3_reduce
I0308 01:11:49.474946  9810 net.cpp:394] inception_5b/3x3_reduce <- inception_5a/output_inception_5a/output_0_split_1
I0308 01:11:49.474953  9810 net.cpp:356] inception_5b/3x3_reduce -> inception_5b/3x3_reduce
I0308 01:11:49.474961  9810 net.cpp:96] Setting up inception_5b/3x3_reduce
I0308 01:11:49.476328  9810 net.cpp:103] Top shape: 50 192 7 7 (470400)
I0308 01:11:49.476349  9810 net.cpp:67] Creating Layer inception_5b/relu_3x3_reduce
I0308 01:11:49.476356  9810 net.cpp:394] inception_5b/relu_3x3_reduce <- inception_5b/3x3_reduce
I0308 01:11:49.476364  9810 net.cpp:345] inception_5b/relu_3x3_reduce -> inception_5b/3x3_reduce (in-place)
I0308 01:11:49.476372  9810 net.cpp:96] Setting up inception_5b/relu_3x3_reduce
I0308 01:11:49.476378  9810 net.cpp:103] Top shape: 50 192 7 7 (470400)
I0308 01:11:49.476385  9810 net.cpp:67] Creating Layer inception_5b/3x3
I0308 01:11:49.476389  9810 net.cpp:394] inception_5b/3x3 <- inception_5b/3x3_reduce
I0308 01:11:49.476398  9810 net.cpp:356] inception_5b/3x3 -> inception_5b/3x3
I0308 01:11:49.476404  9810 net.cpp:96] Setting up inception_5b/3x3
I0308 01:11:49.481886  9810 net.cpp:103] Top shape: 50 384 7 7 (940800)
I0308 01:11:49.481909  9810 net.cpp:67] Creating Layer inception_5b/relu_3x3
I0308 01:11:49.481914  9810 net.cpp:394] inception_5b/relu_3x3 <- inception_5b/3x3
I0308 01:11:49.481922  9810 net.cpp:345] inception_5b/relu_3x3 -> inception_5b/3x3 (in-place)
I0308 01:11:49.481930  9810 net.cpp:96] Setting up inception_5b/relu_3x3
I0308 01:11:49.481936  9810 net.cpp:103] Top shape: 50 384 7 7 (940800)
I0308 01:11:49.481943  9810 net.cpp:67] Creating Layer inception_5b/5x5_reduce
I0308 01:11:49.481948  9810 net.cpp:394] inception_5b/5x5_reduce <- inception_5a/output_inception_5a/output_0_split_2
I0308 01:11:49.481957  9810 net.cpp:356] inception_5b/5x5_reduce -> inception_5b/5x5_reduce
I0308 01:11:49.481964  9810 net.cpp:96] Setting up inception_5b/5x5_reduce
I0308 01:11:49.482434  9810 net.cpp:103] Top shape: 50 48 7 7 (117600)
I0308 01:11:49.482456  9810 net.cpp:67] Creating Layer inception_5b/relu_5x5_reduce
I0308 01:11:49.482462  9810 net.cpp:394] inception_5b/relu_5x5_reduce <- inception_5b/5x5_reduce
I0308 01:11:49.482470  9810 net.cpp:345] inception_5b/relu_5x5_reduce -> inception_5b/5x5_reduce (in-place)
I0308 01:11:49.482477  9810 net.cpp:96] Setting up inception_5b/relu_5x5_reduce
I0308 01:11:49.482484  9810 net.cpp:103] Top shape: 50 48 7 7 (117600)
I0308 01:11:49.482493  9810 net.cpp:67] Creating Layer inception_5b/5x5
I0308 01:11:49.482497  9810 net.cpp:394] inception_5b/5x5 <- inception_5b/5x5_reduce
I0308 01:11:49.482506  9810 net.cpp:356] inception_5b/5x5 -> inception_5b/5x5
I0308 01:11:49.482512  9810 net.cpp:96] Setting up inception_5b/5x5
I0308 01:11:49.483813  9810 net.cpp:103] Top shape: 50 128 7 7 (313600)
I0308 01:11:49.483832  9810 net.cpp:67] Creating Layer inception_5b/relu_5x5
I0308 01:11:49.483839  9810 net.cpp:394] inception_5b/relu_5x5 <- inception_5b/5x5
I0308 01:11:49.483844  9810 net.cpp:345] inception_5b/relu_5x5 -> inception_5b/5x5 (in-place)
I0308 01:11:49.483850  9810 net.cpp:96] Setting up inception_5b/relu_5x5
I0308 01:11:49.483856  9810 net.cpp:103] Top shape: 50 128 7 7 (313600)
I0308 01:11:49.483865  9810 net.cpp:67] Creating Layer inception_5b/pool
I0308 01:11:49.483883  9810 net.cpp:394] inception_5b/pool <- inception_5a/output_inception_5a/output_0_split_3
I0308 01:11:49.483891  9810 net.cpp:356] inception_5b/pool -> inception_5b/pool
I0308 01:11:49.483897  9810 net.cpp:96] Setting up inception_5b/pool
I0308 01:11:49.483906  9810 net.cpp:103] Top shape: 50 832 7 7 (2038400)
I0308 01:11:49.483914  9810 net.cpp:67] Creating Layer inception_5b/pool_proj
I0308 01:11:49.483919  9810 net.cpp:394] inception_5b/pool_proj <- inception_5b/pool
I0308 01:11:49.483925  9810 net.cpp:356] inception_5b/pool_proj -> inception_5b/pool_proj
I0308 01:11:49.483932  9810 net.cpp:96] Setting up inception_5b/pool_proj
I0308 01:11:49.484853  9810 net.cpp:103] Top shape: 50 128 7 7 (313600)
I0308 01:11:49.484874  9810 net.cpp:67] Creating Layer inception_5b/relu_pool_proj
I0308 01:11:49.484879  9810 net.cpp:394] inception_5b/relu_pool_proj <- inception_5b/pool_proj
I0308 01:11:49.484887  9810 net.cpp:345] inception_5b/relu_pool_proj -> inception_5b/pool_proj (in-place)
I0308 01:11:49.484894  9810 net.cpp:96] Setting up inception_5b/relu_pool_proj
I0308 01:11:49.484901  9810 net.cpp:103] Top shape: 50 128 7 7 (313600)
I0308 01:11:49.484907  9810 net.cpp:67] Creating Layer inception_5b/output
I0308 01:11:49.484911  9810 net.cpp:394] inception_5b/output <- inception_5b/1x1
I0308 01:11:49.484916  9810 net.cpp:394] inception_5b/output <- inception_5b/3x3
I0308 01:11:49.484922  9810 net.cpp:394] inception_5b/output <- inception_5b/5x5
I0308 01:11:49.484926  9810 net.cpp:394] inception_5b/output <- inception_5b/pool_proj
I0308 01:11:49.484935  9810 net.cpp:356] inception_5b/output -> inception_5b/output
I0308 01:11:49.484941  9810 net.cpp:96] Setting up inception_5b/output
I0308 01:11:49.484946  9810 net.cpp:103] Top shape: 50 1024 7 7 (2508800)
I0308 01:11:49.484951  9810 net.cpp:67] Creating Layer pool5/7x7_s1
I0308 01:11:49.484956  9810 net.cpp:394] pool5/7x7_s1 <- inception_5b/output
I0308 01:11:49.484961  9810 net.cpp:356] pool5/7x7_s1 -> pool5/7x7_s1
I0308 01:11:49.484967  9810 net.cpp:96] Setting up pool5/7x7_s1
I0308 01:11:49.484974  9810 net.cpp:103] Top shape: 50 1024 1 1 (51200)
I0308 01:11:49.484982  9810 net.cpp:67] Creating Layer pool5/drop_7x7_s1
I0308 01:11:49.484987  9810 net.cpp:394] pool5/drop_7x7_s1 <- pool5/7x7_s1
I0308 01:11:49.484993  9810 net.cpp:345] pool5/drop_7x7_s1 -> pool5/7x7_s1 (in-place)
I0308 01:11:49.484998  9810 net.cpp:96] Setting up pool5/drop_7x7_s1
I0308 01:11:49.485003  9810 net.cpp:103] Top shape: 50 1024 1 1 (51200)
I0308 01:11:49.485009  9810 net.cpp:67] Creating Layer loss3/classifier
I0308 01:11:49.485014  9810 net.cpp:394] loss3/classifier <- pool5/7x7_s1
I0308 01:11:49.485024  9810 net.cpp:356] loss3/classifier -> loss3/classifier
I0308 01:11:49.485031  9810 net.cpp:96] Setting up loss3/classifier
I0308 01:11:49.486063  9810 net.cpp:103] Top shape: 50 121 1 1 (6050)
I0308 01:11:49.486098  9810 net.cpp:67] Creating Layer loss3/classifier_loss3/classifier_0_split
I0308 01:11:49.486104  9810 net.cpp:394] loss3/classifier_loss3/classifier_0_split <- loss3/classifier
I0308 01:11:49.486109  9810 net.cpp:356] loss3/classifier_loss3/classifier_0_split -> loss3/classifier_loss3/classifier_0_split_0
I0308 01:11:49.486117  9810 net.cpp:356] loss3/classifier_loss3/classifier_0_split -> loss3/classifier_loss3/classifier_0_split_1
I0308 01:11:49.486124  9810 net.cpp:356] loss3/classifier_loss3/classifier_0_split -> loss3/classifier_loss3/classifier_0_split_2
I0308 01:11:49.486131  9810 net.cpp:96] Setting up loss3/classifier_loss3/classifier_0_split
I0308 01:11:49.486138  9810 net.cpp:103] Top shape: 50 121 1 1 (6050)
I0308 01:11:49.486142  9810 net.cpp:103] Top shape: 50 121 1 1 (6050)
I0308 01:11:49.486146  9810 net.cpp:103] Top shape: 50 121 1 1 (6050)
I0308 01:11:49.486152  9810 net.cpp:67] Creating Layer loss3/loss3
I0308 01:11:49.486156  9810 net.cpp:394] loss3/loss3 <- loss3/classifier_loss3/classifier_0_split_0
I0308 01:11:49.486162  9810 net.cpp:394] loss3/loss3 <- label_data_1_split_6
I0308 01:11:49.486170  9810 net.cpp:356] loss3/loss3 -> loss3/loss3
I0308 01:11:49.486191  9810 net.cpp:96] Setting up loss3/loss3
I0308 01:11:49.486213  9810 net.cpp:103] Top shape: 1 1 1 1 (1)
I0308 01:11:49.486223  9810 net.cpp:109]     with loss weight 1
I0308 01:11:49.486238  9810 net.cpp:67] Creating Layer loss3/top-1
I0308 01:11:49.486243  9810 net.cpp:394] loss3/top-1 <- loss3/classifier_loss3/classifier_0_split_1
I0308 01:11:49.486248  9810 net.cpp:394] loss3/top-1 <- label_data_1_split_7
I0308 01:11:49.486253  9810 net.cpp:356] loss3/top-1 -> loss3/top-1
I0308 01:11:49.486260  9810 net.cpp:96] Setting up loss3/top-1
I0308 01:11:49.486264  9810 net.cpp:103] Top shape: 1 1 1 1 (1)
I0308 01:11:49.486274  9810 net.cpp:67] Creating Layer loss3/top-5
I0308 01:11:49.486277  9810 net.cpp:394] loss3/top-5 <- loss3/classifier_loss3/classifier_0_split_2
I0308 01:11:49.486282  9810 net.cpp:394] loss3/top-5 <- label_data_1_split_8
I0308 01:11:49.486289  9810 net.cpp:356] loss3/top-5 -> loss3/top-5
I0308 01:11:49.486294  9810 net.cpp:96] Setting up loss3/top-5
I0308 01:11:49.486299  9810 net.cpp:103] Top shape: 1 1 1 1 (1)
I0308 01:11:49.486304  9810 net.cpp:172] loss3/top-5 does not need backward computation.
I0308 01:11:49.486307  9810 net.cpp:172] loss3/top-1 does not need backward computation.
I0308 01:11:49.486310  9810 net.cpp:170] loss3/loss3 needs backward computation.
I0308 01:11:49.486315  9810 net.cpp:170] loss3/classifier_loss3/classifier_0_split needs backward computation.
I0308 01:11:49.486318  9810 net.cpp:170] loss3/classifier needs backward computation.
…
