…
I0308 11:37:41.712082  1599 net.cpp:275] The NetState phase (0) differed from the phase (1) specified by a rule in layer loss3/top-1
I0308 11:37:41.712093  1599 net.cpp:275] The NetState phase (0) differed from the phase (1) specified by a rule in layer loss3/top-5
I0308 11:37:41.713028  1599 net.cpp:39] Initializing net from parameters: 
name: "GoogleNet"
layers {
  top: "data"
  top: "label"
  name: "data"
  type: DATA
  data_param {
    source: "data/256_scale_aug2/train_lmdb"
    batch_size: 25
    backend: LMDB
  }
  include {
    phase: TRAIN
  }
  transform_param {
    mirror: true
    crop_size: 224
    mean_file: "data/256_scale_aug2/train_mean.binaryproto"
  }
}
layers {
  bottom: "data"
  top: "conv1/7x7_s2"
  name: "conv1/7x7_s2"
  type: CONVOLUTION
  blobs_lr: 1
  blobs_lr: 2
  weight_decay: 1
  weight_decay: 0
  convolution_param {
    num_output: 64
    pad: 3
    kernel_size: 7
    stride: 2
    weight_filler {
      type: "xavier"
      std: 0.1
    }
    bias_filler {
      type: "constant"
      value: 0.2
    }
  }
}
layers {
  bottom: "conv1/7x7_s2"
  top: "conv1/7x7_s2"
  name: "conv1/relu_7x7"
  type: RELU
}
layers {
  bottom: "conv1/7x7_s2"
  top: "pool1/3x3_s2"
  name: "pool1/3x3_s2"
  type: POOLING
  pooling_param {
    pool: MAX
    kernel_size: 3
    stride: 2
  }
}
layers {
  bottom: "pool1/3x3_s2"
  top: "pool1/norm1"
  name: "pool1/norm1"
  type: LRN
  lrn_param {
    local_size: 5
    alpha: 0.0001
    beta: 0.75
  }
}
layers {
  bottom: "pool1/norm1"
  top: "conv2/3x3_reduce"
  name: "conv2/3x3_reduce"
  type: CONVOLUTION
  blobs_lr: 1
  blobs_lr: 2
  weight_decay: 1
  weight_decay: 0
  convolution_param {
    num_output: 64
    kernel_size: 1
    weight_filler {
      type: "xavier"
      std: 0.1
    }
    bias_filler {
      type: "constant"
      value: 0.2
    }
  }
}
layers {
  bottom: "conv2/3x3_reduce"
  top: "conv2/3x3_reduce"
  name: "conv2/relu_3x3_reduce"
  type: RELU
}
layers {
  bottom: "conv2/3x3_reduce"
  top: "conv2/3x3"
  name: "conv2/3x3"
  type: CONVOLUTION
  blobs_lr: 1
  blobs_lr: 2
  weight_decay: 1
  weight_decay: 0
  convolution_param {
    num_output: 192
    pad: 1
    kernel_size: 3
    weight_filler {
      type: "xavier"
      std: 0.03
    }
    bias_filler {
      type: "constant"
      value: 0.2
    }
  }
}
layers {
  bottom: "conv2/3x3"
  top: "conv2/3x3"
  name: "conv2/relu_3x3"
  type: RELU
}
layers {
  bottom: "conv2/3x3"
  top: "conv2/norm2"
  name: "conv2/norm2"
  type: LRN
  lrn_param {
    local_size: 5
    alpha: 0.0001
    beta: 0.75
  }
}
layers {
  bottom: "conv2/norm2"
  top: "pool2/3x3_s2"
  name: "pool2/3x3_s2"
  type: POOLING
  pooling_param {
    pool: MAX
    kernel_size: 3
    stride: 2
  }
}
layers {
  bottom: "pool2/3x3_s2"
  top: "inception_3a/1x1"
  name: "inception_3a/1x1"
  type: CONVOLUTION
  blobs_lr: 1
  blobs_lr: 2
  weight_decay: 1
  weight_decay: 0
  convolution_param {
    num_output: 64
    kernel_size: 1
    weight_filler {
      type: "xavier"
      std: 0.03
    }
    bias_filler {
      type: "constant"
      value: 0.2
    }
  }
}
layers {
  bottom: "inception_3a/1x1"
  top: "inception_3a/1x1"
  name: "inception_3a/relu_1x1"
  type: RELU
}
layers {
  bottom: "pool2/3x3_s2"
  top: "inception_3a/3x3_reduce"
  name: "inception_3a/3x3_reduce"
  type: CONVOLUTION
  blobs_lr: 1
  blobs_lr: 2
  weight_decay: 1
  weight_decay: 0
  convolution_param {
    num_output: 96
    kernel_size: 1
    weight_filler {
      type: "xavier"
      std: 0.09
    }
    bias_filler {
      type: "constant"
      value: 0.2
    }
  }
}
layers {
  bottom: "inception_3a/3x3_reduce"
  top: "inception_3a/3x3_reduce"
  name: "inception_3a/relu_3x3_reduce"
  type: RELU
}
layers {
  bottom: "inception_3a/3x3_reduce"
  top: "inception_3a/3x3"
  name: "inception_3a/3x3"
  type: CONVOLUTION
  blobs_lr: 1
  blobs_lr: 2
  weight_decay: 1
  weight_decay: 0
  convolution_param {
    num_output: 128
    pad: 1
    kernel_size: 3
    weight_filler {
      type: "xavier"
      std: 0.03
    }
    bias_filler {
      type: "constant"
      value: 0.2
    }
  }
}
layers {
  bottom: "inception_3a/3x3"
  top: "inception_3a/3x3"
  name: "inception_3a/relu_3x3"
  type: RELU
}
layers {
  bottom: "pool2/3x3_s2"
  top: "inception_3a/5x5_reduce"
  name: "inception_3a/5x5_reduce"
  type: CONVOLUTION
  blobs_lr: 1
  blobs_lr: 2
  weight_decay: 1
  weight_decay: 0
  convolution_param {
    num_output: 16
    kernel_size: 1
    weight_filler {
      type: "xavier"
      std: 0.2
    }
    bias_filler {
      type: "constant"
      value: 0.2
    }
  }
}
layers {
  bottom: "inception_3a/5x5_reduce"
  top: "inception_3a/5x5_reduce"
  name: "inception_3a/relu_5x5_reduce"
  type: RELU
}
layers {
  bottom: "inception_3a/5x5_reduce"
  top: "inception_3a/5x5"
  name: "inception_3a/5x5"
  type: CONVOLUTION
  blobs_lr: 1
  blobs_lr: 2
  weight_decay: 1
  weight_decay: 0
  convolution_param {
    num_output: 32
    pad: 2
    kernel_size: 5
    weight_filler {
      type: "xavier"
      std: 0.03
    }
    bias_filler {
      type: "constant"
      value: 0.2
    }
  }
}
layers {
  bottom: "inception_3a/5x5"
  top: "inception_3a/5x5"
  name: "inception_3a/relu_5x5"
  type: RELU
}
layers {
  bottom: "pool2/3x3_s2"
  top: "inception_3a/pool"
  name: "inception_3a/pool"
  type: POOLING
  pooling_param {
    pool: MAX
    kernel_size: 3
    stride: 1
    pad: 1
  }
}
layers {
  bottom: "inception_3a/pool"
  top: "inception_3a/pool_proj"
  name: "inception_3a/pool_proj"
  type: CONVOLUTION
  blobs_lr: 1
  blobs_lr: 2
  weight_decay: 1
  weight_decay: 0
  convolution_param {
    num_output: 32
    kernel_size: 1
    weight_filler {
      type: "xavier"
      std: 0.1
    }
    bias_filler {
      type: "constant"
      value: 0.2
    }
  }
}
layers {
  bottom: "inception_3a/pool_proj"
  top: "inception_3a/pool_proj"
  name: "inception_3a/relu_pool_proj"
  type: RELU
}
layers {
  bottom: "inception_3a/1x1"
  bottom: "inception_3a/3x3"
  bottom: "inception_3a/5x5"
  bottom: "inception_3a/pool_proj"
  top: "inception_3a/output"
  name: "inception_3a/output"
  type: CONCAT
}
layers {
  bottom: "inception_3a/output"
  top: "inception_3b/1x1"
  name: "inception_3b/1x1"
  type: CONVOLUTION
  blobs_lr: 1
  blobs_lr: 2
  weight_decay: 1
  weight_decay: 0
  convolution_param {
    num_output: 128
    kernel_size: 1
    weight_filler {
      type: "xavier"
      std: 0.03
    }
    bias_filler {
      type: "constant"
      value: 0.2
    }
  }
}
layers {
  bottom: "inception_3b/1x1"
  top: "inception_3b/1x1"
  name: "inception_3b/relu_1x1"
  type: RELU
}
layers {
  bottom: "inception_3a/output"
  top: "inception_3b/3x3_reduce"
  name: "inception_3b/3x3_reduce"
  type: CONVOLUTION
  blobs_lr: 1
  blobs_lr: 2
  weight_decay: 1
  weight_decay: 0
  convolution_param {
    num_output: 128
    kernel_size: 1
    weight_filler {
      type: "xavier"
      std: 0.09
    }
    bias_filler {
      type: "constant"
      value: 0.2
    }
  }
}
layers {
  bottom: "inception_3b/3x3_reduce"
  top: "inception_3b/3x3_reduce"
  name: "inception_3b/relu_3x3_reduce"
  type: RELU
}
layers {
  bottom: "inception_3b/3x3_reduce"
  top: "inception_3b/3x3"
  name: "inception_3b/3x3"
  type: CONVOLUTION
  blobs_lr: 1
  blobs_lr: 2
  weight_decay: 1
  weight_decay: 0
  convolution_param {
    num_output: 192
    pad: 1
    kernel_size: 3
    weight_filler {
      type: "xavier"
      std: 0.03
    }
    bias_filler {
      type: "constant"
      value: 0.2
    }
  }
}
layers {
  bottom: "inception_3b/3x3"
  top: "inception_3b/3x3"
  name: "inception_3b/relu_3x3"
  type: RELU
}
layers {
  bottom: "inception_3a/output"
  top: "inception_3b/5x5_reduce"
  name: "inception_3b/5x5_reduce"
  type: CONVOLUTION
  blobs_lr: 1
  blobs_lr: 2
  weight_decay: 1
  weight_decay: 0
  convolution_param {
    num_output: 32
    kernel_size: 1
    weight_filler {
      type: "xavier"
      std: 0.2
    }
    bias_filler {
      type: "constant"
      value: 0.2
    }
  }
}
layers {
  bottom: "inception_3b/5x5_reduce"
  top: "inception_3b/5x5_reduce"
  name: "inception_3b/relu_5x5_reduce"
  type: RELU
}
layers {
  bottom: "inception_3b/5x5_reduce"
  top: "inception_3b/5x5"
  name: "inception_3b/5x5"
  type: CONVOLUTION
  blobs_lr: 1
  blobs_lr: 2
  weight_decay: 1
  weight_decay: 0
  convolution_param {
    num_output: 96
    pad: 2
    kernel_size: 5
    weight_filler {
      type: "xavier"
      std: 0.03
    }
    bias_filler {
      type: "constant"
      value: 0.2
    }
  }
}
layers {
  bottom: "inception_3b/5x5"
  top: "inception_3b/5x5"
  name: "inception_3b/relu_5x5"
  type: RELU
}
layers {
  bottom: "inception_3a/output"
  top: "inception_3b/pool"
  name: "inception_3b/pool"
  type: POOLING
  pooling_param {
    pool: MAX
    kernel_size: 3
    stride: 1
    pad: 1
  }
}
layers {
  bottom: "inception_3b/pool"
  top: "inception_3b/pool_proj"
  name: "inception_3b/pool_proj"
  type: CONVOLUTION
  blobs_lr: 1
  blobs_lr: 2
  weight_decay: 1
  weight_decay: 0
  convolution_param {
    num_output: 64
    kernel_size: 1
    weight_filler {
      type: "xavier"
      std: 0.1
    }
    bias_filler {
      type: "constant"
      value: 0.2
    }
  }
}
layers {
  bottom: "inception_3b/pool_proj"
  top: "inception_3b/pool_proj"
  name: "inception_3b/relu_pool_proj"
  type: RELU
}
layers {
  bottom: "inception_3b/1x1"
  bottom: "inception_3b/3x3"
  bottom: "inception_3b/5x5"
  bottom: "inception_3b/pool_proj"
  top: "inception_3b/output"
  name: "inception_3b/output"
  type: CONCAT
}
layers {
  bottom: "inception_3b/output"
  top: "pool3/3x3_s2"
  name: "pool3/3x3_s2"
  type: POOLING
  pooling_param {
    pool: MAX
    kernel_size: 3
    stride: 2
  }
}
layers {
  bottom: "pool3/3x3_s2"
  top: "inception_4a/1x1"
  name: "inception_4a/1x1"
  type: CONVOLUTION
  blobs_lr: 1
  blobs_lr: 2
  weight_decay: 1
  weight_decay: 0
  convolution_param {
    num_output: 192
    kernel_size: 1
    weight_filler {
      type: "xavier"
      std: 0.03
    }
    bias_filler {
      type: "constant"
      value: 0.2
    }
  }
}
layers {
  bottom: "inception_4a/1x1"
  top: "inception_4a/1x1"
  name: "inception_4a/relu_1x1"
  type: RELU
}
layers {
  bottom: "pool3/3x3_s2"
  top: "inception_4a/3x3_reduce"
  name: "inception_4a/3x3_reduce"
  type: CONVOLUTION
  blobs_lr: 1
  blobs_lr: 2
  weight_decay: 1
  weight_decay: 0
  convolution_param {
    num_output: 96
    kernel_size: 1
    weight_filler {
      type: "xavier"
      std: 0.09
    }
    bias_filler {
      type: "constant"
      value: 0.2
    }
  }
}
layers {
  bottom: "inception_4a/3x3_reduce"
  top: "inception_4a/3x3_reduce"
  name: "inception_4a/relu_3x3_reduce"
  type: RELU
}
layers {
  bottom: "inception_4a/3x3_reduce"
  top: "inception_4a/3x3"
  name: "inception_4a/3x3"
  type: CONVOLUTION
  blobs_lr: 1
  blobs_lr: 2
  weight_decay: 1
  weight_decay: 0
  convolution_param {
    num_output: 208
    pad: 1
    kernel_size: 3
    weight_filler {
      type: "xavier"
      std: 0.03
    }
    bias_filler {
      type: "constant"
      value: 0.2
    }
  }
}
layers {
  bottom: "inception_4a/3x3"
  top: "inception_4a/3x3"
  name: "inception_4a/relu_3x3"
  type: RELU
}
layers {
  bottom: "pool3/3x3_s2"
  top: "inception_4a/5x5_reduce"
  name: "inception_4a/5x5_reduce"
  type: CONVOLUTION
  blobs_lr: 1
  blobs_lr: 2
  weight_decay: 1
  weight_decay: 0
  convolution_param {
    num_output: 16
    kernel_size: 1
    weight_filler {
      type: "xavier"
      std: 0.2
    }
    bias_filler {
      type: "constant"
      value: 0.2
    }
  }
}
layers {
  bottom: "inception_4a/5x5_reduce"
  top: "inception_4a/5x5_reduce"
  name: "inception_4a/relu_5x5_reduce"
  type: RELU
}
layers {
  bottom: "inception_4a/5x5_reduce"
  top: "inception_4a/5x5"
  name: "inception_4a/5x5"
  type: CONVOLUTION
  blobs_lr: 1
  blobs_lr: 2
  weight_decay: 1
  weight_decay: 0
  convolution_param {
    num_output: 48
    pad: 2
    kernel_size: 5
    weight_filler {
      type: "xavier"
      std: 0.03
    }
    bias_filler {
      type: "constant"
      value: 0.2
    }
  }
}
layers {
  bottom: "inception_4a/5x5"
  top: "inception_4a/5x5"
  name: "inception_4a/relu_5x5"
  type: RELU
}
layers {
  bottom: "pool3/3x3_s2"
  top: "inception_4a/pool"
  name: "inception_4a/pool"
  type: POOLING
  pooling_param {
    pool: MAX
    kernel_size: 3
    stride: 1
    pad: 1
  }
}
layers {
  bottom: "inception_4a/pool"
  top: "inception_4a/pool_proj"
  name: "inception_4a/pool_proj"
  type: CONVOLUTION
  blobs_lr: 1
  blobs_lr: 2
  weight_decay: 1
  weight_decay: 0
  convolution_param {
    num_output: 64
    kernel_size: 1
    weight_filler {
      type: "xavier"
      std: 0.1
    }
    bias_filler {
      type: "constant"
      value: 0.2
    }
  }
}
layers {
  bottom: "inception_4a/pool_proj"
  top: "inception_4a/pool_proj"
  name: "inception_4a/relu_pool_proj"
  type: RELU
}
layers {
  bottom: "inception_4a/1x1"
  bottom: "inception_4a/3x3"
  bottom: "inception_4a/5x5"
  bottom: "inception_4a/pool_proj"
  top: "inception_4a/output"
  name: "inception_4a/output"
  type: CONCAT
}
layers {
  bottom: "inception_4a/output"
  top: "loss1/ave_pool"
  name: "loss1/ave_pool"
  type: POOLING
  pooling_param {
    pool: AVE
    kernel_size: 5
    stride: 3
  }
}
layers {
  bottom: "loss1/ave_pool"
  top: "loss1/conv"
  name: "loss1/conv"
  type: CONVOLUTION
  blobs_lr: 1
  blobs_lr: 2
  weight_decay: 1
  weight_decay: 0
  convolution_param {
    num_output: 128
    kernel_size: 1
    weight_filler {
      type: "xavier"
      std: 0.08
    }
    bias_filler {
      type: "constant"
      value: 0.2
    }
  }
}
layers {
  bottom: "loss1/conv"
  top: "loss1/conv"
  name: "loss1/relu_conv"
  type: RELU
}
layers {
  bottom: "loss1/conv"
  top: "loss1/fc"
  name: "loss1/fc"
  type: INNER_PRODUCT
  blobs_lr: 1
  blobs_lr: 2
  weight_decay: 1
  weight_decay: 0
  inner_product_param {
    num_output: 1024
    weight_filler {
      type: "xavier"
      std: 0.02
    }
    bias_filler {
      type: "constant"
      value: 0.2
    }
  }
}
layers {
  bottom: "loss1/fc"
  top: "loss1/fc"
  name: "loss1/relu_fc"
  type: RELU
}
layers {
  bottom: "loss1/fc"
  top: "loss1/fc"
  name: "loss1/drop_fc"
  type: DROPOUT
  dropout_param {
    dropout_ratio: 0.7
  }
}
layers {
  bottom: "loss1/fc"
  top: "loss1/classifier"
  name: "loss1/classifier"
  type: INNER_PRODUCT
  blobs_lr: 1
  blobs_lr: 2
  weight_decay: 1
  weight_decay: 0
  inner_product_param {
    num_output: 121
    weight_filler {
      type: "xavier"
      std: 0.0009765625
    }
    bias_filler {
      type: "constant"
      value: 0
    }
  }
}
layers {
  bottom: "loss1/classifier"
  bottom: "label"
  top: "loss1/loss1"
  name: "loss1/loss"
  type: SOFTMAX_LOSS
  loss_weight: 0.3
}
layers {
  bottom: "inception_4a/output"
  top: "inception_4b/1x1"
  name: "inception_4b/1x1"
  type: CONVOLUTION
  blobs_lr: 1
  blobs_lr: 2
  weight_decay: 1
  weight_decay: 0
  convolution_param {
    num_output: 160
    kernel_size: 1
    weight_filler {
      type: "xavier"
      std: 0.03
    }
    bias_filler {
      type: "constant"
      value: 0.2
    }
  }
}
layers {
  bottom: "inception_4b/1x1"
  top: "inception_4b/1x1"
  name: "inception_4b/relu_1x1"
  type: RELU
}
layers {
  bottom: "inception_4a/output"
  top: "inception_4b/3x3_reduce"
  name: "inception_4b/3x3_reduce"
  type: CONVOLUTION
  blobs_lr: 1
  blobs_lr: 2
  weight_decay: 1
  weight_decay: 0
  convolution_param {
    num_output: 112
    kernel_size: 1
    weight_filler {
      type: "xavier"
      std: 0.09
    }
    bias_filler {
      type: "constant"
      value: 0.2
    }
  }
}
layers {
  bottom: "inception_4b/3x3_reduce"
  top: "inception_4b/3x3_reduce"
  name: "inception_4b/relu_3x3_reduce"
  type: RELU
}
layers {
  bottom: "inception_4b/3x3_reduce"
  top: "inception_4b/3x3"
  name: "inception_4b/3x3"
  type: CONVOLUTION
  blobs_lr: 1
  blobs_lr: 2
  weight_decay: 1
  weight_decay: 0
  convolution_param {
    num_output: 224
    pad: 1
    kernel_size: 3
    weight_filler {
      type: "xavier"
      std: 0.03
    }
    bias_filler {
      type: "constant"
      value: 0.2
    }
  }
}
layers {
  bottom: "inception_4b/3x3"
  top: "inception_4b/3x3"
  name: "inception_4b/relu_3x3"
  type: RELU
}
layers {
  bottom: "inception_4a/output"
  top: "inception_4b/5x5_reduce"
  name: "inception_4b/5x5_reduce"
  type: CONVOLUTION
  blobs_lr: 1
  blobs_lr: 2
  weight_decay: 1
  weight_decay: 0
  convolution_param {
    num_output: 24
    kernel_size: 1
    weight_filler {
      type: "xavier"
      std: 0.2
    }
    bias_filler {
      type: "constant"
      value: 0.2
    }
  }
}
layers {
  bottom: "inception_4b/5x5_reduce"
  top: "inception_4b/5x5_reduce"
  name: "inception_4b/relu_5x5_reduce"
  type: RELU
}
layers {
  bottom: "inception_4b/5x5_reduce"
  top: "inception_4b/5x5"
  name: "inception_4b/5x5"
  type: CONVOLUTION
  blobs_lr: 1
  blobs_lr: 2
  weight_decay: 1
  weight_decay: 0
  convolution_param {
    num_output: 64
    pad: 2
    kernel_size: 5
    weight_filler {
      type: "xavier"
      std: 0.03
    }
    bias_filler {
      type: "constant"
      value: 0.2
    }
  }
}
layers {
  bottom: "inception_4b/5x5"
  top: "inception_4b/5x5"
  name: "inception_4b/relu_5x5"
  type: RELU
}
layers {
  bottom: "inception_4a/output"
  top: "inception_4b/pool"
  name: "inception_4b/pool"
  type: POOLING
  pooling_param {
    pool: MAX
    kernel_size: 3
    stride: 1
    pad: 1
  }
}
layers {
  bottom: "inception_4b/pool"
  top: "inception_4b/pool_proj"
  name: "inception_4b/pool_proj"
  type: CONVOLUTION
  blobs_lr: 1
  blobs_lr: 2
  weight_decay: 1
  weight_decay: 0
  convolution_param {
    num_output: 64
    kernel_size: 1
    weight_filler {
      type: "xavier"
      std: 0.1
    }
    bias_filler {
      type: "constant"
      value: 0.2
    }
  }
}
layers {
  bottom: "inception_4b/pool_proj"
  top: "inception_4b/pool_proj"
  name: "inception_4b/relu_pool_proj"
  type: RELU
}
layers {
  bottom: "inception_4b/1x1"
  bottom: "inception_4b/3x3"
  bottom: "inception_4b/5x5"
  bottom: "inception_4b/pool_proj"
  top: "inception_4b/output"
  name: "inception_4b/output"
  type: CONCAT
}
layers {
  bottom: "inception_4b/output"
  top: "inception_4c/1x1"
  name: "inception_4c/1x1"
  type: CONVOLUTION
  blobs_lr: 1
  blobs_lr: 2
  weight_decay: 1
  weight_decay: 0
  convolution_param {
    num_output: 128
    kernel_size: 1
    weight_filler {
      type: "xavier"
      std: 0.03
    }
    bias_filler {
      type: "constant"
      value: 0.2
    }
  }
}
layers {
  bottom: "inception_4c/1x1"
  top: "inception_4c/1x1"
  name: "inception_4c/relu_1x1"
  type: RELU
}
layers {
  bottom: "inception_4b/output"
  top: "inception_4c/3x3_reduce"
  name: "inception_4c/3x3_reduce"
  type: CONVOLUTION
  blobs_lr: 1
  blobs_lr: 2
  weight_decay: 1
  weight_decay: 0
  convolution_param {
    num_output: 128
    kernel_size: 1
    weight_filler {
      type: "xavier"
      std: 0.09
    }
    bias_filler {
      type: "constant"
      value: 0.2
    }
  }
}
layers {
  bottom: "inception_4c/3x3_reduce"
  top: "inception_4c/3x3_reduce"
  name: "inception_4c/relu_3x3_reduce"
  type: RELU
}
layers {
  bottom: "inception_4c/3x3_reduce"
  top: "inception_4c/3x3"
  name: "inception_4c/3x3"
  type: CONVOLUTION
  blobs_lr: 1
  blobs_lr: 2
  weight_decay: 1
  weight_decay: 0
  convolution_param {
    num_output: 256
    pad: 1
    kernel_size: 3
    weight_filler {
      type: "xavier"
      std: 0.03
    }
    bias_filler {
      type: "constant"
      value: 0.2
    }
  }
}
layers {
  bottom: "inception_4c/3x3"
  top: "inception_4c/3x3"
  name: "inception_4c/relu_3x3"
  type: RELU
}
layers {
  bottom: "inception_4b/output"
  top: "inception_4c/5x5_reduce"
  name: "inception_4c/5x5_reduce"
  type: CONVOLUTION
  blobs_lr: 1
  blobs_lr: 2
  weight_decay: 1
  weight_decay: 0
  convolution_param {
    num_output: 24
    kernel_size: 1
    weight_filler {
      type: "xavier"
      std: 0.2
    }
    bias_filler {
      type: "constant"
      value: 0.2
    }
  }
}
layers {
  bottom: "inception_4c/5x5_reduce"
  top: "inception_4c/5x5_reduce"
  name: "inception_4c/relu_5x5_reduce"
  type: RELU
}
layers {
  bottom: "inception_4c/5x5_reduce"
  top: "inception_4c/5x5"
  name: "inception_4c/5x5"
  type: CONVOLUTION
  blobs_lr: 1
  blobs_lr: 2
  weight_decay: 1
  weight_decay: 0
  convolution_param {
    num_output: 64
    pad: 2
    kernel_size: 5
    weight_filler {
      type: "xavier"
      std: 0.03
    }
    bias_filler {
      type: "constant"
      value: 0.2
    }
  }
}
layers {
  bottom: "inception_4c/5x5"
  top: "inception_4c/5x5"
  name: "inception_4c/relu_5x5"
  type: RELU
}
layers {
  bottom: "inception_4b/output"
  top: "inception_4c/pool"
  name: "inception_4c/pool"
  type: POOLING
  pooling_param {
    pool: MAX
    kernel_size: 3
    stride: 1
    pad: 1
  }
}
layers {
  bottom: "inception_4c/pool"
  top: "inception_4c/pool_proj"
  name: "inception_4c/pool_proj"
  type: CONVOLUTION
  blobs_lr: 1
  blobs_lr: 2
  weight_decay: 1
  weight_decay: 0
  convolution_param {
    num_output: 64
    kernel_size: 1
    weight_filler {
      type: "xavier"
      std: 0.1
    }
    bias_filler {
      type: "constant"
      value: 0.2
    }
  }
}
layers {
  bottom: "inception_4c/pool_proj"
  top: "inception_4c/pool_proj"
  name: "inception_4c/relu_pool_proj"
  type: RELU
}
layers {
  bottom: "inception_4c/1x1"
  bottom: "inception_4c/3x3"
  bottom: "inception_4c/5x5"
  bottom: "inception_4c/pool_proj"
  top: "inception_4c/output"
  name: "inception_4c/output"
  type: CONCAT
}
layers {
  bottom: "inception_4c/output"
  top: "inception_4d/1x1"
  name: "inception_4d/1x1"
  type: CONVOLUTION
  blobs_lr: 1
  blobs_lr: 2
  weight_decay: 1
  weight_decay: 0
  convolution_param {
    num_output: 112
    kernel_size: 1
    weight_filler {
      type: "xavier"
      std: 0.03
    }
    bias_filler {
      type: "constant"
      value: 0.2
    }
  }
}
layers {
  bottom: "inception_4d/1x1"
  top: "inception_4d/1x1"
  name: "inception_4d/relu_1x1"
  type: RELU
}
layers {
  bottom: "inception_4c/output"
  top: "inception_4d/3x3_reduce"
  name: "inception_4d/3x3_reduce"
  type: CONVOLUTION
  blobs_lr: 1
  blobs_lr: 2
  weight_decay: 1
  weight_decay: 0
  convolution_param {
    num_output: 144
    kernel_size: 1
    weight_filler {
      type: "xavier"
      std: 0.09
    }
    bias_filler {
      type: "constant"
      value: 0.2
    }
  }
}
layers {
  bottom: "inception_4d/3x3_reduce"
  top: "inception_4d/3x3_reduce"
  name: "inception_4d/relu_3x3_reduce"
  type: RELU
}
layers {
  bottom: "inception_4d/3x3_reduce"
  top: "inception_4d/3x3"
  name: "inception_4d/3x3"
  type: CONVOLUTION
  blobs_lr: 1
  blobs_lr: 2
  weight_decay: 1
  weight_decay: 0
  convolution_param {
    num_output: 288
    pad: 1
    kernel_size: 3
    weight_filler {
      type: "xavier"
      std: 0.03
    }
    bias_filler {
      type: "constant"
      value: 0.2
    }
  }
}
layers {
  bottom: "inception_4d/3x3"
  top: "inception_4d/3x3"
  name: "inception_4d/relu_3x3"
  type: RELU
}
layers {
  bottom: "inception_4c/output"
  top: "inception_4d/5x5_reduce"
  name: "inception_4d/5x5_reduce"
  type: CONVOLUTION
  blobs_lr: 1
  blobs_lr: 2
  weight_decay: 1
  weight_decay: 0
  convolution_param {
    num_output: 32
    kernel_size: 1
    weight_filler {
      type: "xavier"
      std: 0.2
    }
    bias_filler {
      type: "constant"
      value: 0.2
    }
  }
}
layers {
  bottom: "inception_4d/5x5_reduce"
  top: "inception_4d/5x5_reduce"
  name: "inception_4d/relu_5x5_reduce"
  type: RELU
}
layers {
  bottom: "inception_4d/5x5_reduce"
  top: "inception_4d/5x5"
  name: "inception_4d/5x5"
  type: CONVOLUTION
  blobs_lr: 1
  blobs_lr: 2
  weight_decay: 1
  weight_decay: 0
  convolution_param {
    num_output: 64
    pad: 2
    kernel_size: 5
    weight_filler {
      type: "xavier"
      std: 0.03
    }
    bias_filler {
      type: "constant"
      value: 0.2
    }
  }
}
layers {
  bottom: "inception_4d/5x5"
  top: "inception_4d/5x5"
  name: "inception_4d/relu_5x5"
  type: RELU
}
layers {
  bottom: "inception_4c/output"
  top: "inception_4d/pool"
  name: "inception_4d/pool"
  type: POOLING
  pooling_param {
    pool: MAX
    kernel_size: 3
    stride: 1
    pad: 1
  }
}
layers {
  bottom: "inception_4d/pool"
  top: "inception_4d/pool_proj"
  name: "inception_4d/pool_proj"
  type: CONVOLUTION
  blobs_lr: 1
  blobs_lr: 2
  weight_decay: 1
  weight_decay: 0
  convolution_param {
    num_output: 64
    kernel_size: 1
    weight_filler {
      type: "xavier"
      std: 0.1
    }
    bias_filler {
      type: "constant"
      value: 0.2
    }
  }
}
layers {
  bottom: "inception_4d/pool_proj"
  top: "inception_4d/pool_proj"
  name: "inception_4d/relu_pool_proj"
  type: RELU
}
layers {
  bottom: "inception_4d/1x1"
  bottom: "inception_4d/3x3"
  bottom: "inception_4d/5x5"
  bottom: "inception_4d/pool_proj"
  top: "inception_4d/output"
  name: "inception_4d/output"
  type: CONCAT
}
layers {
  bottom: "inception_4d/output"
  top: "loss2/ave_pool"
  name: "loss2/ave_pool"
  type: POOLING
  pooling_param {
    pool: AVE
    kernel_size: 5
    stride: 3
  }
}
layers {
  bottom: "loss2/ave_pool"
  top: "loss2/conv"
  name: "loss2/conv"
  type: CONVOLUTION
  blobs_lr: 1
  blobs_lr: 2
  weight_decay: 1
  weight_decay: 0
  convolution_param {
    num_output: 128
    kernel_size: 1
    weight_filler {
      type: "xavier"
      std: 0.08
    }
    bias_filler {
      type: "constant"
      value: 0.2
    }
  }
}
layers {
  bottom: "loss2/conv"
  top: "loss2/conv"
  name: "loss2/relu_conv"
  type: RELU
}
layers {
  bottom: "loss2/conv"
  top: "loss2/fc"
  name: "loss2/fc"
  type: INNER_PRODUCT
  blobs_lr: 1
  blobs_lr: 2
  weight_decay: 1
  weight_decay: 0
  inner_product_param {
    num_output: 1024
    weight_filler {
      type: "xavier"
      std: 0.02
    }
    bias_filler {
      type: "constant"
      value: 0.2
    }
  }
}
layers {
  bottom: "loss2/fc"
  top: "loss2/fc"
  name: "loss2/relu_fc"
  type: RELU
}
layers {
  bottom: "loss2/fc"
  top: "loss2/fc"
  name: "loss2/drop_fc"
  type: DROPOUT
  dropout_param {
    dropout_ratio: 0.7
  }
}
layers {
  bottom: "loss2/fc"
  top: "loss2/classifier"
  name: "loss2/classifier"
  type: INNER_PRODUCT
  blobs_lr: 1
  blobs_lr: 2
  weight_decay: 1
  weight_decay: 0
  inner_product_param {
    num_output: 121
    weight_filler {
      type: "xavier"
      std: 0.0009765625
    }
    bias_filler {
      type: "constant"
      value: 0
    }
  }
}
layers {
  bottom: "loss2/classifier"
  bottom: "label"
  top: "loss2/loss1"
  name: "loss2/loss"
  type: SOFTMAX_LOSS
  loss_weight: 0.3
}
layers {
  bottom: "inception_4d/output"
  top: "inception_4e/1x1"
  name: "inception_4e/1x1"
  type: CONVOLUTION
  blobs_lr: 1
  blobs_lr: 2
  weight_decay: 1
  weight_decay: 0
  convolution_param {
    num_output: 256
    kernel_size: 1
    weight_filler {
      type: "xavier"
      std: 0.03
    }
    bias_filler {
      type: "constant"
      value: 0.2
    }
  }
}
layers {
  bottom: "inception_4e/1x1"
  top: "inception_4e/1x1"
  name: "inception_4e/relu_1x1"
  type: RELU
}
layers {
  bottom: "inception_4d/output"
  top: "inception_4e/3x3_reduce"
  name: "inception_4e/3x3_reduce"
  type: CONVOLUTION
  blobs_lr: 1
  blobs_lr: 2
  weight_decay: 1
  weight_decay: 0
  convolution_param {
    num_output: 160
    kernel_size: 1
    weight_filler {
      type: "xavier"
      std: 0.09
    }
    bias_filler {
      type: "constant"
      value: 0.2
    }
  }
}
layers {
  bottom: "inception_4e/3x3_reduce"
  top: "inception_4e/3x3_reduce"
  name: "inception_4e/relu_3x3_reduce"
  type: RELU
}
layers {
  bottom: "inception_4e/3x3_reduce"
  top: "inception_4e/3x3"
  name: "inception_4e/3x3"
  type: CONVOLUTION
  blobs_lr: 1
  blobs_lr: 2
  weight_decay: 1
  weight_decay: 0
  convolution_param {
    num_output: 320
    pad: 1
    kernel_size: 3
    weight_filler {
      type: "xavier"
      std: 0.03
    }
    bias_filler {
      type: "constant"
      value: 0.2
    }
  }
}
layers {
  bottom: "inception_4e/3x3"
  top: "inception_4e/3x3"
  name: "inception_4e/relu_3x3"
  type: RELU
}
layers {
  bottom: "inception_4d/output"
  top: "inception_4e/5x5_reduce"
  name: "inception_4e/5x5_reduce"
  type: CONVOLUTION
  blobs_lr: 1
  blobs_lr: 2
  weight_decay: 1
  weight_decay: 0
  convolution_param {
    num_output: 32
    kernel_size: 1
    weight_filler {
      type: "xavier"
      std: 0.2
    }
    bias_filler {
      type: "constant"
      value: 0.2
    }
  }
}
layers {
  bottom: "inception_4e/5x5_reduce"
  top: "inception_4e/5x5_reduce"
  name: "inception_4e/relu_5x5_reduce"
  type: RELU
}
layers {
  bottom: "inception_4e/5x5_reduce"
  top: "inception_4e/5x5"
  name: "inception_4e/5x5"
  type: CONVOLUTION
  blobs_lr: 1
  blobs_lr: 2
  weight_decay: 1
  weight_decay: 0
  convolution_param {
    num_output: 128
    pad: 2
    kernel_size: 5
    weight_filler {
      type: "xavier"
      std: 0.03
    }
    bias_filler {
      type: "constant"
      value: 0.2
    }
  }
}
layers {
  bottom: "inception_4e/5x5"
  top: "inception_4e/5x5"
  name: "inception_4e/relu_5x5"
  type: RELU
}
layers {
  bottom: "inception_4d/output"
  top: "inception_4e/pool"
  name: "inception_4e/pool"
  type: POOLING
  pooling_param {
    pool: MAX
    kernel_size: 3
    stride: 1
    pad: 1
  }
}
layers {
  bottom: "inception_4e/pool"
  top: "inception_4e/pool_proj"
  name: "inception_4e/pool_proj"
  type: CONVOLUTION
  blobs_lr: 1
  blobs_lr: 2
  weight_decay: 1
  weight_decay: 0
  convolution_param {
    num_output: 128
    kernel_size: 1
    weight_filler {
      type: "xavier"
      std: 0.1
    }
    bias_filler {
      type: "constant"
      value: 0.2
    }
  }
}
layers {
  bottom: "inception_4e/pool_proj"
  top: "inception_4e/pool_proj"
  name: "inception_4e/relu_pool_proj"
  type: RELU
}
layers {
  bottom: "inception_4e/1x1"
  bottom: "inception_4e/3x3"
  bottom: "inception_4e/5x5"
  bottom: "inception_4e/pool_proj"
  top: "inception_4e/output"
  name: "inception_4e/output"
  type: CONCAT
}
layers {
  bottom: "inception_4e/output"
  top: "pool4/3x3_s2"
  name: "pool4/3x3_s2"
  type: POOLING
  pooling_param {
    
I0308 11:37:41.713732  1599 net.cpp:67] Creating Layer data
I0308 11:37:41.713745  1599 net.cpp:356] data -> data
I0308 11:37:41.713765  1599 net.cpp:356] data -> label
I0308 11:37:41.713780  1599 net.cpp:96] Setting up data
I0308 11:37:41.801205  1599 data_layer.cpp:68] Opening lmdb data/256_scale_aug2/train_lmdb
I0308 11:37:41.820310  1599 data_layer.cpp:128] output data size: 25,1,224,224
I0308 11:37:41.820327  1599 base_data_layer.cpp:36] Loading mean file fromdata/256_scale_aug2/train_mean.binaryproto
I0308 11:37:41.827358  1599 net.cpp:103] Top shape: 25 1 224 224 (1254400)
I0308 11:37:41.827375  1599 net.cpp:103] Top shape: 25 1 1 1 (25)
I0308 11:37:41.827386  1599 net.cpp:67] Creating Layer label_data_1_split
I0308 11:37:41.827392  1599 net.cpp:394] label_data_1_split <- label
I0308 11:37:41.827406  1599 net.cpp:356] label_data_1_split -> label_data_1_split_0
I0308 11:37:41.827415  1599 net.cpp:356] label_data_1_split -> label_data_1_split_1
I0308 11:37:41.827421  1599 net.cpp:356] label_data_1_split -> label_data_1_split_2
I0308 11:37:41.827430  1599 net.cpp:96] Setting up label_data_1_split
I0308 11:37:41.827436  1599 net.cpp:103] Top shape: 25 1 1 1 (25)
I0308 11:37:41.827440  1599 net.cpp:103] Top shape: 25 1 1 1 (25)
I0308 11:37:41.827445  1599 net.cpp:103] Top shape: 25 1 1 1 (25)
I0308 11:37:41.827467  1599 net.cpp:67] Creating Layer conv1/7x7_s2
I0308 11:37:41.827476  1599 net.cpp:394] conv1/7x7_s2 <- data
I0308 11:37:41.827482  1599 net.cpp:356] conv1/7x7_s2 -> conv1/7x7_s2
I0308 11:37:41.827491  1599 net.cpp:96] Setting up conv1/7x7_s2
I0308 11:37:41.849026  1599 net.cpp:103] Top shape: 25 64 112 112 (20070400)
I0308 11:37:41.849081  1599 net.cpp:67] Creating Layer conv1/relu_7x7
I0308 11:37:41.849091  1599 net.cpp:394] conv1/relu_7x7 <- conv1/7x7_s2
I0308 11:37:41.849099  1599 net.cpp:345] conv1/relu_7x7 -> conv1/7x7_s2 (in-place)
I0308 11:37:41.849109  1599 net.cpp:96] Setting up conv1/relu_7x7
I0308 11:37:41.849119  1599 net.cpp:103] Top shape: 25 64 112 112 (20070400)
I0308 11:37:41.849128  1599 net.cpp:67] Creating Layer pool1/3x3_s2
I0308 11:37:41.849133  1599 net.cpp:394] pool1/3x3_s2 <- conv1/7x7_s2
I0308 11:37:41.849140  1599 net.cpp:356] pool1/3x3_s2 -> pool1/3x3_s2
I0308 11:37:41.849148  1599 net.cpp:96] Setting up pool1/3x3_s2
I0308 11:37:41.849169  1599 net.cpp:103] Top shape: 25 64 56 56 (5017600)
I0308 11:37:41.849184  1599 net.cpp:67] Creating Layer pool1/norm1
I0308 11:37:41.849189  1599 net.cpp:394] pool1/norm1 <- pool1/3x3_s2
I0308 11:37:41.849197  1599 net.cpp:356] pool1/norm1 -> pool1/norm1
I0308 11:37:41.849203  1599 net.cpp:96] Setting up pool1/norm1
I0308 11:37:41.849211  1599 net.cpp:103] Top shape: 25 64 56 56 (5017600)
I0308 11:37:41.849220  1599 net.cpp:67] Creating Layer conv2/3x3_reduce
I0308 11:37:41.849226  1599 net.cpp:394] conv2/3x3_reduce <- pool1/norm1
I0308 11:37:41.849232  1599 net.cpp:356] conv2/3x3_reduce -> conv2/3x3_reduce
I0308 11:37:41.849241  1599 net.cpp:96] Setting up conv2/3x3_reduce
I0308 11:37:41.849336  1599 net.cpp:103] Top shape: 25 64 56 56 (5017600)
I0308 11:37:41.849357  1599 net.cpp:67] Creating Layer conv2/relu_3x3_reduce
I0308 11:37:41.849365  1599 net.cpp:394] conv2/relu_3x3_reduce <- conv2/3x3_reduce
I0308 11:37:41.849373  1599 net.cpp:345] conv2/relu_3x3_reduce -> conv2/3x3_reduce (in-place)
I0308 11:37:41.849380  1599 net.cpp:96] Setting up conv2/relu_3x3_reduce
I0308 11:37:41.849387  1599 net.cpp:103] Top shape: 25 64 56 56 (5017600)
I0308 11:37:41.849395  1599 net.cpp:67] Creating Layer conv2/3x3
I0308 11:37:41.849400  1599 net.cpp:394] conv2/3x3 <- conv2/3x3_reduce
I0308 11:37:41.849408  1599 net.cpp:356] conv2/3x3 -> conv2/3x3
I0308 11:37:41.849414  1599 net.cpp:96] Setting up conv2/3x3
I0308 11:37:41.850378  1599 net.cpp:103] Top shape: 25 192 56 56 (15052800)
I0308 11:37:41.850399  1599 net.cpp:67] Creating Layer conv2/relu_3x3
I0308 11:37:41.850405  1599 net.cpp:394] conv2/relu_3x3 <- conv2/3x3
I0308 11:37:41.850410  1599 net.cpp:345] conv2/relu_3x3 -> conv2/3x3 (in-place)
I0308 11:37:41.850419  1599 net.cpp:96] Setting up conv2/relu_3x3
I0308 11:37:41.850426  1599 net.cpp:103] Top shape: 25 192 56 56 (15052800)
I0308 11:37:41.850435  1599 net.cpp:67] Creating Layer conv2/norm2
I0308 11:37:41.850440  1599 net.cpp:394] conv2/norm2 <- conv2/3x3
I0308 11:37:41.850445  1599 net.cpp:356] conv2/norm2 -> conv2/norm2
I0308 11:37:41.850453  1599 net.cpp:96] Setting up conv2/norm2
I0308 11:37:41.850458  1599 net.cpp:103] Top shape: 25 192 56 56 (15052800)
I0308 11:37:41.850464  1599 net.cpp:67] Creating Layer pool2/3x3_s2
I0308 11:37:41.850468  1599 net.cpp:394] pool2/3x3_s2 <- conv2/norm2
I0308 11:37:41.850473  1599 net.cpp:356] pool2/3x3_s2 -> pool2/3x3_s2
I0308 11:37:41.850478  1599 net.cpp:96] Setting up pool2/3x3_s2
I0308 11:37:41.850486  1599 net.cpp:103] Top shape: 25 192 28 28 (3763200)
I0308 11:37:41.850494  1599 net.cpp:67] Creating Layer pool2/3x3_s2_pool2/3x3_s2_0_split
I0308 11:37:41.850498  1599 net.cpp:394] pool2/3x3_s2_pool2/3x3_s2_0_split <- pool2/3x3_s2
I0308 11:37:41.850504  1599 net.cpp:356] pool2/3x3_s2_pool2/3x3_s2_0_split -> pool2/3x3_s2_pool2/3x3_s2_0_split_0
I0308 11:37:41.850510  1599 net.cpp:356] pool2/3x3_s2_pool2/3x3_s2_0_split -> pool2/3x3_s2_pool2/3x3_s2_0_split_1
I0308 11:37:41.850517  1599 net.cpp:356] pool2/3x3_s2_pool2/3x3_s2_0_split -> pool2/3x3_s2_pool2/3x3_s2_0_split_2
I0308 11:37:41.850548  1599 net.cpp:356] pool2/3x3_s2_pool2/3x3_s2_0_split -> pool2/3x3_s2_pool2/3x3_s2_0_split_3
I0308 11:37:41.850553  1599 net.cpp:96] Setting up pool2/3x3_s2_pool2/3x3_s2_0_split
I0308 11:37:41.850559  1599 net.cpp:103] Top shape: 25 192 28 28 (3763200)
I0308 11:37:41.850564  1599 net.cpp:103] Top shape: 25 192 28 28 (3763200)
I0308 11:37:41.850566  1599 net.cpp:103] Top shape: 25 192 28 28 (3763200)
I0308 11:37:41.850570  1599 net.cpp:103] Top shape: 25 192 28 28 (3763200)
I0308 11:37:41.850576  1599 net.cpp:67] Creating Layer inception_3a/1x1
I0308 11:37:41.850580  1599 net.cpp:394] inception_3a/1x1 <- pool2/3x3_s2_pool2/3x3_s2_0_split_0
I0308 11:37:41.850589  1599 net.cpp:356] inception_3a/1x1 -> inception_3a/1x1
I0308 11:37:41.850596  1599 net.cpp:96] Setting up inception_3a/1x1
I0308 11:37:41.850749  1599 net.cpp:103] Top shape: 25 64 28 28 (1254400)
I0308 11:37:41.850769  1599 net.cpp:67] Creating Layer inception_3a/relu_1x1
I0308 11:37:41.850775  1599 net.cpp:394] inception_3a/relu_1x1 <- inception_3a/1x1
I0308 11:37:41.850780  1599 net.cpp:345] inception_3a/relu_1x1 -> inception_3a/1x1 (in-place)
I0308 11:37:41.850785  1599 net.cpp:96] Setting up inception_3a/relu_1x1
I0308 11:37:41.850792  1599 net.cpp:103] Top shape: 25 64 28 28 (1254400)
I0308 11:37:41.850801  1599 net.cpp:67] Creating Layer inception_3a/3x3_reduce
I0308 11:37:41.850806  1599 net.cpp:394] inception_3a/3x3_reduce <- pool2/3x3_s2_pool2/3x3_s2_0_split_1
I0308 11:37:41.850811  1599 net.cpp:356] inception_3a/3x3_reduce -> inception_3a/3x3_reduce
I0308 11:37:41.850818  1599 net.cpp:96] Setting up inception_3a/3x3_reduce
I0308 11:37:41.851027  1599 net.cpp:103] Top shape: 25 96 28 28 (1881600)
I0308 11:37:41.851052  1599 net.cpp:67] Creating Layer inception_3a/relu_3x3_reduce
I0308 11:37:41.851058  1599 net.cpp:394] inception_3a/relu_3x3_reduce <- inception_3a/3x3_reduce
I0308 11:37:41.851063  1599 net.cpp:345] inception_3a/relu_3x3_reduce -> inception_3a/3x3_reduce (in-place)
I0308 11:37:41.851069  1599 net.cpp:96] Setting up inception_3a/relu_3x3_reduce
I0308 11:37:41.851075  1599 net.cpp:103] Top shape: 25 96 28 28 (1881600)
I0308 11:37:41.851083  1599 net.cpp:67] Creating Layer inception_3a/3x3
I0308 11:37:41.851086  1599 net.cpp:394] inception_3a/3x3 <- inception_3a/3x3_reduce
I0308 11:37:41.851094  1599 net.cpp:356] inception_3a/3x3 -> inception_3a/3x3
I0308 11:37:41.851100  1599 net.cpp:96] Setting up inception_3a/3x3
I0308 11:37:41.852135  1599 net.cpp:103] Top shape: 25 128 28 28 (2508800)
I0308 11:37:41.852157  1599 net.cpp:67] Creating Layer inception_3a/relu_3x3
I0308 11:37:41.852164  1599 net.cpp:394] inception_3a/relu_3x3 <- inception_3a/3x3
I0308 11:37:41.852171  1599 net.cpp:345] inception_3a/relu_3x3 -> inception_3a/3x3 (in-place)
I0308 11:37:41.852179  1599 net.cpp:96] Setting up inception_3a/relu_3x3
I0308 11:37:41.852185  1599 net.cpp:103] Top shape: 25 128 28 28 (2508800)
I0308 11:37:41.852191  1599 net.cpp:67] Creating Layer inception_3a/5x5_reduce
I0308 11:37:41.852196  1599 net.cpp:394] inception_3a/5x5_reduce <- pool2/3x3_s2_pool2/3x3_s2_0_split_2
I0308 11:37:41.852205  1599 net.cpp:356] inception_3a/5x5_reduce -> inception_3a/5x5_reduce
I0308 11:37:41.852211  1599 net.cpp:96] Setting up inception_3a/5x5_reduce
I0308 11:37:41.852290  1599 net.cpp:103] Top shape: 25 16 28 28 (313600)
I0308 11:37:41.852308  1599 net.cpp:67] Creating Layer inception_3a/relu_5x5_reduce
I0308 11:37:41.852313  1599 net.cpp:394] inception_3a/relu_5x5_reduce <- inception_3a/5x5_reduce
I0308 11:37:41.852319  1599 net.cpp:345] inception_3a/relu_5x5_reduce -> inception_3a/5x5_reduce (in-place)
I0308 11:37:41.852324  1599 net.cpp:96] Setting up inception_3a/relu_5x5_reduce
I0308 11:37:41.852330  1599 net.cpp:103] Top shape: 25 16 28 28 (313600)
I0308 11:37:41.852337  1599 net.cpp:67] Creating Layer inception_3a/5x5
I0308 11:37:41.852340  1599 net.cpp:394] inception_3a/5x5 <- inception_3a/5x5_reduce
I0308 11:37:41.852349  1599 net.cpp:356] inception_3a/5x5 -> inception_3a/5x5
I0308 11:37:41.852355  1599 net.cpp:96] Setting up inception_3a/5x5
I0308 11:37:41.852538  1599 net.cpp:103] Top shape: 25 32 28 28 (627200)
I0308 11:37:41.852560  1599 net.cpp:67] Creating Layer inception_3a/relu_5x5
I0308 11:37:41.852566  1599 net.cpp:394] inception_3a/relu_5x5 <- inception_3a/5x5
I0308 11:37:41.852571  1599 net.cpp:345] inception_3a/relu_5x5 -> inception_3a/5x5 (in-place)
I0308 11:37:41.852577  1599 net.cpp:96] Setting up inception_3a/relu_5x5
I0308 11:37:41.852583  1599 net.cpp:103] Top shape: 25 32 28 28 (627200)
I0308 11:37:41.852591  1599 net.cpp:67] Creating Layer inception_3a/pool
I0308 11:37:41.852594  1599 net.cpp:394] inception_3a/pool <- pool2/3x3_s2_pool2/3x3_s2_0_split_3
I0308 11:37:41.852599  1599 net.cpp:356] inception_3a/pool -> inception_3a/pool
I0308 11:37:41.852605  1599 net.cpp:96] Setting up inception_3a/pool
I0308 11:37:41.852613  1599 net.cpp:103] Top shape: 25 192 28 28 (3763200)
I0308 11:37:41.852622  1599 net.cpp:67] Creating Layer inception_3a/pool_proj
I0308 11:37:41.852627  1599 net.cpp:394] inception_3a/pool_proj <- inception_3a/pool
I0308 11:37:41.852634  1599 net.cpp:356] inception_3a/pool_proj -> inception_3a/pool_proj
I0308 11:37:41.852641  1599 net.cpp:96] Setting up inception_3a/pool_proj
I0308 11:37:41.852743  1599 net.cpp:103] Top shape: 25 32 28 28 (627200)
I0308 11:37:41.852767  1599 net.cpp:67] Creating Layer inception_3a/relu_pool_proj
I0308 11:37:41.852772  1599 net.cpp:394] inception_3a/relu_pool_proj <- inception_3a/pool_proj
I0308 11:37:41.852778  1599 net.cpp:345] inception_3a/relu_pool_proj -> inception_3a/pool_proj (in-place)
I0308 11:37:41.852784  1599 net.cpp:96] Setting up inception_3a/relu_pool_proj
I0308 11:37:41.852792  1599 net.cpp:103] Top shape: 25 32 28 28 (627200)
I0308 11:37:41.852797  1599 net.cpp:67] Creating Layer inception_3a/output
I0308 11:37:41.852802  1599 net.cpp:394] inception_3a/output <- inception_3a/1x1
I0308 11:37:41.852807  1599 net.cpp:394] inception_3a/output <- inception_3a/3x3
I0308 11:37:41.852812  1599 net.cpp:394] inception_3a/output <- inception_3a/5x5
I0308 11:37:41.852815  1599 net.cpp:394] inception_3a/output <- inception_3a/pool_proj
I0308 11:37:41.852820  1599 net.cpp:356] inception_3a/output -> inception_3a/output
I0308 11:37:41.852826  1599 net.cpp:96] Setting up inception_3a/output
I0308 11:37:41.852833  1599 net.cpp:103] Top shape: 25 256 28 28 (5017600)
I0308 11:37:41.852841  1599 net.cpp:67] Creating Layer inception_3a/output_inception_3a/output_0_split
I0308 11:37:41.852846  1599 net.cpp:394] inception_3a/output_inception_3a/output_0_split <- inception_3a/output
I0308 11:37:41.852851  1599 net.cpp:356] inception_3a/output_inception_3a/output_0_split -> inception_3a/output_inception_3a/output_0_split_0
I0308 11:37:41.852859  1599 net.cpp:356] inception_3a/output_inception_3a/output_0_split -> inception_3a/output_inception_3a/output_0_split_1
I0308 11:37:41.852867  1599 net.cpp:356] inception_3a/output_inception_3a/output_0_split -> inception_3a/output_inception_3a/output_0_split_2
I0308 11:37:41.852875  1599 net.cpp:356] inception_3a/output_inception_3a/output_0_split -> inception_3a/output_inception_3a/output_0_split_3
I0308 11:37:41.852881  1599 net.cpp:96] Setting up inception_3a/output_inception_3a/output_0_split
I0308 11:37:41.852886  1599 net.cpp:103] Top shape: 25 256 28 28 (5017600)
I0308 11:37:41.852890  1599 net.cpp:103] Top shape: 25 256 28 28 (5017600)
I0308 11:37:41.852895  1599 net.cpp:103] Top shape: 25 256 28 28 (5017600)
I0308 11:37:41.852897  1599 net.cpp:103] Top shape: 25 256 28 28 (5017600)
I0308 11:37:41.852905  1599 net.cpp:67] Creating Layer inception_3b/1x1
I0308 11:37:41.852908  1599 net.cpp:394] inception_3b/1x1 <- inception_3a/output_inception_3a/output_0_split_0
I0308 11:37:41.852916  1599 net.cpp:356] inception_3b/1x1 -> inception_3b/1x1
I0308 11:37:41.852921  1599 net.cpp:96] Setting up inception_3b/1x1
I0308 11:37:41.853240  1599 net.cpp:103] Top shape: 25 128 28 28 (2508800)
I0308 11:37:41.853258  1599 net.cpp:67] Creating Layer inception_3b/relu_1x1
I0308 11:37:41.853263  1599 net.cpp:394] inception_3b/relu_1x1 <- inception_3b/1x1
I0308 11:37:41.853282  1599 net.cpp:345] inception_3b/relu_1x1 -> inception_3b/1x1 (in-place)
I0308 11:37:41.853289  1599 net.cpp:96] Setting up inception_3b/relu_1x1
I0308 11:37:41.853296  1599 net.cpp:103] Top shape: 25 128 28 28 (2508800)
I0308 11:37:41.853303  1599 net.cpp:67] Creating Layer inception_3b/3x3_reduce
I0308 11:37:41.853307  1599 net.cpp:394] inception_3b/3x3_reduce <- inception_3a/output_inception_3a/output_0_split_1
I0308 11:37:41.853315  1599 net.cpp:356] inception_3b/3x3_reduce -> inception_3b/3x3_reduce
I0308 11:37:41.853322  1599 net.cpp:96] Setting up inception_3b/3x3_reduce
I0308 11:37:41.853718  1599 net.cpp:103] Top shape: 25 128 28 28 (2508800)
I0308 11:37:41.853740  1599 net.cpp:67] Creating Layer inception_3b/relu_3x3_reduce
I0308 11:37:41.853745  1599 net.cpp:394] inception_3b/relu_3x3_reduce <- inception_3b/3x3_reduce
I0308 11:37:41.853754  1599 net.cpp:345] inception_3b/relu_3x3_reduce -> inception_3b/3x3_reduce (in-place)
I0308 11:37:41.853760  1599 net.cpp:96] Setting up inception_3b/relu_3x3_reduce
I0308 11:37:41.853767  1599 net.cpp:103] Top shape: 25 128 28 28 (2508800)
I0308 11:37:41.853778  1599 net.cpp:67] Creating Layer inception_3b/3x3
I0308 11:37:41.853783  1599 net.cpp:394] inception_3b/3x3 <- inception_3b/3x3_reduce
I0308 11:37:41.853790  1599 net.cpp:356] inception_3b/3x3 -> inception_3b/3x3
I0308 11:37:41.853796  1599 net.cpp:96] Setting up inception_3b/3x3
I0308 11:37:41.855641  1599 net.cpp:103] Top shape: 25 192 28 28 (3763200)
I0308 11:37:41.855661  1599 net.cpp:67] Creating Layer inception_3b/relu_3x3
I0308 11:37:41.855669  1599 net.cpp:394] inception_3b/relu_3x3 <- inception_3b/3x3
I0308 11:37:41.855674  1599 net.cpp:345] inception_3b/relu_3x3 -> inception_3b/3x3 (in-place)
I0308 11:37:41.855681  1599 net.cpp:96] Setting up inception_3b/relu_3x3
I0308 11:37:41.855687  1599 net.cpp:103] Top shape: 25 192 28 28 (3763200)
I0308 11:37:41.855695  1599 net.cpp:67] Creating Layer inception_3b/5x5_reduce
I0308 11:37:41.855698  1599 net.cpp:394] inception_3b/5x5_reduce <- inception_3a/output_inception_3a/output_0_split_2
I0308 11:37:41.855707  1599 net.cpp:356] inception_3b/5x5_reduce -> inception_3b/5x5_reduce
I0308 11:37:41.855713  1599 net.cpp:96] Setting up inception_3b/5x5_reduce
I0308 11:37:41.855847  1599 net.cpp:103] Top shape: 25 32 28 28 (627200)
I0308 11:37:41.855868  1599 net.cpp:67] Creating Layer inception_3b/relu_5x5_reduce
I0308 11:37:41.855873  1599 net.cpp:394] inception_3b/relu_5x5_reduce <- inception_3b/5x5_reduce
I0308 11:37:41.855881  1599 net.cpp:345] inception_3b/relu_5x5_reduce -> inception_3b/5x5_reduce (in-place)
I0308 11:37:41.855887  1599 net.cpp:96] Setting up inception_3b/relu_5x5_reduce
I0308 11:37:41.855895  1599 net.cpp:103] Top shape: 25 32 28 28 (627200)
I0308 11:37:41.855901  1599 net.cpp:67] Creating Layer inception_3b/5x5
I0308 11:37:41.855906  1599 net.cpp:394] inception_3b/5x5 <- inception_3b/5x5_reduce
I0308 11:37:41.855912  1599 net.cpp:356] inception_3b/5x5 -> inception_3b/5x5
I0308 11:37:41.855921  1599 net.cpp:96] Setting up inception_3b/5x5
I0308 11:37:41.856611  1599 net.cpp:103] Top shape: 25 96 28 28 (1881600)
I0308 11:37:41.856633  1599 net.cpp:67] Creating Layer inception_3b/relu_5x5
I0308 11:37:41.856638  1599 net.cpp:394] inception_3b/relu_5x5 <- inception_3b/5x5
I0308 11:37:41.856644  1599 net.cpp:345] inception_3b/relu_5x5 -> inception_3b/5x5 (in-place)
I0308 11:37:41.856650  1599 net.cpp:96] Setting up inception_3b/relu_5x5
I0308 11:37:41.856657  1599 net.cpp:103] Top shape: 25 96 28 28 (1881600)
I0308 11:37:41.856662  1599 net.cpp:67] Creating Layer inception_3b/pool
I0308 11:37:41.856667  1599 net.cpp:394] inception_3b/pool <- inception_3a/output_inception_3a/output_0_split_3
I0308 11:37:41.856674  1599 net.cpp:356] inception_3b/pool -> inception_3b/pool
I0308 11:37:41.856681  1599 net.cpp:96] Setting up inception_3b/pool
I0308 11:37:41.856691  1599 net.cpp:103] Top shape: 25 256 28 28 (5017600)
I0308 11:37:41.856701  1599 net.cpp:67] Creating Layer inception_3b/pool_proj
I0308 11:37:41.856705  1599 net.cpp:394] inception_3b/pool_proj <- inception_3b/pool
I0308 11:37:41.856724  1599 net.cpp:356] inception_3b/pool_proj -> inception_3b/pool_proj
I0308 11:37:41.856731  1599 net.cpp:96] Setting up inception_3b/pool_proj
I0308 11:37:41.856914  1599 net.cpp:103] Top shape: 25 64 28 28 (1254400)
I0308 11:37:41.856935  1599 net.cpp:67] Creating Layer inception_3b/relu_pool_proj
I0308 11:37:41.856940  1599 net.cpp:394] inception_3b/relu_pool_proj <- inception_3b/pool_proj
I0308 11:37:41.856945  1599 net.cpp:345] inception_3b/relu_pool_proj -> inception_3b/pool_proj (in-place)
I0308 11:37:41.856951  1599 net.cpp:96] Setting up inception_3b/relu_pool_proj
I0308 11:37:41.856957  1599 net.cpp:103] Top shape: 25 64 28 28 (1254400)
I0308 11:37:41.856966  1599 net.cpp:67] Creating Layer inception_3b/output
I0308 11:37:41.856971  1599 net.cpp:394] inception_3b/output <- inception_3b/1x1
I0308 11:37:41.856976  1599 net.cpp:394] inception_3b/output <- inception_3b/3x3
I0308 11:37:41.856981  1599 net.cpp:394] inception_3b/output <- inception_3b/5x5
I0308 11:37:41.856984  1599 net.cpp:394] inception_3b/output <- inception_3b/pool_proj
I0308 11:37:41.856989  1599 net.cpp:356] inception_3b/output -> inception_3b/output
I0308 11:37:41.856995  1599 net.cpp:96] Setting up inception_3b/output
I0308 11:37:41.856999  1599 net.cpp:103] Top shape: 25 480 28 28 (9408000)
I0308 11:37:41.857005  1599 net.cpp:67] Creating Layer pool3/3x3_s2
I0308 11:37:41.857009  1599 net.cpp:394] pool3/3x3_s2 <- inception_3b/output
I0308 11:37:41.857017  1599 net.cpp:356] pool3/3x3_s2 -> pool3/3x3_s2
I0308 11:37:41.857023  1599 net.cpp:96] Setting up pool3/3x3_s2
I0308 11:37:41.857029  1599 net.cpp:103] Top shape: 25 480 14 14 (2352000)
I0308 11:37:41.857036  1599 net.cpp:67] Creating Layer pool3/3x3_s2_pool3/3x3_s2_0_split
I0308 11:37:41.857040  1599 net.cpp:394] pool3/3x3_s2_pool3/3x3_s2_0_split <- pool3/3x3_s2
I0308 11:37:41.857048  1599 net.cpp:356] pool3/3x3_s2_pool3/3x3_s2_0_split -> pool3/3x3_s2_pool3/3x3_s2_0_split_0
I0308 11:37:41.857053  1599 net.cpp:356] pool3/3x3_s2_pool3/3x3_s2_0_split -> pool3/3x3_s2_pool3/3x3_s2_0_split_1
I0308 11:37:41.857060  1599 net.cpp:356] pool3/3x3_s2_pool3/3x3_s2_0_split -> pool3/3x3_s2_pool3/3x3_s2_0_split_2
I0308 11:37:41.857069  1599 net.cpp:356] pool3/3x3_s2_pool3/3x3_s2_0_split -> pool3/3x3_s2_pool3/3x3_s2_0_split_3
I0308 11:37:41.857074  1599 net.cpp:96] Setting up pool3/3x3_s2_pool3/3x3_s2_0_split
I0308 11:37:41.857079  1599 net.cpp:103] Top shape: 25 480 14 14 (2352000)
I0308 11:37:41.857082  1599 net.cpp:103] Top shape: 25 480 14 14 (2352000)
I0308 11:37:41.857086  1599 net.cpp:103] Top shape: 25 480 14 14 (2352000)
I0308 11:37:41.857090  1599 net.cpp:103] Top shape: 25 480 14 14 (2352000)
I0308 11:37:41.857100  1599 net.cpp:67] Creating Layer inception_4a/1x1
I0308 11:37:41.857105  1599 net.cpp:394] inception_4a/1x1 <- pool3/3x3_s2_pool3/3x3_s2_0_split_0
I0308 11:37:41.857111  1599 net.cpp:356] inception_4a/1x1 -> inception_4a/1x1
I0308 11:37:41.857117  1599 net.cpp:96] Setting up inception_4a/1x1
I0308 11:37:41.857991  1599 net.cpp:103] Top shape: 25 192 14 14 (940800)
I0308 11:37:41.858016  1599 net.cpp:67] Creating Layer inception_4a/relu_1x1
I0308 11:37:41.858021  1599 net.cpp:394] inception_4a/relu_1x1 <- inception_4a/1x1
I0308 11:37:41.858026  1599 net.cpp:345] inception_4a/relu_1x1 -> inception_4a/1x1 (in-place)
I0308 11:37:41.858032  1599 net.cpp:96] Setting up inception_4a/relu_1x1
I0308 11:37:41.858039  1599 net.cpp:103] Top shape: 25 192 14 14 (940800)
I0308 11:37:41.858048  1599 net.cpp:67] Creating Layer inception_4a/3x3_reduce
I0308 11:37:41.858053  1599 net.cpp:394] inception_4a/3x3_reduce <- pool3/3x3_s2_pool3/3x3_s2_0_split_1
I0308 11:37:41.858059  1599 net.cpp:356] inception_4a/3x3_reduce -> inception_4a/3x3_reduce
I0308 11:37:41.858067  1599 net.cpp:96] Setting up inception_4a/3x3_reduce
I0308 11:37:41.858494  1599 net.cpp:103] Top shape: 25 96 14 14 (470400)
I0308 11:37:41.858520  1599 net.cpp:67] Creating Layer inception_4a/relu_3x3_reduce
I0308 11:37:41.858526  1599 net.cpp:394] inception_4a/relu_3x3_reduce <- inception_4a/3x3_reduce
I0308 11:37:41.858543  1599 net.cpp:345] inception_4a/relu_3x3_reduce -> inception_4a/3x3_reduce (in-place)
I0308 11:37:41.858551  1599 net.cpp:96] Setting up inception_4a/relu_3x3_reduce
I0308 11:37:41.858557  1599 net.cpp:103] Top shape: 25 96 14 14 (470400)
I0308 11:37:41.858564  1599 net.cpp:67] Creating Layer inception_4a/3x3
I0308 11:37:41.858572  1599 net.cpp:394] inception_4a/3x3 <- inception_4a/3x3_reduce
I0308 11:37:41.858577  1599 net.cpp:356] inception_4a/3x3 -> inception_4a/3x3
I0308 11:37:41.858583  1599 net.cpp:96] Setting up inception_4a/3x3
I0308 11:37:41.860096  1599 net.cpp:103] Top shape: 25 208 14 14 (1019200)
I0308 11:37:41.860121  1599 net.cpp:67] Creating Layer inception_4a/relu_3x3
I0308 11:37:41.860126  1599 net.cpp:394] inception_4a/relu_3x3 <- inception_4a/3x3
I0308 11:37:41.860131  1599 net.cpp:345] inception_4a/relu_3x3 -> inception_4a/3x3 (in-place)
I0308 11:37:41.860137  1599 net.cpp:96] Setting up inception_4a/relu_3x3
I0308 11:37:41.860144  1599 net.cpp:103] Top shape: 25 208 14 14 (1019200)
I0308 11:37:41.860152  1599 net.cpp:67] Creating Layer inception_4a/5x5_reduce
I0308 11:37:41.860157  1599 net.cpp:394] inception_4a/5x5_reduce <- pool3/3x3_s2_pool3/3x3_s2_0_split_2
I0308 11:37:41.860164  1599 net.cpp:356] inception_4a/5x5_reduce -> inception_4a/5x5_reduce
I0308 11:37:41.860170  1599 net.cpp:96] Setting up inception_4a/5x5_reduce
I0308 11:37:41.860283  1599 net.cpp:103] Top shape: 25 16 14 14 (78400)
I0308 11:37:41.860301  1599 net.cpp:67] Creating Layer inception_4a/relu_5x5_reduce
I0308 11:37:41.860307  1599 net.cpp:394] inception_4a/relu_5x5_reduce <- inception_4a/5x5_reduce
I0308 11:37:41.860314  1599 net.cpp:345] inception_4a/relu_5x5_reduce -> inception_4a/5x5_reduce (in-place)
I0308 11:37:41.860321  1599 net.cpp:96] Setting up inception_4a/relu_5x5_reduce
I0308 11:37:41.860327  1599 net.cpp:103] Top shape: 25 16 14 14 (78400)
I0308 11:37:41.860335  1599 net.cpp:67] Creating Layer inception_4a/5x5
I0308 11:37:41.860339  1599 net.cpp:394] inception_4a/5x5 <- inception_4a/5x5_reduce
I0308 11:37:41.860347  1599 net.cpp:356] inception_4a/5x5 -> inception_4a/5x5
I0308 11:37:41.860353  1599 net.cpp:96] Setting up inception_4a/5x5
I0308 11:37:41.860579  1599 net.cpp:103] Top shape: 25 48 14 14 (235200)
I0308 11:37:41.860597  1599 net.cpp:67] Creating Layer inception_4a/relu_5x5
I0308 11:37:41.860604  1599 net.cpp:394] inception_4a/relu_5x5 <- inception_4a/5x5
I0308 11:37:41.860609  1599 net.cpp:345] inception_4a/relu_5x5 -> inception_4a/5x5 (in-place)
I0308 11:37:41.860615  1599 net.cpp:96] Setting up inception_4a/relu_5x5
I0308 11:37:41.860621  1599 net.cpp:103] Top shape: 25 48 14 14 (235200)
I0308 11:37:41.860630  1599 net.cpp:67] Creating Layer inception_4a/pool
I0308 11:37:41.860635  1599 net.cpp:394] inception_4a/pool <- pool3/3x3_s2_pool3/3x3_s2_0_split_3
I0308 11:37:41.860641  1599 net.cpp:356] inception_4a/pool -> inception_4a/pool
I0308 11:37:41.860646  1599 net.cpp:96] Setting up inception_4a/pool
I0308 11:37:41.860653  1599 net.cpp:103] Top shape: 25 480 14 14 (2352000)
I0308 11:37:41.860663  1599 net.cpp:67] Creating Layer inception_4a/pool_proj
I0308 11:37:41.860667  1599 net.cpp:394] inception_4a/pool_proj <- inception_4a/pool
I0308 11:37:41.860673  1599 net.cpp:356] inception_4a/pool_proj -> inception_4a/pool_proj
I0308 11:37:41.860679  1599 net.cpp:96] Setting up inception_4a/pool_proj
I0308 11:37:41.861060  1599 net.cpp:103] Top shape: 25 64 14 14 (313600)
I0308 11:37:41.861084  1599 net.cpp:67] Creating Layer inception_4a/relu_pool_proj
I0308 11:37:41.861090  1599 net.cpp:394] inception_4a/relu_pool_proj <- inception_4a/pool_proj
I0308 11:37:41.861096  1599 net.cpp:345] inception_4a/relu_pool_proj -> inception_4a/pool_proj (in-place)
I0308 11:37:41.861104  1599 net.cpp:96] Setting up inception_4a/relu_pool_proj
I0308 11:37:41.861109  1599 net.cpp:103] Top shape: 25 64 14 14 (313600)
I0308 11:37:41.861115  1599 net.cpp:67] Creating Layer inception_4a/output
I0308 11:37:41.861120  1599 net.cpp:394] inception_4a/output <- inception_4a/1x1
I0308 11:37:41.861137  1599 net.cpp:394] inception_4a/output <- inception_4a/3x3
I0308 11:37:41.861142  1599 net.cpp:394] inception_4a/output <- inception_4a/5x5
I0308 11:37:41.861147  1599 net.cpp:394] inception_4a/output <- inception_4a/pool_proj
I0308 11:37:41.861157  1599 net.cpp:356] inception_4a/output -> inception_4a/output
I0308 11:37:41.861165  1599 net.cpp:96] Setting up inception_4a/output
I0308 11:37:41.861170  1599 net.cpp:103] Top shape: 25 512 14 14 (2508800)
I0308 11:37:41.861176  1599 net.cpp:67] Creating Layer inception_4a/output_inception_4a/output_0_split
I0308 11:37:41.861181  1599 net.cpp:394] inception_4a/output_inception_4a/output_0_split <- inception_4a/output
I0308 11:37:41.861186  1599 net.cpp:356] inception_4a/output_inception_4a/output_0_split -> inception_4a/output_inception_4a/output_0_split_0
I0308 11:37:41.861196  1599 net.cpp:356] inception_4a/output_inception_4a/output_0_split -> inception_4a/output_inception_4a/output_0_split_1
I0308 11:37:41.861202  1599 net.cpp:356] inception_4a/output_inception_4a/output_0_split -> inception_4a/output_inception_4a/output_0_split_2
I0308 11:37:41.861208  1599 net.cpp:356] inception_4a/output_inception_4a/output_0_split -> inception_4a/output_inception_4a/output_0_split_3
I0308 11:37:41.861214  1599 net.cpp:356] inception_4a/output_inception_4a/output_0_split -> inception_4a/output_inception_4a/output_0_split_4
I0308 11:37:41.861220  1599 net.cpp:96] Setting up inception_4a/output_inception_4a/output_0_split
I0308 11:37:41.861225  1599 net.cpp:103] Top shape: 25 512 14 14 (2508800)
I0308 11:37:41.861229  1599 net.cpp:103] Top shape: 25 512 14 14 (2508800)
I0308 11:37:41.861232  1599 net.cpp:103] Top shape: 25 512 14 14 (2508800)
I0308 11:37:41.861237  1599 net.cpp:103] Top shape: 25 512 14 14 (2508800)
I0308 11:37:41.861240  1599 net.cpp:103] Top shape: 25 512 14 14 (2508800)
I0308 11:37:41.861245  1599 net.cpp:67] Creating Layer loss1/ave_pool
I0308 11:37:41.861249  1599 net.cpp:394] loss1/ave_pool <- inception_4a/output_inception_4a/output_0_split_0
I0308 11:37:41.861256  1599 net.cpp:356] loss1/ave_pool -> loss1/ave_pool
I0308 11:37:41.861263  1599 net.cpp:96] Setting up loss1/ave_pool
I0308 11:37:41.861271  1599 net.cpp:103] Top shape: 25 512 4 4 (204800)
I0308 11:37:41.861281  1599 net.cpp:67] Creating Layer loss1/conv
I0308 11:37:41.861285  1599 net.cpp:394] loss1/conv <- loss1/ave_pool
I0308 11:37:41.861291  1599 net.cpp:356] loss1/conv -> loss1/conv
I0308 11:37:41.861297  1599 net.cpp:96] Setting up loss1/conv
I0308 11:37:41.861878  1599 net.cpp:103] Top shape: 25 128 4 4 (51200)
I0308 11:37:41.861899  1599 net.cpp:67] Creating Layer loss1/relu_conv
I0308 11:37:41.861904  1599 net.cpp:394] loss1/relu_conv <- loss1/conv
I0308 11:37:41.861910  1599 net.cpp:345] loss1/relu_conv -> loss1/conv (in-place)
I0308 11:37:41.861917  1599 net.cpp:96] Setting up loss1/relu_conv
I0308 11:37:41.861922  1599 net.cpp:103] Top shape: 25 128 4 4 (51200)
I0308 11:37:41.861932  1599 net.cpp:67] Creating Layer loss1/fc
I0308 11:37:41.861937  1599 net.cpp:394] loss1/fc <- loss1/conv
I0308 11:37:41.861944  1599 net.cpp:356] loss1/fc -> loss1/fc
I0308 11:37:41.861953  1599 net.cpp:96] Setting up loss1/fc
I0308 11:37:41.878129  1599 net.cpp:103] Top shape: 25 1024 1 1 (25600)
I0308 11:37:41.878154  1599 net.cpp:67] Creating Layer loss1/relu_fc
I0308 11:37:41.878159  1599 net.cpp:394] loss1/relu_fc <- loss1/fc
I0308 11:37:41.878165  1599 net.cpp:345] loss1/relu_fc -> loss1/fc (in-place)
I0308 11:37:41.878170  1599 net.cpp:96] Setting up loss1/relu_fc
I0308 11:37:41.878180  1599 net.cpp:103] Top shape: 25 1024 1 1 (25600)
I0308 11:37:41.878196  1599 net.cpp:67] Creating Layer loss1/drop_fc
I0308 11:37:41.878201  1599 net.cpp:394] loss1/drop_fc <- loss1/fc
I0308 11:37:41.878206  1599 net.cpp:345] loss1/drop_fc -> loss1/fc (in-place)
I0308 11:37:41.878211  1599 net.cpp:96] Setting up loss1/drop_fc
I0308 11:37:41.878218  1599 net.cpp:103] Top shape: 25 1024 1 1 (25600)
I0308 11:37:41.878226  1599 net.cpp:67] Creating Layer loss1/classifier
I0308 11:37:41.878231  1599 net.cpp:394] loss1/classifier <- loss1/fc
I0308 11:37:41.878248  1599 net.cpp:356] loss1/classifier -> loss1/classifier
I0308 11:37:41.878257  1599 net.cpp:96] Setting up loss1/classifier
I0308 11:37:41.879272  1599 net.cpp:103] Top shape: 25 121 1 1 (3025)
I0308 11:37:41.879297  1599 net.cpp:67] Creating Layer loss1/loss
I0308 11:37:41.879302  1599 net.cpp:394] loss1/loss <- loss1/classifier
I0308 11:37:41.879307  1599 net.cpp:394] loss1/loss <- label_data_1_split_0
I0308 11:37:41.879312  1599 net.cpp:356] loss1/loss -> loss1/loss1
I0308 11:37:41.879319  1599 net.cpp:96] Setting up loss1/loss
I0308 11:37:41.879343  1599 net.cpp:103] Top shape: 1 1 1 1 (1)
I0308 11:37:41.879349  1599 net.cpp:109]     with loss weight 0.3
I0308 11:37:41.879390  1599 net.cpp:67] Creating Layer inception_4b/1x1
I0308 11:37:41.879395  1599 net.cpp:394] inception_4b/1x1 <- inception_4a/output_inception_4a/output_0_split_1
I0308 11:37:41.879405  1599 net.cpp:356] inception_4b/1x1 -> inception_4b/1x1
I0308 11:37:41.879412  1599 net.cpp:96] Setting up inception_4b/1x1
I0308 11:37:41.880136  1599 net.cpp:103] Top shape: 25 160 14 14 (784000)
I0308 11:37:41.880156  1599 net.cpp:67] Creating Layer inception_4b/relu_1x1
I0308 11:37:41.880162  1599 net.cpp:394] inception_4b/relu_1x1 <- inception_4b/1x1
I0308 11:37:41.880167  1599 net.cpp:345] inception_4b/relu_1x1 -> inception_4b/1x1 (in-place)
I0308 11:37:41.880173  1599 net.cpp:96] Setting up inception_4b/relu_1x1
I0308 11:37:41.880180  1599 net.cpp:103] Top shape: 25 160 14 14 (784000)
I0308 11:37:41.880192  1599 net.cpp:67] Creating Layer inception_4b/3x3_reduce
I0308 11:37:41.880197  1599 net.cpp:394] inception_4b/3x3_reduce <- inception_4a/output_inception_4a/output_0_split_2
I0308 11:37:41.880203  1599 net.cpp:356] inception_4b/3x3_reduce -> inception_4b/3x3_reduce
I0308 11:37:41.880209  1599 net.cpp:96] Setting up inception_4b/3x3_reduce
I0308 11:37:41.880736  1599 net.cpp:103] Top shape: 25 112 14 14 (548800)
I0308 11:37:41.880760  1599 net.cpp:67] Creating Layer inception_4b/relu_3x3_reduce
I0308 11:37:41.880766  1599 net.cpp:394] inception_4b/relu_3x3_reduce <- inception_4b/3x3_reduce
I0308 11:37:41.880772  1599 net.cpp:345] inception_4b/relu_3x3_reduce -> inception_4b/3x3_reduce (in-place)
I0308 11:37:41.880779  1599 net.cpp:96] Setting up inception_4b/relu_3x3_reduce
I0308 11:37:41.880785  1599 net.cpp:103] Top shape: 25 112 14 14 (548800)
I0308 11:37:41.880795  1599 net.cpp:67] Creating Layer inception_4b/3x3
I0308 11:37:41.880798  1599 net.cpp:394] inception_4b/3x3 <- inception_4b/3x3_reduce
I0308 11:37:41.880805  1599 net.cpp:356] inception_4b/3x3 -> inception_4b/3x3
I0308 11:37:41.880811  1599 net.cpp:96] Setting up inception_4b/3x3
I0308 11:37:41.882696  1599 net.cpp:103] Top shape: 25 224 14 14 (1097600)
I0308 11:37:41.882717  1599 net.cpp:67] Creating Layer inception_4b/relu_3x3
I0308 11:37:41.882724  1599 net.cpp:394] inception_4b/relu_3x3 <- inception_4b/3x3
I0308 11:37:41.882730  1599 net.cpp:345] inception_4b/relu_3x3 -> inception_4b/3x3 (in-place)
I0308 11:37:41.882736  1599 net.cpp:96] Setting up inception_4b/relu_3x3
I0308 11:37:41.882743  1599 net.cpp:103] Top shape: 25 224 14 14 (1097600)
I0308 11:37:41.882751  1599 net.cpp:67] Creating Layer inception_4b/5x5_reduce
I0308 11:37:41.882755  1599 net.cpp:394] inception_4b/5x5_reduce <- inception_4a/output_inception_4a/output_0_split_3
I0308 11:37:41.882763  1599 net.cpp:356] inception_4b/5x5_reduce -> inception_4b/5x5_reduce
I0308 11:37:41.882769  1599 net.cpp:96] Setting up inception_4b/5x5_reduce
I0308 11:37:41.883008  1599 net.cpp:103] Top shape: 25 24 14 14 (117600)
I0308 11:37:41.883031  1599 net.cpp:67] Creating Layer inception_4b/relu_5x5_reduce
I0308 11:37:41.883038  1599 net.cpp:394] inception_4b/relu_5x5_reduce <- inception_4b/5x5_reduce
I0308 11:37:41.883044  1599 net.cpp:345] inception_4b/relu_5x5_reduce -> inception_4b/5x5_reduce (in-place)
I0308 11:37:41.883050  1599 net.cpp:96] Setting up inception_4b/relu_5x5_reduce
I0308 11:37:41.883056  1599 net.cpp:103] Top shape: 25 24 14 14 (117600)
I0308 11:37:41.883066  1599 net.cpp:67] Creating Layer inception_4b/5x5
I0308 11:37:41.883086  1599 net.cpp:394] inception_4b/5x5 <- inception_4b/5x5_reduce
I0308 11:37:41.883093  1599 net.cpp:356] inception_4b/5x5 -> inception_4b/5x5
I0308 11:37:41.883100  1599 net.cpp:96] Setting up inception_4b/5x5
I0308 11:37:41.883466  1599 net.cpp:103] Top shape: 25 64 14 14 (313600)
I0308 11:37:41.883489  1599 net.cpp:67] Creating Layer inception_4b/relu_5x5
I0308 11:37:41.883494  1599 net.cpp:394] inception_4b/relu_5x5 <- inception_4b/5x5
I0308 11:37:41.883501  1599 net.cpp:345] inception_4b/relu_5x5 -> inception_4b/5x5 (in-place)
I0308 11:37:41.883507  1599 net.cpp:96] Setting up inception_4b/relu_5x5
I0308 11:37:41.883512  1599 net.cpp:103] Top shape: 25 64 14 14 (313600)
I0308 11:37:41.883519  1599 net.cpp:67] Creating Layer inception_4b/pool
I0308 11:37:41.883523  1599 net.cpp:394] inception_4b/pool <- inception_4a/output_inception_4a/output_0_split_4
I0308 11:37:41.883532  1599 net.cpp:356] inception_4b/pool -> inception_4b/pool
I0308 11:37:41.883548  1599 net.cpp:96] Setting up inception_4b/pool
I0308 11:37:41.883558  1599 net.cpp:103] Top shape: 25 512 14 14 (2508800)
I0308 11:37:41.883566  1599 net.cpp:67] Creating Layer inception_4b/pool_proj
I0308 11:37:41.883571  1599 net.cpp:394] inception_4b/pool_proj <- inception_4b/pool
I0308 11:37:41.883579  1599 net.cpp:356] inception_4b/pool_proj -> inception_4b/pool_proj
I0308 11:37:41.883586  1599 net.cpp:96] Setting up inception_4b/pool_proj
I0308 11:37:41.883900  1599 net.cpp:103] Top shape: 25 64 14 14 (313600)
I0308 11:37:41.883921  1599 net.cpp:67] Creating Layer inception_4b/relu_pool_proj
I0308 11:37:41.883927  1599 net.cpp:394] inception_4b/relu_pool_proj <- inception_4b/pool_proj
I0308 11:37:41.883934  1599 net.cpp:345] inception_4b/relu_pool_proj -> inception_4b/pool_proj (in-place)
I0308 11:37:41.883939  1599 net.cpp:96] Setting up inception_4b/relu_pool_proj
I0308 11:37:41.883945  1599 net.cpp:103] Top shape: 25 64 14 14 (313600)
I0308 11:37:41.883955  1599 net.cpp:67] Creating Layer inception_4b/output
I0308 11:37:41.883958  1599 net.cpp:394] inception_4b/output <- inception_4b/1x1
I0308 11:37:41.883965  1599 net.cpp:394] inception_4b/output <- inception_4b/3x3
I0308 11:37:41.883968  1599 net.cpp:394] inception_4b/output <- inception_4b/5x5
I0308 11:37:41.883973  1599 net.cpp:394] inception_4b/output <- inception_4b/pool_proj
I0308 11:37:41.883978  1599 net.cpp:356] inception_4b/output -> inception_4b/output
I0308 11:37:41.883985  1599 net.cpp:96] Setting up inception_4b/output
I0308 11:37:41.883988  1599 net.cpp:103] Top shape: 25 512 14 14 (2508800)
I0308 11:37:41.883996  1599 net.cpp:67] Creating Layer inception_4b/output_inception_4b/output_0_split
I0308 11:37:41.883999  1599 net.cpp:394] inception_4b/output_inception_4b/output_0_split <- inception_4b/output
I0308 11:37:41.884004  1599 net.cpp:356] inception_4b/output_inception_4b/output_0_split -> inception_4b/output_inception_4b/output_0_split_0
I0308 11:37:41.884011  1599 net.cpp:356] inception_4b/output_inception_4b/output_0_split -> inception_4b/output_inception_4b/output_0_split_1
I0308 11:37:41.884023  1599 net.cpp:356] inception_4b/output_inception_4b/output_0_split -> inception_4b/output_inception_4b/output_0_split_2
I0308 11:37:41.884030  1599 net.cpp:356] inception_4b/output_inception_4b/output_0_split -> inception_4b/output_inception_4b/output_0_split_3
I0308 11:37:41.884037  1599 net.cpp:96] Setting up inception_4b/output_inception_4b/output_0_split
I0308 11:37:41.884042  1599 net.cpp:103] Top shape: 25 512 14 14 (2508800)
I0308 11:37:41.884044  1599 net.cpp:103] Top shape: 25 512 14 14 (2508800)
I0308 11:37:41.884048  1599 net.cpp:103] Top shape: 25 512 14 14 (2508800)
I0308 11:37:41.884052  1599 net.cpp:103] Top shape: 25 512 14 14 (2508800)
I0308 11:37:41.884060  1599 net.cpp:67] Creating Layer inception_4c/1x1
I0308 11:37:41.884065  1599 net.cpp:394] inception_4c/1x1 <- inception_4b/output_inception_4b/output_0_split_0
I0308 11:37:41.884070  1599 net.cpp:356] inception_4c/1x1 -> inception_4c/1x1
I0308 11:37:41.884076  1599 net.cpp:96] Setting up inception_4c/1x1
I0308 11:37:41.884681  1599 net.cpp:103] Top shape: 25 128 14 14 (627200)
I0308 11:37:41.884703  1599 net.cpp:67] Creating Layer inception_4c/relu_1x1
I0308 11:37:41.884709  1599 net.cpp:394] inception_4c/relu_1x1 <- inception_4c/1x1
I0308 11:37:41.884716  1599 net.cpp:345] inception_4c/relu_1x1 -> inception_4c/1x1 (in-place)
I0308 11:37:41.884721  1599 net.cpp:96] Setting up inception_4c/relu_1x1
I0308 11:37:41.884727  1599 net.cpp:103] Top shape: 25 128 14 14 (627200)
I0308 11:37:41.884737  1599 net.cpp:67] Creating Layer inception_4c/3x3_reduce
I0308 11:37:41.884742  1599 net.cpp:394] inception_4c/3x3_reduce <- inception_4b/output_inception_4b/output_0_split_1
I0308 11:37:41.884747  1599 net.cpp:356] inception_4c/3x3_reduce -> inception_4c/3x3_reduce
I0308 11:37:41.884753  1599 net.cpp:96] Setting up inception_4c/3x3_reduce
I0308 11:37:41.885335  1599 net.cpp:103] Top shape: 25 128 14 14 (627200)
I0308 11:37:41.885354  1599 net.cpp:67] Creating Layer inception_4c/relu_3x3_reduce
I0308 11:37:41.885360  1599 net.cpp:394] inception_4c/relu_3x3_reduce <- inception_4c/3x3_reduce
I0308 11:37:41.885367  1599 net.cpp:345] inception_4c/relu_3x3_reduce -> inception_4c/3x3_reduce (in-place)
I0308 11:37:41.885375  1599 net.cpp:96] Setting up inception_4c/relu_3x3_reduce
I0308 11:37:41.885380  1599 net.cpp:103] Top shape: 25 128 14 14 (627200)
I0308 11:37:41.885387  1599 net.cpp:67] Creating Layer inception_4c/3x3
I0308 11:37:41.885391  1599 net.cpp:394] inception_4c/3x3 <- inception_4c/3x3_reduce
I0308 11:37:41.885399  1599 net.cpp:356] inception_4c/3x3 -> inception_4c/3x3
I0308 11:37:41.885406  1599 net.cpp:96] Setting up inception_4c/3x3
I0308 11:37:41.887938  1599 net.cpp:103] Top shape: 25 256 14 14 (1254400)
I0308 11:37:41.887969  1599 net.cpp:67] Creating Layer inception_4c/relu_3x3
I0308 11:37:41.887977  1599 net.cpp:394] inception_4c/relu_3x3 <- inception_4c/3x3
I0308 11:37:41.887984  1599 net.cpp:345] inception_4c/relu_3x3 -> inception_4c/3x3 (in-place)
I0308 11:37:41.887990  1599 net.cpp:96] Setting up inception_4c/relu_3x3
I0308 11:37:41.887997  1599 net.cpp:103] Top shape: 25 256 14 14 (1254400)
I0308 11:37:41.888007  1599 net.cpp:67] Creating Layer inception_4c/5x5_reduce
I0308 11:37:41.888012  1599 net.cpp:394] inception_4c/5x5_reduce <- inception_4b/output_inception_4b/output_0_split_2
I0308 11:37:41.888020  1599 net.cpp:356] inception_4c/5x5_reduce -> inception_4c/5x5_reduce
I0308 11:37:41.888027  1599 net.cpp:96] Setting up inception_4c/5x5_reduce
I0308 11:37:41.888170  1599 net.cpp:103] Top shape: 25 24 14 14 (117600)
I0308 11:37:41.888190  1599 net.cpp:67] Creating Layer inception_4c/relu_5x5_reduce
I0308 11:37:41.888196  1599 net.cpp:394] inception_4c/relu_5x5_reduce <- inception_4c/5x5_reduce
I0308 11:37:41.888201  1599 net.cpp:345] inception_4c/relu_5x5_reduce -> inception_4c/5x5_reduce (in-place)
I0308 11:37:41.888207  1599 net.cpp:96] Setting up inception_4c/relu_5x5_reduce
I0308 11:37:41.888214  1599 net.cpp:103] Top shape: 25 24 14 14 (117600)
I0308 11:37:41.888226  1599 net.cpp:67] Creating Layer inception_4c/5x5
I0308 11:37:41.888231  1599 net.cpp:394] inception_4c/5x5 <- inception_4c/5x5_reduce
I0308 11:37:41.888237  1599 net.cpp:356] inception_4c/5x5 -> inception_4c/5x5
I0308 11:37:41.888243  1599 net.cpp:96] Setting up inception_4c/5x5
I0308 11:37:41.888628  1599 net.cpp:103] Top shape: 25 64 14 14 (313600)
I0308 11:37:41.888648  1599 net.cpp:67] Creating Layer inception_4c/relu_5x5
I0308 11:37:41.888653  1599 net.cpp:394] inception_4c/relu_5x5 <- inception_4c/5x5
I0308 11:37:41.888659  1599 net.cpp:345] inception_4c/relu_5x5 -> inception_4c/5x5 (in-place)
I0308 11:37:41.888665  1599 net.cpp:96] Setting up inception_4c/relu_5x5
I0308 11:37:41.888671  1599 net.cpp:103] Top shape: 25 64 14 14 (313600)
I0308 11:37:41.888680  1599 net.cpp:67] Creating Layer inception_4c/pool
I0308 11:37:41.888685  1599 net.cpp:394] inception_4c/pool <- inception_4b/output_inception_4b/output_0_split_3
I0308 11:37:41.888690  1599 net.cpp:356] inception_4c/pool -> inception_4c/pool
I0308 11:37:41.888710  1599 net.cpp:96] Setting up inception_4c/pool
I0308 11:37:41.888717  1599 net.cpp:103] Top shape: 25 512 14 14 (2508800)
I0308 11:37:41.888727  1599 net.cpp:67] Creating Layer inception_4c/pool_proj
I0308 11:37:41.888732  1599 net.cpp:394] inception_4c/pool_proj <- inception_4c/pool
I0308 11:37:41.888738  1599 net.cpp:356] inception_4c/pool_proj -> inception_4c/pool_proj
I0308 11:37:41.888744  1599 net.cpp:96] Setting up inception_4c/pool_proj
I0308 11:37:41.889063  1599 net.cpp:103] Top shape: 25 64 14 14 (313600)
I0308 11:37:41.889086  1599 net.cpp:67] Creating Layer inception_4c/relu_pool_proj
I0308 11:37:41.889091  1599 net.cpp:394] inception_4c/relu_pool_proj <- inception_4c/pool_proj
I0308 11:37:41.889096  1599 net.cpp:345] inception_4c/relu_pool_proj -> inception_4c/pool_proj (in-place)
I0308 11:37:41.889103  1599 net.cpp:96] Setting up inception_4c/relu_pool_proj
I0308 11:37:41.889109  1599 net.cpp:103] Top shape: 25 64 14 14 (313600)
I0308 11:37:41.889118  1599 net.cpp:67] Creating Layer inception_4c/output
I0308 11:37:41.889123  1599 net.cpp:394] inception_4c/output <- inception_4c/1x1
I0308 11:37:41.889128  1599 net.cpp:394] inception_4c/output <- inception_4c/3x3
I0308 11:37:41.889133  1599 net.cpp:394] inception_4c/output <- inception_4c/5x5
I0308 11:37:41.889137  1599 net.cpp:394] inception_4c/output <- inception_4c/pool_proj
I0308 11:37:41.889143  1599 net.cpp:356] inception_4c/output -> inception_4c/output
I0308 11:37:41.889149  1599 net.cpp:96] Setting up inception_4c/output
I0308 11:37:41.889153  1599 net.cpp:103] Top shape: 25 512 14 14 (2508800)
I0308 11:37:41.889159  1599 net.cpp:67] Creating Layer inception_4c/output_inception_4c/output_0_split
I0308 11:37:41.889163  1599 net.cpp:394] inception_4c/output_inception_4c/output_0_split <- inception_4c/output
I0308 11:37:41.889169  1599 net.cpp:356] inception_4c/output_inception_4c/output_0_split -> inception_4c/output_inception_4c/output_0_split_0
I0308 11:37:41.889176  1599 net.cpp:356] inception_4c/output_inception_4c/output_0_split -> inception_4c/output_inception_4c/output_0_split_1
I0308 11:37:41.889184  1599 net.cpp:356] inception_4c/output_inception_4c/output_0_split -> inception_4c/output_inception_4c/output_0_split_2
I0308 11:37:41.889191  1599 net.cpp:356] inception_4c/output_inception_4c/output_0_split -> inception_4c/output_inception_4c/output_0_split_3
I0308 11:37:41.889197  1599 net.cpp:96] Setting up inception_4c/output_inception_4c/output_0_split
I0308 11:37:41.889202  1599 net.cpp:103] Top shape: 25 512 14 14 (2508800)
I0308 11:37:41.889206  1599 net.cpp:103] Top shape: 25 512 14 14 (2508800)
I0308 11:37:41.889209  1599 net.cpp:103] Top shape: 25 512 14 14 (2508800)
I0308 11:37:41.889214  1599 net.cpp:103] Top shape: 25 512 14 14 (2508800)
I0308 11:37:41.889221  1599 net.cpp:67] Creating Layer inception_4d/1x1
I0308 11:37:41.889226  1599 net.cpp:394] inception_4d/1x1 <- inception_4c/output_inception_4c/output_0_split_0
I0308 11:37:41.889231  1599 net.cpp:356] inception_4d/1x1 -> inception_4d/1x1
I0308 11:37:41.889237  1599 net.cpp:96] Setting up inception_4d/1x1
I0308 11:37:41.889760  1599 net.cpp:103] Top shape: 25 112 14 14 (548800)
I0308 11:37:41.889782  1599 net.cpp:67] Creating Layer inception_4d/relu_1x1
I0308 11:37:41.889788  1599 net.cpp:394] inception_4d/relu_1x1 <- inception_4d/1x1
I0308 11:37:41.889794  1599 net.cpp:345] inception_4d/relu_1x1 -> inception_4d/1x1 (in-place)
I0308 11:37:41.889799  1599 net.cpp:96] Setting up inception_4d/relu_1x1
I0308 11:37:41.889806  1599 net.cpp:103] Top shape: 25 112 14 14 (548800)
I0308 11:37:41.889813  1599 net.cpp:67] Creating Layer inception_4d/3x3_reduce
I0308 11:37:41.889819  1599 net.cpp:394] inception_4d/3x3_reduce <- inception_4c/output_inception_4c/output_0_split_1
I0308 11:37:41.889827  1599 net.cpp:356] inception_4d/3x3_reduce -> inception_4d/3x3_reduce
I0308 11:37:41.889832  1599 net.cpp:96] Setting up inception_4d/3x3_reduce
I0308 11:37:41.890569  1599 net.cpp:103] Top shape: 25 144 14 14 (705600)
I0308 11:37:41.890594  1599 net.cpp:67] Creating Layer inception_4d/relu_3x3_reduce
I0308 11:37:41.890617  1599 net.cpp:394] inception_4d/relu_3x3_reduce <- inception_4d/3x3_reduce
I0308 11:37:41.890625  1599 net.cpp:345] inception_4d/relu_3x3_reduce -> inception_4d/3x3_reduce (in-place)
I0308 11:37:41.890630  1599 net.cpp:96] Setting up inception_4d/relu_3x3_reduce
I0308 11:37:41.890637  1599 net.cpp:103] Top shape: 25 144 14 14 (705600)
I0308 11:37:41.890648  1599 net.cpp:67] Creating Layer inception_4d/3x3
I0308 11:37:41.890652  1599 net.cpp:394] inception_4d/3x3 <- inception_4d/3x3_reduce
I0308 11:37:41.890658  1599 net.cpp:356] inception_4d/3x3 -> inception_4d/3x3
I0308 11:37:41.890665  1599 net.cpp:96] Setting up inception_4d/3x3
I0308 11:37:41.893797  1599 net.cpp:103] Top shape: 25 288 14 14 (1411200)
I0308 11:37:41.893821  1599 net.cpp:67] Creating Layer inception_4d/relu_3x3
I0308 11:37:41.893826  1599 net.cpp:394] inception_4d/relu_3x3 <- inception_4d/3x3
I0308 11:37:41.893834  1599 net.cpp:345] inception_4d/relu_3x3 -> inception_4d/3x3 (in-place)
I0308 11:37:41.893841  1599 net.cpp:96] Setting up inception_4d/relu_3x3
I0308 11:37:41.893847  1599 net.cpp:103] Top shape: 25 288 14 14 (1411200)
I0308 11:37:41.893857  1599 net.cpp:67] Creating Layer inception_4d/5x5_reduce
I0308 11:37:41.893862  1599 net.cpp:394] inception_4d/5x5_reduce <- inception_4c/output_inception_4c/output_0_split_2
I0308 11:37:41.893867  1599 net.cpp:356] inception_4d/5x5_reduce -> inception_4d/5x5_reduce
I0308 11:37:41.893873  1599 net.cpp:96] Setting up inception_4d/5x5_reduce
I0308 11:37:41.894054  1599 net.cpp:103] Top shape: 25 32 14 14 (156800)
I0308 11:37:41.894078  1599 net.cpp:67] Creating Layer inception_4d/relu_5x5_reduce
I0308 11:37:41.894083  1599 net.cpp:394] inception_4d/relu_5x5_reduce <- inception_4d/5x5_reduce
I0308 11:37:41.894089  1599 net.cpp:345] inception_4d/relu_5x5_reduce -> inception_4d/5x5_reduce (in-place)
I0308 11:37:41.894095  1599 net.cpp:96] Setting up inception_4d/relu_5x5_reduce
I0308 11:37:41.894103  1599 net.cpp:103] Top shape: 25 32 14 14 (156800)
I0308 11:37:41.894111  1599 net.cpp:67] Creating Layer inception_4d/5x5
I0308 11:37:41.894116  1599 net.cpp:394] inception_4d/5x5 <- inception_4d/5x5_reduce
I0308 11:37:41.894121  1599 net.cpp:356] inception_4d/5x5 -> inception_4d/5x5
I0308 11:37:41.894129  1599 net.cpp:96] Setting up inception_4d/5x5
I0308 11:37:41.894634  1599 net.cpp:103] Top shape: 25 64 14 14 (313600)
I0308 11:37:41.894654  1599 net.cpp:67] Creating Layer inception_4d/relu_5x5
I0308 11:37:41.894659  1599 net.cpp:394] inception_4d/relu_5x5 <- inception_4d/5x5
I0308 11:37:41.894665  1599 net.cpp:345] inception_4d/relu_5x5 -> inception_4d/5x5 (in-place)
I0308 11:37:41.894670  1599 net.cpp:96] Setting up inception_4d/relu_5x5
I0308 11:37:41.894676  1599 net.cpp:103] Top shape: 25 64 14 14 (313600)
I0308 11:37:41.894685  1599 net.cpp:67] Creating Layer inception_4d/pool
I0308 11:37:41.894690  1599 net.cpp:394] inception_4d/pool <- inception_4c/output_inception_4c/output_0_split_3
I0308 11:37:41.894695  1599 net.cpp:356] inception_4d/pool -> inception_4d/pool
I0308 11:37:41.894701  1599 net.cpp:96] Setting up inception_4d/pool
I0308 11:37:41.894708  1599 net.cpp:103] Top shape: 25 512 14 14 (2508800)
I0308 11:37:41.894718  1599 net.cpp:67] Creating Layer inception_4d/pool_proj
I0308 11:37:41.894722  1599 net.cpp:394] inception_4d/pool_proj <- inception_4d/pool
I0308 11:37:41.894728  1599 net.cpp:356] inception_4d/pool_proj -> inception_4d/pool_proj
I0308 11:37:41.894734  1599 net.cpp:96] Setting up inception_4d/pool_proj
I0308 11:37:41.895052  1599 net.cpp:103] Top shape: 25 64 14 14 (313600)
I0308 11:37:41.895074  1599 net.cpp:67] Creating Layer inception_4d/relu_pool_proj
I0308 11:37:41.895081  1599 net.cpp:394] inception_4d/relu_pool_proj <- inception_4d/pool_proj
I0308 11:37:41.895087  1599 net.cpp:345] inception_4d/relu_pool_proj -> inception_4d/pool_proj (in-place)
I0308 11:37:41.895092  1599 net.cpp:96] Setting up inception_4d/relu_pool_proj
I0308 11:37:41.895102  1599 net.cpp:103] Top shape: 25 64 14 14 (313600)
I0308 11:37:41.895107  1599 net.cpp:67] Creating Layer inception_4d/output
I0308 11:37:41.895125  1599 net.cpp:394] inception_4d/output <- inception_4d/1x1
I0308 11:37:41.895151  1599 net.cpp:394] inception_4d/output <- inception_4d/3x3
I0308 11:37:41.895158  1599 net.cpp:394] inception_4d/output <- inception_4d/5x5
I0308 11:37:41.895162  1599 net.cpp:394] inception_4d/output <- inception_4d/pool_proj
I0308 11:37:41.895167  1599 net.cpp:356] inception_4d/output -> inception_4d/output
I0308 11:37:41.895174  1599 net.cpp:96] Setting up inception_4d/output
I0308 11:37:41.895179  1599 net.cpp:103] Top shape: 25 528 14 14 (2587200)
I0308 11:37:41.895185  1599 net.cpp:67] Creating Layer inception_4d/output_inception_4d/output_0_split
I0308 11:37:41.895190  1599 net.cpp:394] inception_4d/output_inception_4d/output_0_split <- inception_4d/output
I0308 11:37:41.895195  1599 net.cpp:356] inception_4d/output_inception_4d/output_0_split -> inception_4d/output_inception_4d/output_0_split_0
I0308 11:37:41.895202  1599 net.cpp:356] inception_4d/output_inception_4d/output_0_split -> inception_4d/output_inception_4d/output_0_split_1
I0308 11:37:41.895211  1599 net.cpp:356] inception_4d/output_inception_4d/output_0_split -> inception_4d/output_inception_4d/output_0_split_2
I0308 11:37:41.895218  1599 net.cpp:356] inception_4d/output_inception_4d/output_0_split -> inception_4d/output_inception_4d/output_0_split_3
I0308 11:37:41.895225  1599 net.cpp:356] inception_4d/output_inception_4d/output_0_split -> inception_4d/output_inception_4d/output_0_split_4
I0308 11:37:41.895231  1599 net.cpp:96] Setting up inception_4d/output_inception_4d/output_0_split
I0308 11:37:41.895236  1599 net.cpp:103] Top shape: 25 528 14 14 (2587200)
I0308 11:37:41.895239  1599 net.cpp:103] Top shape: 25 528 14 14 (2587200)
I0308 11:37:41.895243  1599 net.cpp:103] Top shape: 25 528 14 14 (2587200)
I0308 11:37:41.895247  1599 net.cpp:103] Top shape: 25 528 14 14 (2587200)
I0308 11:37:41.895251  1599 net.cpp:103] Top shape: 25 528 14 14 (2587200)
I0308 11:37:41.895259  1599 net.cpp:67] Creating Layer loss2/ave_pool
I0308 11:37:41.895263  1599 net.cpp:394] loss2/ave_pool <- inception_4d/output_inception_4d/output_0_split_0
I0308 11:37:41.895269  1599 net.cpp:356] loss2/ave_pool -> loss2/ave_pool
I0308 11:37:41.895275  1599 net.cpp:96] Setting up loss2/ave_pool
I0308 11:37:41.895282  1599 net.cpp:103] Top shape: 25 528 4 4 (211200)
I0308 11:37:41.895290  1599 net.cpp:67] Creating Layer loss2/conv
I0308 11:37:41.895294  1599 net.cpp:394] loss2/conv <- loss2/ave_pool
I0308 11:37:41.895303  1599 net.cpp:356] loss2/conv -> loss2/conv
I0308 11:37:41.895308  1599 net.cpp:96] Setting up loss2/conv
I0308 11:37:41.895995  1599 net.cpp:103] Top shape: 25 128 4 4 (51200)
I0308 11:37:41.896018  1599 net.cpp:67] Creating Layer loss2/relu_conv
I0308 11:37:41.896023  1599 net.cpp:394] loss2/relu_conv <- loss2/conv
I0308 11:37:41.896029  1599 net.cpp:345] loss2/relu_conv -> loss2/conv (in-place)
I0308 11:37:41.896036  1599 net.cpp:96] Setting up loss2/relu_conv
I0308 11:37:41.896044  1599 net.cpp:103] Top shape: 25 128 4 4 (51200)
I0308 11:37:41.896050  1599 net.cpp:67] Creating Layer loss2/fc
I0308 11:37:41.896054  1599 net.cpp:394] loss2/fc <- loss2/conv
I0308 11:37:41.896064  1599 net.cpp:356] loss2/fc -> loss2/fc
I0308 11:37:41.896071  1599 net.cpp:96] Setting up loss2/fc
I0308 11:37:41.912330  1599 net.cpp:103] Top shape: 25 1024 1 1 (25600)
I0308 11:37:41.912355  1599 net.cpp:67] Creating Layer loss2/relu_fc
I0308 11:37:41.912361  1599 net.cpp:394] loss2/relu_fc <- loss2/fc
I0308 11:37:41.912371  1599 net.cpp:345] loss2/relu_fc -> loss2/fc (in-place)
I0308 11:37:41.912379  1599 net.cpp:96] Setting up loss2/relu_fc
I0308 11:37:41.912387  1599 net.cpp:103] Top shape: 25 1024 1 1 (25600)
I0308 11:37:41.912395  1599 net.cpp:67] Creating Layer loss2/drop_fc
I0308 11:37:41.912399  1599 net.cpp:394] loss2/drop_fc <- loss2/fc
I0308 11:37:41.912403  1599 net.cpp:345] loss2/drop_fc -> loss2/fc (in-place)
I0308 11:37:41.912410  1599 net.cpp:96] Setting up loss2/drop_fc
I0308 11:37:41.912413  1599 net.cpp:103] Top shape: 25 1024 1 1 (25600)
I0308 11:37:41.912438  1599 net.cpp:67] Creating Layer loss2/classifier
I0308 11:37:41.912443  1599 net.cpp:394] loss2/classifier <- loss2/fc
I0308 11:37:41.912449  1599 net.cpp:356] loss2/classifier -> loss2/classifier
I0308 11:37:41.912456  1599 net.cpp:96] Setting up loss2/classifier
I0308 11:37:41.913491  1599 net.cpp:103] Top shape: 25 121 1 1 (3025)
I0308 11:37:41.913516  1599 net.cpp:67] Creating Layer loss2/loss
I0308 11:37:41.913521  1599 net.cpp:394] loss2/loss <- loss2/classifier
I0308 11:37:41.913527  1599 net.cpp:394] loss2/loss <- label_data_1_split_1
I0308 11:37:41.913532  1599 net.cpp:356] loss2/loss -> loss2/loss1
I0308 11:37:41.913538  1599 net.cpp:96] Setting up loss2/loss
I0308 11:37:41.913558  1599 net.cpp:103] Top shape: 1 1 1 1 (1)
I0308 11:37:41.913568  1599 net.cpp:109]     with loss weight 0.3
I0308 11:37:41.913588  1599 net.cpp:67] Creating Layer inception_4e/1x1
I0308 11:37:41.913593  1599 net.cpp:394] inception_4e/1x1 <- inception_4d/output_inception_4d/output_0_split_1
I0308 11:37:41.913599  1599 net.cpp:356] inception_4e/1x1 -> inception_4e/1x1
I0308 11:37:41.913604  1599 net.cpp:96] Setting up inception_4e/1x1
I0308 11:37:41.914768  1599 net.cpp:103] Top shape: 25 256 14 14 (1254400)
I0308 11:37:41.914789  1599 net.cpp:67] Creating Layer inception_4e/relu_1x1
I0308 11:37:41.914795  1599 net.cpp:394] inception_4e/relu_1x1 <- inception_4e/1x1
I0308 11:37:41.914803  1599 net.cpp:345] inception_4e/relu_1x1 -> inception_4e/1x1 (in-place)
I0308 11:37:41.914810  1599 net.cpp:96] Setting up inception_4e/relu_1x1
I0308 11:37:41.914816  1599 net.cpp:103] Top shape: 25 256 14 14 (1254400)
I0308 11:37:41.914824  1599 net.cpp:67] Creating Layer inception_4e/3x3_reduce
I0308 11:37:41.914829  1599 net.cpp:394] inception_4e/3x3_reduce <- inception_4d/output_inception_4d/output_0_split_2
I0308 11:37:41.914836  1599 net.cpp:356] inception_4e/3x3_reduce -> inception_4e/3x3_reduce
I0308 11:37:41.914844  1599 net.cpp:96] Setting up inception_4e/3x3_reduce
I0308 11:37:41.915590  1599 net.cpp:103] Top shape: 25 160 14 14 (784000)
I0308 11:37:41.915611  1599 net.cpp:67] Creating Layer inception_4e/relu_3x3_reduce
I0308 11:37:41.915616  1599 net.cpp:394] inception_4e/relu_3x3_reduce <- inception_4e/3x3_reduce
I0308 11:37:41.915623  1599 net.cpp:345] inception_4e/relu_3x3_reduce -> inception_4e/3x3_reduce (in-place)
I0308 11:37:41.915630  1599 net.cpp:96] Setting up inception_4e/relu_3x3_reduce
I0308 11:37:41.915637  1599 net.cpp:103] Top shape: 25 160 14 14 (784000)
I0308 11:37:41.915644  1599 net.cpp:67] Creating Layer inception_4e/3x3
I0308 11:37:41.915648  1599 net.cpp:394] inception_4e/3x3 <- inception_4e/3x3_reduce
I0308 11:37:41.915655  1599 net.cpp:356] inception_4e/3x3 -> inception_4e/3x3
I0308 11:37:41.915663  1599 net.cpp:96] Setting up inception_4e/3x3
I0308 11:37:41.919474  1599 net.cpp:103] Top shape: 25 320 14 14 (1568000)
I0308 11:37:41.919495  1599 net.cpp:67] Creating Layer inception_4e/relu_3x3
I0308 11:37:41.919502  1599 net.cpp:394] inception_4e/relu_3x3 <- inception_4e/3x3
I0308 11:37:41.919507  1599 net.cpp:345] inception_4e/relu_3x3 -> inception_4e/3x3 (in-place)
I0308 11:37:41.919513  1599 net.cpp:96] Setting up inception_4e/relu_3x3
I0308 11:37:41.919520  1599 net.cpp:103] Top shape: 25 320 14 14 (1568000)
I0308 11:37:41.919529  1599 net.cpp:67] Creating Layer inception_4e/5x5_reduce
I0308 11:37:41.919534  1599 net.cpp:394] inception_4e/5x5_reduce <- inception_4d/output_inception_4d/output_0_split_3
I0308 11:37:41.919543  1599 net.cpp:356] inception_4e/5x5_reduce -> inception_4e/5x5_reduce
I0308 11:37:41.919549  1599 net.cpp:96] Setting up inception_4e/5x5_reduce
I0308 11:37:41.919729  1599 net.cpp:103] Top shape: 25 32 14 14 (156800)
I0308 11:37:41.919752  1599 net.cpp:67] Creating Layer inception_4e/relu_5x5_reduce
I0308 11:37:41.919759  1599 net.cpp:394] inception_4e/relu_5x5_reduce <- inception_4e/5x5_reduce
I0308 11:37:41.919764  1599 net.cpp:345] inception_4e/relu_5x5_reduce -> inception_4e/5x5_reduce (in-place)
I0308 11:37:41.919770  1599 net.cpp:96] Setting up inception_4e/relu_5x5_reduce
I0308 11:37:41.919790  1599 net.cpp:103] Top shape: 25 32 14 14 (156800)
I0308 11:37:41.919816  1599 net.cpp:67] Creating Layer inception_4e/5x5
I0308 11:37:41.919826  1599 net.cpp:394] inception_4e/5x5 <- inception_4e/5x5_reduce
I0308 11:37:41.919834  1599 net.cpp:356] inception_4e/5x5 -> inception_4e/5x5
I0308 11:37:41.919841  1599 net.cpp:96] Setting up inception_4e/5x5
I0308 11:37:41.920821  1599 net.cpp:103] Top shape: 25 128 14 14 (627200)
I0308 11:37:41.920845  1599 net.cpp:67] Creating Layer inception_4e/relu_5x5
I0308 11:37:41.920851  1599 net.cpp:394] inception_4e/relu_5x5 <- inception_4e/5x5
I0308 11:37:41.920858  1599 net.cpp:345] inception_4e/relu_5x5 -> inception_4e/5x5 (in-place)
I0308 11:37:41.920866  1599 net.cpp:96] Setting up inception_4e/relu_5x5
I0308 11:37:41.920872  1599 net.cpp:103] Top shape: 25 128 14 14 (627200)
I0308 11:37:41.920878  1599 net.cpp:67] Creating Layer inception_4e/pool
I0308 11:37:41.920883  1599 net.cpp:394] inception_4e/pool <- inception_4d/output_inception_4d/output_0_split_4
I0308 11:37:41.920889  1599 net.cpp:356] inception_4e/pool -> inception_4e/pool
I0308 11:37:41.920896  1599 net.cpp:96] Setting up inception_4e/pool
I0308 11:37:41.920902  1599 net.cpp:103] Top shape: 25 528 14 14 (2587200)
I0308 11:37:41.920912  1599 net.cpp:67] Creating Layer inception_4e/pool_proj
I0308 11:37:41.920917  1599 net.cpp:394] inception_4e/pool_proj <- inception_4e/pool
I0308 11:37:41.920923  1599 net.cpp:356] inception_4e/pool_proj -> inception_4e/pool_proj
I0308 11:37:41.920932  1599 net.cpp:96] Setting up inception_4e/pool_proj
I0308 11:37:41.921535  1599 net.cpp:103] Top shape: 25 128 14 14 (627200)
I0308 11:37:41.921557  1599 net.cpp:67] Creating Layer inception_4e/relu_pool_proj
I0308 11:37:41.921563  1599 net.cpp:394] inception_4e/relu_pool_proj <- inception_4e/pool_proj
I0308 11:37:41.921568  1599 net.cpp:345] inception_4e/relu_pool_proj -> inception_4e/pool_proj (in-place)
I0308 11:37:41.921576  1599 net.cpp:96] Setting up inception_4e/relu_pool_proj
I0308 11:37:41.921581  1599 net.cpp:103] Top shape: 25 128 14 14 (627200)
I0308 11:37:41.921587  1599 net.cpp:67] Creating Layer inception_4e/output
I0308 11:37:41.921591  1599 net.cpp:394] inception_4e/output <- inception_4e/1x1
I0308 11:37:41.921597  1599 net.cpp:394] inception_4e/output <- inception_4e/3x3
I0308 11:37:41.921602  1599 net.cpp:394] inception_4e/output <- inception_4e/5x5
I0308 11:37:41.921607  1599 net.cpp:394] inception_4e/output <- inception_4e/pool_proj
I0308 11:37:41.921612  1599 net.cpp:356] inception_4e/output -> inception_4e/output
I0308 11:37:41.921617  1599 net.cpp:96] Setting up inception_4e/output
I0308 11:37:41.921622  1599 net.cpp:103] Top shape: 25 832 14 14 (4076800)
I0308 11:37:41.921630  1599 net.cpp:67] Creating Layer pool4/3x3_s2
I0308 11:37:41.921634  1599 net.cpp:394] pool4/3x3_s2 <- inception_4e/output
I0308 11:37:41.921640  1599 net.cpp:356] pool4/3x3_s2 -> pool4/3x3_s2
I0308 11:37:41.921646  1599 net.cpp:96] Setting up pool4/3x3_s2
I0308 11:37:41.921654  1599 net.cpp:103] Top shape: 25 832 7 7 (1019200)
I0308 11:37:41.921663  1599 net.cpp:67] Creating Layer pool4/3x3_s2_pool4/3x3_s2_0_split
I0308 11:37:41.921668  1599 net.cpp:394] pool4/3x3_s2_pool4/3x3_s2_0_split <- pool4/3x3_s2
I0308 11:37:41.921672  1599 net.cpp:356] pool4/3x3_s2_pool4/3x3_s2_0_split -> pool4/3x3_s2_pool4/3x3_s2_0_split_0
I0308 11:37:41.921679  1599 net.cpp:356] pool4/3x3_s2_pool4/3x3_s2_0_split -> pool4/3x3_s2_pool4/3x3_s2_0_split_1
I0308 11:37:41.921685  1599 net.cpp:356] pool4/3x3_s2_pool4/3x3_s2_0_split -> pool4/3x3_s2_pool4/3x3_s2_0_split_2
I0308 11:37:41.921691  1599 net.cpp:356] pool4/3x3_s2_pool4/3x3_s2_0_split -> pool4/3x3_s2_pool4/3x3_s2_0_split_3
I0308 11:37:41.921697  1599 net.cpp:96] Setting up pool4/3x3_s2_pool4/3x3_s2_0_split
I0308 11:37:41.921702  1599 net.cpp:103] Top shape: 25 832 7 7 (1019200)
I0308 11:37:41.921705  1599 net.cpp:103] Top shape: 25 832 7 7 (1019200)
I0308 11:37:41.921710  1599 net.cpp:103] Top shape: 25 832 7 7 (1019200)
I0308 11:37:41.921713  1599 net.cpp:103] Top shape: 25 832 7 7 (1019200)
I0308 11:37:41.921736  1599 net.cpp:67] Creating Layer inception_5a/1x1
I0308 11:37:41.921741  1599 net.cpp:394] inception_5a/1x1 <- pool4/3x3_s2_pool4/3x3_s2_0_split_0
I0308 11:37:41.921748  1599 net.cpp:356] inception_5a/1x1 -> inception_5a/1x1
I0308 11:37:41.921754  1599 net.cpp:96] Setting up inception_5a/1x1
I0308 11:37:41.923527  1599 net.cpp:103] Top shape: 25 256 7 7 (313600)
I0308 11:37:41.923547  1599 net.cpp:67] Creating Layer inception_5a/relu_1x1
I0308 11:37:41.923553  1599 net.cpp:394] inception_5a/relu_1x1 <- inception_5a/1x1
I0308 11:37:41.923558  1599 net.cpp:345] inception_5a/relu_1x1 -> inception_5a/1x1 (in-place)
I0308 11:37:41.923565  1599 net.cpp:96] Setting up inception_5a/relu_1x1
I0308 11:37:41.923571  1599 net.cpp:103] Top shape: 25 256 7 7 (313600)
I0308 11:37:41.923583  1599 net.cpp:67] Creating Layer inception_5a/3x3_reduce
I0308 11:37:41.923588  1599 net.cpp:394] inception_5a/3x3_reduce <- pool4/3x3_s2_pool4/3x3_s2_0_split_1
I0308 11:37:41.923595  1599 net.cpp:356] inception_5a/3x3_reduce -> inception_5a/3x3_reduce
I0308 11:37:41.923602  1599 net.cpp:96] Setting up inception_5a/3x3_reduce
I0308 11:37:41.924751  1599 net.cpp:103] Top shape: 25 160 7 7 (196000)
I0308 11:37:41.924772  1599 net.cpp:67] Creating Layer inception_5a/relu_3x3_reduce
I0308 11:37:41.924777  1599 net.cpp:394] inception_5a/relu_3x3_reduce <- inception_5a/3x3_reduce
I0308 11:37:41.924787  1599 net.cpp:345] inception_5a/relu_3x3_reduce -> inception_5a/3x3_reduce (in-place)
I0308 11:37:41.924793  1599 net.cpp:96] Setting up inception_5a/relu_3x3_reduce
I0308 11:37:41.924799  1599 net.cpp:103] Top shape: 25 160 7 7 (196000)
I0308 11:37:41.924806  1599 net.cpp:67] Creating Layer inception_5a/3x3
I0308 11:37:41.924810  1599 net.cpp:394] inception_5a/3x3 <- inception_5a/3x3_reduce
I0308 11:37:41.924816  1599 net.cpp:356] inception_5a/3x3 -> inception_5a/3x3
I0308 11:37:41.924823  1599 net.cpp:96] Setting up inception_5a/3x3
I0308 11:37:41.928642  1599 net.cpp:103] Top shape: 25 320 7 7 (392000)
I0308 11:37:41.928663  1599 net.cpp:67] Creating Layer inception_5a/relu_3x3
I0308 11:37:41.928668  1599 net.cpp:394] inception_5a/relu_3x3 <- inception_5a/3x3
I0308 11:37:41.928676  1599 net.cpp:345] inception_5a/relu_3x3 -> inception_5a/3x3 (in-place)
I0308 11:37:41.928683  1599 net.cpp:96] Setting up inception_5a/relu_3x3
I0308 11:37:41.928692  1599 net.cpp:103] Top shape: 25 320 7 7 (392000)
I0308 11:37:41.928700  1599 net.cpp:67] Creating Layer inception_5a/5x5_reduce
I0308 11:37:41.928704  1599 net.cpp:394] inception_5a/5x5_reduce <- pool4/3x3_s2_pool4/3x3_s2_0_split_2
I0308 11:37:41.928710  1599 net.cpp:356] inception_5a/5x5_reduce -> inception_5a/5x5_reduce
I0308 11:37:41.928717  1599 net.cpp:96] Setting up inception_5a/5x5_reduce
I0308 11:37:41.929059  1599 net.cpp:103] Top shape: 25 32 7 7 (39200)
I0308 11:37:41.929083  1599 net.cpp:67] Creating Layer inception_5a/relu_5x5_reduce
I0308 11:37:41.929090  1599 net.cpp:394] inception_5a/relu_5x5_reduce <- inception_5a/5x5_reduce
I0308 11:37:41.929095  1599 net.cpp:345] inception_5a/relu_5x5_reduce -> inception_5a/5x5_reduce (in-place)
I0308 11:37:41.929101  1599 net.cpp:96] Setting up inception_5a/relu_5x5_reduce
I0308 11:37:41.929108  1599 net.cpp:103] Top shape: 25 32 7 7 (39200)
I0308 11:37:41.929116  1599 net.cpp:67] Creating Layer inception_5a/5x5
I0308 11:37:41.929121  1599 net.cpp:394] inception_5a/5x5 <- inception_5a/5x5_reduce
I0308 11:37:41.929128  1599 net.cpp:356] inception_5a/5x5 -> inception_5a/5x5
I0308 11:37:41.929136  1599 net.cpp:96] Setting up inception_5a/5x5
I0308 11:37:41.930019  1599 net.cpp:103] Top shape: 25 128 7 7 (156800)
I0308 11:37:41.930042  1599 net.cpp:67] Creating Layer inception_5a/relu_5x5
I0308 11:37:41.930048  1599 net.cpp:394] inception_5a/relu_5x5 <- inception_5a/5x5
I0308 11:37:41.930053  1599 net.cpp:345] inception_5a/relu_5x5 -> inception_5a/5x5 (in-place)
I0308 11:37:41.930059  1599 net.cpp:96] Setting up inception_5a/relu_5x5
I0308 11:37:41.930066  1599 net.cpp:103] Top shape: 25 128 7 7 (156800)
I0308 11:37:41.930085  1599 net.cpp:67] Creating Layer inception_5a/pool
I0308 11:37:41.930090  1599 net.cpp:394] inception_5a/pool <- pool4/3x3_s2_pool4/3x3_s2_0_split_3
I0308 11:37:41.930099  1599 net.cpp:356] inception_5a/pool -> inception_5a/pool
I0308 11:37:41.930105  1599 net.cpp:96] Setting up inception_5a/pool
I0308 11:37:41.930114  1599 net.cpp:103] Top shape: 25 832 7 7 (1019200)
I0308 11:37:41.930122  1599 net.cpp:67] Creating Layer inception_5a/pool_proj
I0308 11:37:41.930126  1599 net.cpp:394] inception_5a/pool_proj <- inception_5a/pool
I0308 11:37:41.930135  1599 net.cpp:356] inception_5a/pool_proj -> inception_5a/pool_proj
I0308 11:37:41.930141  1599 net.cpp:96] Setting up inception_5a/pool_proj
I0308 11:37:41.931054  1599 net.cpp:103] Top shape: 25 128 7 7 (156800)
I0308 11:37:41.931074  1599 net.cpp:67] Creating Layer inception_5a/relu_pool_proj
I0308 11:37:41.931080  1599 net.cpp:394] inception_5a/relu_pool_proj <- inception_5a/pool_proj
I0308 11:37:41.931088  1599 net.cpp:345] inception_5a/relu_pool_proj -> inception_5a/pool_proj (in-place)
I0308 11:37:41.931095  1599 net.cpp:96] Setting up inception_5a/relu_pool_proj
I0308 11:37:41.931102  1599 net.cpp:103] Top shape: 25 128 7 7 (156800)
I0308 11:37:41.931107  1599 net.cpp:67] Creating Layer inception_5a/output
I0308 11:37:41.931113  1599 net.cpp:394] inception_5a/output <- inception_5a/1x1
I0308 11:37:41.931116  1599 net.cpp:394] inception_5a/output <- inception_5a/3x3
I0308 11:37:41.931121  1599 net.cpp:394] inception_5a/output <- inception_5a/5x5
I0308 11:37:41.931126  1599 net.cpp:394] inception_5a/output <- inception_5a/pool_proj
I0308 11:37:41.931131  1599 net.cpp:356] inception_5a/output -> inception_5a/output
I0308 11:37:41.931138  1599 net.cpp:96] Setting up inception_5a/output
I0308 11:37:41.931141  1599 net.cpp:103] Top shape: 25 832 7 7 (1019200)
I0308 11:37:41.931149  1599 net.cpp:67] Creating Layer inception_5a/output_inception_5a/output_0_split
I0308 11:37:41.931152  1599 net.cpp:394] inception_5a/output_inception_5a/output_0_split <- inception_5a/output
I0308 11:37:41.931160  1599 net.cpp:356] inception_5a/output_inception_5a/output_0_split -> inception_5a/output_inception_5a/output_0_split_0
I0308 11:37:41.931167  1599 net.cpp:356] inception_5a/output_inception_5a/output_0_split -> inception_5a/output_inception_5a/output_0_split_1
I0308 11:37:41.931174  1599 net.cpp:356] inception_5a/output_inception_5a/output_0_split -> inception_5a/output_inception_5a/output_0_split_2
I0308 11:37:41.931180  1599 net.cpp:356] inception_5a/output_inception_5a/output_0_split -> inception_5a/output_inception_5a/output_0_split_3
I0308 11:37:41.931186  1599 net.cpp:96] Setting up inception_5a/output_inception_5a/output_0_split
I0308 11:37:41.931191  1599 net.cpp:103] Top shape: 25 832 7 7 (1019200)
I0308 11:37:41.931195  1599 net.cpp:103] Top shape: 25 832 7 7 (1019200)
I0308 11:37:41.931198  1599 net.cpp:103] Top shape: 25 832 7 7 (1019200)
I0308 11:37:41.931202  1599 net.cpp:103] Top shape: 25 832 7 7 (1019200)
I0308 11:37:41.931211  1599 net.cpp:67] Creating Layer inception_5b/1x1
I0308 11:37:41.931216  1599 net.cpp:394] inception_5b/1x1 <- inception_5a/output_inception_5a/output_0_split_0
I0308 11:37:41.931221  1599 net.cpp:356] inception_5b/1x1 -> inception_5b/1x1
I0308 11:37:41.931227  1599 net.cpp:96] Setting up inception_5b/1x1
I0308 11:37:41.933920  1599 net.cpp:103] Top shape: 25 384 7 7 (470400)
I0308 11:37:41.933941  1599 net.cpp:67] Creating Layer inception_5b/relu_1x1
I0308 11:37:41.933950  1599 net.cpp:394] inception_5b/relu_1x1 <- inception_5b/1x1
I0308 11:37:41.933959  1599 net.cpp:345] inception_5b/relu_1x1 -> inception_5b/1x1 (in-place)
I0308 11:37:41.933965  1599 net.cpp:96] Setting up inception_5b/relu_1x1
I0308 11:37:41.933972  1599 net.cpp:103] Top shape: 25 384 7 7 (470400)
I0308 11:37:41.933979  1599 net.cpp:67] Creating Layer inception_5b/3x3_reduce
I0308 11:37:41.933984  1599 net.cpp:394] inception_5b/3x3_reduce <- inception_5a/output_inception_5a/output_0_split_1
I0308 11:37:41.933990  1599 net.cpp:356] inception_5b/3x3_reduce -> inception_5b/3x3_reduce
I0308 11:37:41.934008  1599 net.cpp:96] Setting up inception_5b/3x3_reduce
I0308 11:37:41.935367  1599 net.cpp:103] Top shape: 25 192 7 7 (235200)
I0308 11:37:41.935389  1599 net.cpp:67] Creating Layer inception_5b/relu_3x3_reduce
I0308 11:37:41.935394  1599 net.cpp:394] inception_5b/relu_3x3_reduce <- inception_5b/3x3_reduce
I0308 11:37:41.935401  1599 net.cpp:345] inception_5b/relu_3x3_reduce -> inception_5b/3x3_reduce (in-place)
I0308 11:37:41.935408  1599 net.cpp:96] Setting up inception_5b/relu_3x3_reduce
I0308 11:37:41.935415  1599 net.cpp:103] Top shape: 25 192 7 7 (235200)
I0308 11:37:41.935422  1599 net.cpp:67] Creating Layer inception_5b/3x3
I0308 11:37:41.935426  1599 net.cpp:394] inception_5b/3x3 <- inception_5b/3x3_reduce
I0308 11:37:41.935434  1599 net.cpp:356] inception_5b/3x3 -> inception_5b/3x3
I0308 11:37:41.935458  1599 net.cpp:96] Setting up inception_5b/3x3
I0308 11:37:41.941005  1599 net.cpp:103] Top shape: 25 384 7 7 (470400)
I0308 11:37:41.941028  1599 net.cpp:67] Creating Layer inception_5b/relu_3x3
I0308 11:37:41.941035  1599 net.cpp:394] inception_5b/relu_3x3 <- inception_5b/3x3
I0308 11:37:41.941043  1599 net.cpp:345] inception_5b/relu_3x3 -> inception_5b/3x3 (in-place)
I0308 11:37:41.941050  1599 net.cpp:96] Setting up inception_5b/relu_3x3
I0308 11:37:41.941056  1599 net.cpp:103] Top shape: 25 384 7 7 (470400)
I0308 11:37:41.941064  1599 net.cpp:67] Creating Layer inception_5b/5x5_reduce
I0308 11:37:41.941069  1599 net.cpp:394] inception_5b/5x5_reduce <- inception_5a/output_inception_5a/output_0_split_2
I0308 11:37:41.941076  1599 net.cpp:356] inception_5b/5x5_reduce -> inception_5b/5x5_reduce
I0308 11:37:41.941082  1599 net.cpp:96] Setting up inception_5b/5x5_reduce
I0308 11:37:41.941462  1599 net.cpp:103] Top shape: 25 48 7 7 (58800)
I0308 11:37:41.941483  1599 net.cpp:67] Creating Layer inception_5b/relu_5x5_reduce
I0308 11:37:41.941488  1599 net.cpp:394] inception_5b/relu_5x5_reduce <- inception_5b/5x5_reduce
I0308 11:37:41.941494  1599 net.cpp:345] inception_5b/relu_5x5_reduce -> inception_5b/5x5_reduce (in-place)
I0308 11:37:41.941500  1599 net.cpp:96] Setting up inception_5b/relu_5x5_reduce
I0308 11:37:41.941506  1599 net.cpp:103] Top shape: 25 48 7 7 (58800)
I0308 11:37:41.941516  1599 net.cpp:67] Creating Layer inception_5b/5x5
I0308 11:37:41.941521  1599 net.cpp:394] inception_5b/5x5 <- inception_5b/5x5_reduce
I0308 11:37:41.941527  1599 net.cpp:356] inception_5b/5x5 -> inception_5b/5x5
I0308 11:37:41.941535  1599 net.cpp:96] Setting up inception_5b/5x5
I0308 11:37:41.942828  1599 net.cpp:103] Top shape: 25 128 7 7 (156800)
I0308 11:37:41.942852  1599 net.cpp:67] Creating Layer inception_5b/relu_5x5
I0308 11:37:41.942857  1599 net.cpp:394] inception_5b/relu_5x5 <- inception_5b/5x5
I0308 11:37:41.942862  1599 net.cpp:345] inception_5b/relu_5x5 -> inception_5b/5x5 (in-place)
I0308 11:37:41.942868  1599 net.cpp:96] Setting up inception_5b/relu_5x5
I0308 11:37:41.942875  1599 net.cpp:103] Top shape: 25 128 7 7 (156800)
I0308 11:37:41.942881  1599 net.cpp:67] Creating Layer inception_5b/pool
I0308 11:37:41.942886  1599 net.cpp:394] inception_5b/pool <- inception_5a/output_inception_5a/output_0_split_3
I0308 11:37:41.942894  1599 net.cpp:356] inception_5b/pool -> inception_5b/pool
I0308 11:37:41.942901  1599 net.cpp:96] Setting up inception_5b/pool
I0308 11:37:41.942909  1599 net.cpp:103] Top shape: 25 832 7 7 (1019200)
I0308 11:37:41.942916  1599 net.cpp:67] Creating Layer inception_5b/pool_proj
I0308 11:37:41.942924  1599 net.cpp:394] inception_5b/pool_proj <- inception_5b/pool
I0308 11:37:41.942929  1599 net.cpp:356] inception_5b/pool_proj -> inception_5b/pool_proj
I0308 11:37:41.942935  1599 net.cpp:96] Setting up inception_5b/pool_proj
I0308 11:37:41.943848  1599 net.cpp:103] Top shape: 25 128 7 7 (156800)
I0308 11:37:41.943868  1599 net.cpp:67] Creating Layer inception_5b/relu_pool_proj
I0308 11:37:41.943874  1599 net.cpp:394] inception_5b/relu_pool_proj <- inception_5b/pool_proj
I0308 11:37:41.943881  1599 net.cpp:345] inception_5b/relu_pool_proj -> inception_5b/pool_proj (in-place)
I0308 11:37:41.943900  1599 net.cpp:96] Setting up inception_5b/relu_pool_proj
I0308 11:37:41.943907  1599 net.cpp:103] Top shape: 25 128 7 7 (156800)
I0308 11:37:41.943917  1599 net.cpp:67] Creating Layer inception_5b/output
I0308 11:37:41.943922  1599 net.cpp:394] inception_5b/output <- inception_5b/1x1
I0308 11:37:41.943927  1599 net.cpp:394] inception_5b/output <- inception_5b/3x3
I0308 11:37:41.943930  1599 net.cpp:394] inception_5b/output <- inception_5b/5x5
I0308 11:37:41.943935  1599 net.cpp:394] inception_5b/output <- inception_5b/pool_proj
I0308 11:37:41.943940  1599 net.cpp:356] inception_5b/output -> inception_5b/output
I0308 11:37:41.943946  1599 net.cpp:96] Setting up inception_5b/output
I0308 11:37:41.943951  1599 net.cpp:103] Top shape: 25 1024 7 7 (1254400)
I0308 11:37:41.943959  1599 net.cpp:67] Creating Layer pool5/7x7_s1
I0308 11:37:41.943964  1599 net.cpp:394] pool5/7x7_s1 <- inception_5b/output
I0308 11:37:41.943969  1599 net.cpp:356] pool5/7x7_s1 -> pool5/7x7_s1
I0308 11:37:41.943975  1599 net.cpp:96] Setting up pool5/7x7_s1
I0308 11:37:41.943982  1599 net.cpp:103] Top shape: 25 1024 1 1 (25600)
I0308 11:37:41.943989  1599 net.cpp:67] Creating Layer pool5/drop_7x7_s1
I0308 11:37:41.943994  1599 net.cpp:394] pool5/drop_7x7_s1 <- pool5/7x7_s1
I0308 11:37:41.944000  1599 net.cpp:345] pool5/drop_7x7_s1 -> pool5/7x7_s1 (in-place)
I0308 11:37:41.944006  1599 net.cpp:96] Setting up pool5/drop_7x7_s1
I0308 11:37:41.944010  1599 net.cpp:103] Top shape: 25 1024 1 1 (25600)
I0308 11:37:41.944017  1599 net.cpp:67] Creating Layer loss3/classifier
I0308 11:37:41.944021  1599 net.cpp:394] loss3/classifier <- pool5/7x7_s1
I0308 11:37:41.944030  1599 net.cpp:356] loss3/classifier -> loss3/classifier
I0308 11:37:41.944036  1599 net.cpp:96] Setting up loss3/classifier
I0308 11:37:41.945060  1599 net.cpp:103] Top shape: 25 121 1 1 (3025)
I0308 11:37:41.945082  1599 net.cpp:67] Creating Layer loss3/loss3
I0308 11:37:41.945087  1599 net.cpp:394] loss3/loss3 <- loss3/classifier
I0308 11:37:41.945093  1599 net.cpp:394] loss3/loss3 <- label_data_1_split_2
I0308 11:37:41.945099  1599 net.cpp:356] loss3/loss3 -> loss3/loss3
I0308 11:37:41.945106  1599 net.cpp:96] Setting up loss3/loss3
I0308 11:37:41.945122  1599 net.cpp:103] Top shape: 1 1 1 1 (1)
I0308 11:37:41.945129  1599 net.cpp:109]     with loss weight 1
I0308 11:37:41.945142  1599 net.cpp:170] loss3/loss3 needs backward computation.
I0308 11:37:41.945145  1599 net.cpp:170] loss3/classifier needs backward computation.
I0308 11:37:41.945149  1599 net.cpp:170] pool5/drop_7x7_s1 needs backward computation.
I0308 11:37:41.945153  1599 net.cpp:170] pool5/7x7_s1 needs backward computation.
…
I0308 11:37:41.949161  1599 solver.cpp:151] Creating test net (#0) specified by net file: caffe/256_scale_aug2/gnet/train.prototxt
I0308 11:37:41.949322  1599 net.cpp:275] The NetState phase (1) differed from the phase (0) specified by a rule in layer data
I0308 11:37:41.950286  1599 net.cpp:39] Initializing net from parameters: 
name: "GoogleNet"
layers {
  top: "data"
  top: "label"
  name: "data"
  type: DATA
  data_param {
    source: "data/256_scale_aug2/val_lmdb"
    batch_size: 50
    backend: LMDB
  }
  include {
    phase: TEST
  }
  transform_param {
    mirror: false
    crop_size: 224
    mean_file: "data/256_scale_aug2/val_mean.binaryproto"
  }
}
layers {
  bottom: "data"
  top: "conv1/7x7_s2"
  name: "conv1/7x7_s2"
  type: CONVOLUTION
  blobs_lr: 1
  blobs_lr: 2
  weight_decay: 1
  weight_decay: 0
  convolution_param {
    num_output: 64
    pad: 3
    kernel_size: 7
    stride: 2
    weight_filler {
      type: "xavier"
      std: 0.1
    }
    bias_filler {
      type: "constant"
      value: 0.2
    }
  }
}
layers {
  bottom: "conv1/7x7_s2"
  top: "conv1/7x7_s2"
  name: "conv1/relu_7x7"
  type: RELU
}
layers {
  bottom: "conv1/7x7_s2"
  top: "pool1/3x3_s2"
  name: "pool1/3x3_s2"
  type: POOLING
  pooling_param {
    pool: MAX
    kernel_size: 3
    stride: 2
  }
}
layers {
  bottom: "pool1/3x3_s2"
  top: "pool1/norm1"
  name: "pool1/norm1"
  type: LRN
  lrn_param {
    local_size: 5
    alpha: 0.0001
    beta: 0.75
  }
}
layers {
  bottom: "pool1/norm1"
  top: "conv2/3x3_reduce"
  name: "conv2/3x3_reduce"
  type: CONVOLUTION
  blobs_lr: 1
  blobs_lr: 2
  weight_decay: 1
  weight_decay: 0
  convolution_param {
    num_output: 64
    kernel_size: 1
    weight_filler {
      type: "xavier"
      std: 0.1
    }
    bias_filler {
      type: "constant"
      value: 0.2
    }
  }
}
layers {
  bottom: "conv2/3x3_reduce"
  top: "conv2/3x3_reduce"
  name: "conv2/relu_3x3_reduce"
  type: RELU
}
layers {
  bottom: "conv2/3x3_reduce"
  top: "conv2/3x3"
  name: "conv2/3x3"
  type: CONVOLUTION
  blobs_lr: 1
  blobs_lr: 2
  weight_decay: 1
  weight_decay: 0
  convolution_param {
    num_output: 192
    pad: 1
    kernel_size: 3
    weight_filler {
      type: "xavier"
      std: 0.03
    }
    bias_filler {
      type: "constant"
      value: 0.2
    }
  }
}
layers {
  bottom: "conv2/3x3"
  top: "conv2/3x3"
  name: "conv2/relu_3x3"
  type: RELU
}
layers {
  bottom: "conv2/3x3"
  top: "conv2/norm2"
  name: "conv2/norm2"
  type: LRN
  lrn_param {
    local_size: 5
    alpha: 0.0001
    beta: 0.75
  }
}
layers {
  bottom: "conv2/norm2"
  top: "pool2/3x3_s2"
  name: "pool2/3x3_s2"
  type: POOLING
  pooling_param {
    pool: MAX
    kernel_size: 3
    stride: 2
  }
}
layers {
  bottom: "pool2/3x3_s2"
  top: "inception_3a/1x1"
  name: "inception_3a/1x1"
  type: CONVOLUTION
  blobs_lr: 1
  blobs_lr: 2
  weight_decay: 1
  weight_decay: 0
  convolution_param {
    num_output: 64
    kernel_size: 1
    weight_filler {
      type: "xavier"
      std: 0.03
    }
    bias_filler {
      type: "constant"
      value: 0.2
    }
  }
}
layers {
  bottom: "inception_3a/1x1"
  top: "inception_3a/1x1"
  name: "inception_3a/relu_1x1"
  type: RELU
}
layers {
  bottom: "pool2/3x3_s2"
  top: "inception_3a/3x3_reduce"
  name: "inception_3a/3x3_reduce"
  type: CONVOLUTION
  blobs_lr: 1
  blobs_lr: 2
  weight_decay: 1
  weight_decay: 0
  convolution_param {
    num_output: 96
    kernel_size: 1
    weight_filler {
      type: "xavier"
      std: 0.09
    }
    bias_filler {
      type: "constant"
      value: 0.2
    }
  }
}
layers {
  bottom: "inception_3a/3x3_reduce"
  top: "inception_3a/3x3_reduce"
  name: "inception_3a/relu_3x3_reduce"
  type: RELU
}
layers {
  bottom: "inception_3a/3x3_reduce"
  top: "inception_3a/3x3"
  name: "inception_3a/3x3"
  type: CONVOLUTION
  blobs_lr: 1
  blobs_lr: 2
  weight_decay: 1
  weight_decay: 0
  convolution_param {
    num_output: 128
    pad: 1
    kernel_size: 3
    weight_filler {
      type: "xavier"
      std: 0.03
    }
    bias_filler {
      type: "constant"
      value: 0.2
    }
  }
}
layers {
  bottom: "inception_3a/3x3"
  top: "inception_3a/3x3"
  name: "inception_3a/relu_3x3"
  type: RELU
}
layers {
  bottom: "pool2/3x3_s2"
  top: "inception_3a/5x5_reduce"
  name: "inception_3a/5x5_reduce"
  type: CONVOLUTION
  blobs_lr: 1
  blobs_lr: 2
  weight_decay: 1
  weight_decay: 0
  convolution_param {
    num_output: 16
    kernel_size: 1
    weight_filler {
      type: "xavier"
      std: 0.2
    }
    bias_filler {
      type: "constant"
      value: 0.2
    }
  }
}
layers {
  bottom: "inception_3a/5x5_reduce"
  top: "inception_3a/5x5_reduce"
  name: "inception_3a/relu_5x5_reduce"
  type: RELU
}
layers {
  bottom: "inception_3a/5x5_reduce"
  top: "inception_3a/5x5"
  name: "inception_3a/5x5"
  type: CONVOLUTION
  blobs_lr: 1
  blobs_lr: 2
  weight_decay: 1
  weight_decay: 0
  convolution_param {
    num_output: 32
    pad: 2
    kernel_size: 5
    weight_filler {
      type: "xavier"
      std: 0.03
    }
    bias_filler {
      type: "constant"
      value: 0.2
    }
  }
}
layers {
  bottom: "inception_3a/5x5"
  top: "inception_3a/5x5"
  name: "inception_3a/relu_5x5"
  type: RELU
}
layers {
  bottom: "pool2/3x3_s2"
  top: "inception_3a/pool"
  name: "inception_3a/pool"
  type: POOLING
  pooling_param {
    pool: MAX
    kernel_size: 3
    stride: 1
    pad: 1
  }
}
layers {
  bottom: "inception_3a/pool"
  top: "inception_3a/pool_proj"
  name: "inception_3a/pool_proj"
  type: CONVOLUTION
  blobs_lr: 1
  blobs_lr: 2
  weight_decay: 1
  weight_decay: 0
  convolution_param {
    num_output: 32
    kernel_size: 1
    weight_filler {
      type: "xavier"
      std: 0.1
    }
    bias_filler {
      type: "constant"
      value: 0.2
    }
  }
}
layers {
  bottom: "inception_3a/pool_proj"
  top: "inception_3a/pool_proj"
  name: "inception_3a/relu_pool_proj"
  type: RELU
}
layers {
  bottom: "inception_3a/1x1"
  bottom: "inception_3a/3x3"
  bottom: "inception_3a/5x5"
  bottom: "inception_3a/pool_proj"
  top: "inception_3a/output"
  name: "inception_3a/output"
  type: CONCAT
}
layers {
  bottom: "inception_3a/output"
  top: "inception_3b/1x1"
  name: "inception_3b/1x1"
  type: CONVOLUTION
  blobs_lr: 1
  blobs_lr: 2
  weight_decay: 1
  weight_decay: 0
  convolution_param {
    num_output: 128
    kernel_size: 1
    weight_filler {
      type: "xavier"
      std: 0.03
    }
    bias_filler {
      type: "constant"
      value: 0.2
    }
  }
}
layers {
  bottom: "inception_3b/1x1"
  top: "inception_3b/1x1"
  name: "inception_3b/relu_1x1"
  type: RELU
}
layers {
  bottom: "inception_3a/output"
  top: "inception_3b/3x3_reduce"
  name: "inception_3b/3x3_reduce"
  type: CONVOLUTION
  blobs_lr: 1
  blobs_lr: 2
  weight_decay: 1
  weight_decay: 0
  convolution_param {
    num_output: 128
    kernel_size: 1
    weight_filler {
      type: "xavier"
      std: 0.09
    }
    bias_filler {
      type: "constant"
      value: 0.2
    }
  }
}
layers {
  bottom: "inception_3b/3x3_reduce"
  top: "inception_3b/3x3_reduce"
  name: "inception_3b/relu_3x3_reduce"
  type: RELU
}
layers {
  bottom: "inception_3b/3x3_reduce"
  top: "inception_3b/3x3"
  name: "inception_3b/3x3"
  type: CONVOLUTION
  blobs_lr: 1
  blobs_lr: 2
  weight_decay: 1
  weight_decay: 0
  convolution_param {
    num_output: 192
    pad: 1
    kernel_size: 3
    weight_filler {
      type: "xavier"
      std: 0.03
    }
    bias_filler {
      type: "constant"
      value: 0.2
    }
  }
}
layers {
  bottom: "inception_3b/3x3"
  top: "inception_3b/3x3"
  name: "inception_3b/relu_3x3"
  type: RELU
}
layers {
  bottom: "inception_3a/output"
  top: "inception_3b/5x5_reduce"
  name: "inception_3b/5x5_reduce"
  type: CONVOLUTION
  blobs_lr: 1
  blobs_lr: 2
  weight_decay: 1
  weight_decay: 0
  convolution_param {
    num_output: 32
    kernel_size: 1
    weight_filler {
      type: "xavier"
      std: 0.2
    }
    bias_filler {
      type: "constant"
      value: 0.2
    }
  }
}
layers {
  bottom: "inception_3b/5x5_reduce"
  top: "inception_3b/5x5_reduce"
  name: "inception_3b/relu_5x5_reduce"
  type: RELU
}
layers {
  bottom: "inception_3b/5x5_reduce"
  top: "inception_3b/5x5"
  name: "inception_3b/5x5"
  type: CONVOLUTION
  blobs_lr: 1
  blobs_lr: 2
  weight_decay: 1
  weight_decay: 0
  convolution_param {
    num_output: 96
    pad: 2
    kernel_size: 5
    weight_filler {
      type: "xavier"
      std: 0.03
    }
    bias_filler {
      type: "constant"
      value: 0.2
    }
  }
}
layers {
  bottom: "inception_3b/5x5"
  top: "inception_3b/5x5"
  name: "inception_3b/relu_5x5"
  type: RELU
}
layers {
  bottom: "inception_3a/output"
  top: "inception_3b/pool"
  name: "inception_3b/pool"
  type: POOLING
  pooling_param {
    pool: MAX
    kernel_size: 3
    stride: 1
    pad: 1
  }
}
layers {
  bottom: "inception_3b/pool"
  top: "inception_3b/pool_proj"
  name: "inception_3b/pool_proj"
  type: CONVOLUTION
  blobs_lr: 1
  blobs_lr: 2
  weight_decay: 1
  weight_decay: 0
  convolution_param {
    num_output: 64
    kernel_size: 1
    weight_filler {
      type: "xavier"
      std: 0.1
    }
    bias_filler {
      type: "constant"
      value: 0.2
    }
  }
}
layers {
  bottom: "inception_3b/pool_proj"
  top: "inception_3b/pool_proj"
  name: "inception_3b/relu_pool_proj"
  type: RELU
}
layers {
  bottom: "inception_3b/1x1"
  bottom: "inception_3b/3x3"
  bottom: "inception_3b/5x5"
  bottom: "inception_3b/pool_proj"
  top: "inception_3b/output"
  name: "inception_3b/output"
  type: CONCAT
}
layers {
  bottom: "inception_3b/output"
  top: "pool3/3x3_s2"
  name: "pool3/3x3_s2"
  type: POOLING
  pooling_param {
    pool: MAX
    kernel_size: 3
    stride: 2
  }
}
layers {
  bottom: "pool3/3x3_s2"
  top: "inception_4a/1x1"
  name: "inception_4a/1x1"
  type: CONVOLUTION
  blobs_lr: 1
  blobs_lr: 2
  weight_decay: 1
  weight_decay: 0
  convolution_param {
    num_output: 192
    kernel_size: 1
    weight_filler {
      type: "xavier"
      std: 0.03
    }
    bias_filler {
      type: "constant"
      value: 0.2
    }
  }
}
layers {
  bottom: "inception_4a/1x1"
  top: "inception_4a/1x1"
  name: "inception_4a/relu_1x1"
  type: RELU
}
layers {
  bottom: "pool3/3x3_s2"
  top: "inception_4a/3x3_reduce"
  name: "inception_4a/3x3_reduce"
  type: CONVOLUTION
  blobs_lr: 1
  blobs_lr: 2
  weight_decay: 1
  weight_decay: 0
  convolution_param {
    num_output: 96
    kernel_size: 1
    weight_filler {
      type: "xavier"
      std: 0.09
    }
    bias_filler {
      type: "constant"
      value: 0.2
    }
  }
}
layers {
  bottom: "inception_4a/3x3_reduce"
  top: "inception_4a/3x3_reduce"
  name: "inception_4a/relu_3x3_reduce"
  type: RELU
}
layers {
  bottom: "inception_4a/3x3_reduce"
  top: "inception_4a/3x3"
  name: "inception_4a/3x3"
  type: CONVOLUTION
  blobs_lr: 1
  blobs_lr: 2
  weight_decay: 1
  weight_decay: 0
  convolution_param {
    num_output: 208
    pad: 1
    kernel_size: 3
    weight_filler {
      type: "xavier"
      std: 0.03
    }
    bias_filler {
      type: "constant"
      value: 0.2
    }
  }
}
layers {
  bottom: "inception_4a/3x3"
  top: "inception_4a/3x3"
  name: "inception_4a/relu_3x3"
  type: RELU
}
layers {
  bottom: "pool3/3x3_s2"
  top: "inception_4a/5x5_reduce"
  name: "inception_4a/5x5_reduce"
  type: CONVOLUTION
  blobs_lr: 1
  blobs_lr: 2
  weight_decay: 1
  weight_decay: 0
  convolution_param {
    num_output: 16
    kernel_size: 1
    weight_filler {
      type: "xavier"
      std: 0.2
    }
    bias_filler {
      type: "constant"
      value: 0.2
    }
  }
}
layers {
  bottom: "inception_4a/5x5_reduce"
  top: "inception_4a/5x5_reduce"
  name: "inception_4a/relu_5x5_reduce"
  type: RELU
}
layers {
  bottom: "inception_4a/5x5_reduce"
  top: "inception_4a/5x5"
  name: "inception_4a/5x5"
  type: CONVOLUTION
  blobs_lr: 1
  blobs_lr: 2
  weight_decay: 1
  weight_decay: 0
  convolution_param {
    num_output: 48
    pad: 2
    kernel_size: 5
    weight_filler {
      type: "xavier"
      std: 0.03
    }
    bias_filler {
      type: "constant"
      value: 0.2
    }
  }
}
layers {
  bottom: "inception_4a/5x5"
  top: "inception_4a/5x5"
  name: "inception_4a/relu_5x5"
  type: RELU
}
layers {
  bottom: "pool3/3x3_s2"
  top: "inception_4a/pool"
  name: "inception_4a/pool"
  type: POOLING
  pooling_param {
    pool: MAX
    kernel_size: 3
    stride: 1
    pad: 1
  }
}
layers {
  bottom: "inception_4a/pool"
  top: "inception_4a/pool_proj"
  name: "inception_4a/pool_proj"
  type: CONVOLUTION
  blobs_lr: 1
  blobs_lr: 2
  weight_decay: 1
  weight_decay: 0
  convolution_param {
    num_output: 64
    kernel_size: 1
    weight_filler {
      type: "xavier"
      std: 0.1
    }
    bias_filler {
      type: "constant"
      value: 0.2
    }
  }
}
layers {
  bottom: "inception_4a/pool_proj"
  top: "inception_4a/pool_proj"
  name: "inception_4a/relu_pool_proj"
  type: RELU
}
layers {
  bottom: "inception_4a/1x1"
  bottom: "inception_4a/3x3"
  bottom: "inception_4a/5x5"
  bottom: "inception_4a/pool_proj"
  top: "inception_4a/output"
  name: "inception_4a/output"
  type: CONCAT
}
layers {
  bottom: "inception_4a/output"
  top: "loss1/ave_pool"
  name: "loss1/ave_pool"
  type: POOLING
  pooling_param {
    pool: AVE
    kernel_size: 5
    stride: 3
  }
}
layers {
  bottom: "loss1/ave_pool"
  top: "loss1/conv"
  name: "loss1/conv"
  type: CONVOLUTION
  blobs_lr: 1
  blobs_lr: 2
  weight_decay: 1
  weight_decay: 0
  convolution_param {
    num_output: 128
    kernel_size: 1
    weight_filler {
      type: "xavier"
      std: 0.08
    }
    bias_filler {
      type: "constant"
      value: 0.2
    }
  }
}
layers {
  bottom: "loss1/conv"
  top: "loss1/conv"
  name: "loss1/relu_conv"
  type: RELU
}
layers {
  bottom: "loss1/conv"
  top: "loss1/fc"
  name: "loss1/fc"
  type: INNER_PRODUCT
  blobs_lr: 1
  blobs_lr: 2
  weight_decay: 1
  weight_decay: 0
  inner_product_param {
    num_output: 1024
    weight_filler {
      type: "xavier"
      std: 0.02
    }
    bias_filler {
      type: "constant"
      value: 0.2
    }
  }
}
layers {
  bottom: "loss1/fc"
  top: "loss1/fc"
  name: "loss1/relu_fc"
  type: RELU
}
layers {
  bottom: "loss1/fc"
  top: "loss1/fc"
  name: "loss1/drop_fc"
  type: DROPOUT
  dropout_param {
    dropout_ratio: 0.7
  }
}
layers {
  bottom: "loss1/fc"
  top: "loss1/classifier"
  name: "loss1/classifier"
  type: INNER_PRODUCT
  blobs_lr: 1
  blobs_lr: 2
  weight_decay: 1
  weight_decay: 0
  inner_product_param {
    num_output: 121
    weight_filler {
      type: "xavier"
      std: 0.0009765625
    }
    bias_filler {
      type: "constant"
      value: 0
    }
  }
}
layers {
  bottom: "loss1/classifier"
  bottom: "label"
  top: "loss1/loss1"
  name: "loss1/loss"
  type: SOFTMAX_LOSS
  loss_weight: 0.3
}
layers {
  bottom: "loss1/classifier"
  bottom: "label"
  top: "loss1/top-1"
  name: "loss1/top-1"
  type: ACCURACY
  include {
    phase: TEST
  }
}
layers {
  bottom: "loss1/classifier"
  bottom: "label"
  top: "loss1/top-5"
  name: "loss1/top-5"
  type: ACCURACY
  accuracy_param {
    top_k: 5
  }
  include {
    phase: TEST
  }
}
layers {
  bottom: "inception_4a/output"
  top: "inception_4b/1x1"
  name: "inception_4b/1x1"
  type: CONVOLUTION
  blobs_lr: 1
  blobs_lr: 2
  weight_decay: 1
  weight_decay: 0
  convolution_param {
    num_output: 160
    kernel_size: 1
    weight_filler {
      type: "xavier"
      std: 0.03
    }
    bias_filler {
      type: "constant"
      value: 0.2
    }
  }
}
layers {
  bottom: "inception_4b/1x1"
  top: "inception_4b/1x1"
  name: "inception_4b/relu_1x1"
  type: RELU
}
layers {
  bottom: "inception_4a/output"
  top: "inception_4b/3x3_reduce"
  name: "inception_4b/3x3_reduce"
  type: CONVOLUTION
  blobs_lr: 1
  blobs_lr: 2
  weight_decay: 1
  weight_decay: 0
  convolution_param {
    num_output: 112
    kernel_size: 1
    weight_filler {
      type: "xavier"
      std: 0.09
    }
    bias_filler {
      type: "constant"
      value: 0.2
    }
  }
}
layers {
  bottom: "inception_4b/3x3_reduce"
  top: "inception_4b/3x3_reduce"
  name: "inception_4b/relu_3x3_reduce"
  type: RELU
}
layers {
  bottom: "inception_4b/3x3_reduce"
  top: "inception_4b/3x3"
  name: "inception_4b/3x3"
  type: CONVOLUTION
  blobs_lr: 1
  blobs_lr: 2
  weight_decay: 1
  weight_decay: 0
  convolution_param {
    num_output: 224
    pad: 1
    kernel_size: 3
    weight_filler {
      type: "xavier"
      std: 0.03
    }
    bias_filler {
      type: "constant"
      value: 0.2
    }
  }
}
layers {
  bottom: "inception_4b/3x3"
  top: "inception_4b/3x3"
  name: "inception_4b/relu_3x3"
  type: RELU
}
layers {
  bottom: "inception_4a/output"
  top: "inception_4b/5x5_reduce"
  name: "inception_4b/5x5_reduce"
  type: CONVOLUTION
  blobs_lr: 1
  blobs_lr: 2
  weight_decay: 1
  weight_decay: 0
  convolution_param {
    num_output: 24
    kernel_size: 1
    weight_filler {
      type: "xavier"
      std: 0.2
    }
    bias_filler {
      type: "constant"
      value: 0.2
    }
  }
}
layers {
  bottom: "inception_4b/5x5_reduce"
  top: "inception_4b/5x5_reduce"
  name: "inception_4b/relu_5x5_reduce"
  type: RELU
}
layers {
  bottom: "inception_4b/5x5_reduce"
  top: "inception_4b/5x5"
  name: "inception_4b/5x5"
  type: CONVOLUTION
  blobs_lr: 1
  blobs_lr: 2
  weight_decay: 1
  weight_decay: 0
  convolution_param {
    num_output: 64
    pad: 2
    kernel_size: 5
    weight_filler {
      type: "xavier"
      std: 0.03
    }
    bias_filler {
      type: "constant"
      value: 0.2
    }
  }
}
layers {
  bottom: "inception_4b/5x5"
  top: "inception_4b/5x5"
  name: "inception_4b/relu_5x5"
  type: RELU
}
layers {
  bottom: "inception_4a/output"
  top: "inception_4b/pool"
  name: "inception_4b/pool"
  type: POOLING
  pooling_param {
    pool: MAX
    kernel_size: 3
    stride: 1
    pad: 1
  }
}
layers {
  bottom: "inception_4b/pool"
  top: "inception_4b/pool_proj"
  name: "inception_4b/pool_proj"
  type: CONVOLUTION
  blobs_lr: 1
  blobs_lr: 2
  weight_decay: 1
  weight_decay: 0
  convolution_param {
    num_output: 64
    kernel_size: 1
    weight_filler {
      type: "xavier"
      std: 0.1
    }
    bias_filler {
      type: "constant"
      value: 0.2
    }
  }
}
layers {
  bottom: "inception_4b/pool_proj"
  top: "inception_4b/pool_proj"
  name: "inception_4b/relu_pool_proj"
  type: RELU
}
layers {
  bottom: "inception_4b/1x1"
  bottom: "inception_4b/3x3"
  bottom: "inception_4b/5x5"
  bottom: "inception_4b/pool_proj"
  top: "inception_4b/output"
  name: "inception_4b/output"
  type: CONCAT
}
layers {
  bottom: "inception_4b/output"
  top: "inception_4c/1x1"
  name: "inception_4c/1x1"
  type: CONVOLUTION
  blobs_lr: 1
  blobs_lr: 2
  weight_decay: 1
  weight_decay: 0
  convolution_param {
    num_output: 128
    kernel_size: 1
    weight_filler {
      type: "xavier"
      std: 0.03
    }
    bias_filler {
      type: "constant"
      value: 0.2
    }
  }
}
layers {
  bottom: "inception_4c/1x1"
  top: "inception_4c/1x1"
  name: "inception_4c/relu_1x1"
  type: RELU
}
layers {
  bottom: "inception_4b/output"
  top: "inception_4c/3x3_reduce"
  name: "inception_4c/3x3_reduce"
  type: CONVOLUTION
  blobs_lr: 1
  blobs_lr: 2
  weight_decay: 1
  weight_decay: 0
  convolution_param {
    num_output: 128
    kernel_size: 1
    weight_filler {
      type: "xavier"
      std: 0.09
    }
    bias_filler {
      type: "constant"
      value: 0.2
    }
  }
}
layers {
  bottom: "inception_4c/3x3_reduce"
  top: "inception_4c/3x3_reduce"
  name: "inception_4c/relu_3x3_reduce"
  type: RELU
}
layers {
  bottom: "inception_4c/3x3_reduce"
  top: "inception_4c/3x3"
  name: "inception_4c/3x3"
  type: CONVOLUTION
  blobs_lr: 1
  blobs_lr: 2
  weight_decay: 1
  weight_decay: 0
  convolution_param {
    num_output: 256
    pad: 1
    kernel_size: 3
    weight_filler {
      type: "xavier"
      std: 0.03
    }
    bias_filler {
      type: "constant"
      value: 0.2
    }
  }
}
layers {
  bottom: "inception_4c/3x3"
  top: "inception_4c/3x3"
  name: "inception_4c/relu_3x3"
  type: RELU
}
layers {
  bottom: "inception_4b/output"
  top: "inception_4c/5x5_reduce"
  name: "inception_4c/5x5_reduce"
  type: CONVOLUTION
  blobs_lr: 1
  blobs_lr: 2
  weight_decay: 1
  weight_decay: 0
  convolution_param {
    num_output: 24
    kernel_size: 1
    weight_filler {
      type: "xavier"
      std: 0.2
    }
    bias_filler {
      type: "constant"
      value: 0.2
    }
  }
}
layers {
  bottom: "inception_4c/5x5_reduce"
  top: "inception_4c/5x5_reduce"
  name: "inception_4c/relu_5x5_reduce"
  type: RELU
}
layers {
  bottom: "inception_4c/5x5_reduce"
  top: "inception_4c/5x5"
  name: "inception_4c/5x5"
  type: CONVOLUTION
  blobs_lr: 1
  blobs_lr: 2
  weight_decay: 1
  weight_decay: 0
  convolution_param {
    num_output: 64
    pad: 2
    kernel_size: 5
    weight_filler {
      type: "xavier"
      std: 0.03
    }
    bias_filler {
      type: "constant"
      value: 0.2
    }
  }
}
layers {
  bottom: "inception_4c/5x5"
  top: "inception_4c/5x5"
  name: "inception_4c/relu_5x5"
  type: RELU
}
layers {
  bottom: "inception_4b/output"
  top: "inception_4c/pool"
  name: "inception_4c/pool"
  type: POOLING
  pooling_param {
    pool: MAX
    kernel_size: 3
    stride: 1
    pad: 1
  }
}
layers {
  bottom: "inception_4c/pool"
  top: "inception_4c/pool_proj"
  name: "inception_4c/pool_proj"
  type: CONVOLUTION
  blobs_lr: 1
  blobs_lr: 2
  weight_decay: 1
  weight_decay: 0
  convolution_param {
    num_output: 64
    kernel_size: 1
    weight_filler {
      type: "xavier"
      std: 0.1
    }
    bias_filler {
      type: "constant"
      value: 0.2
    }
  }
}
layers {
  bottom: "inception_4c/pool_proj"
  top: "inception_4c/pool_proj"
  name: "inception_4c/relu_pool_proj"
  type: RELU
}
layers {
  bottom: "inception_4c/1x1"
  bottom: "inception_4c/3x3"
  bottom: "inception_4c/5x5"
  bottom: "inception_4c/pool_proj"
  top: "inception_4c/output"
  name: "inception_4c/output"
  type: CONCAT
}
layers {
  bottom: "inception_4c/output"
  top: "inception_4d/1x1"
  name: "inception_4d/1x1"
  type: CONVOLUTION
  blobs_lr: 1
  blobs_lr: 2
  weight_decay: 1
  weight_decay: 0
  convolution_param {
    num_output: 112
    kernel_size: 1
    weight_filler {
      type: "xavier"
      std: 0.03
    }
    bias_filler {
      type: "constant"
      value: 0.2
    }
  }
}
layers {
  bottom: "inception_4d/1x1"
  top: "inception_4d/1x1"
  name: "inception_4d/relu_1x1"
  type: RELU
}
layers {
  bottom: "inception_4c/output"
  top: "inception_4d/3x3_reduce"
  name: "inception_4d/3x3_reduce"
  type: CONVOLUTION
  blobs_lr: 1
  blobs_lr: 2
  weight_decay: 1
  weight_decay: 0
  convolution_param {
    num_output: 144
    kernel_size: 1
    weight_filler {
      type: "xavier"
      std: 0.09
    }
    bias_filler {
      type: "constant"
      value: 0.2
    }
  }
}
layers {
  bottom: "inception_4d/3x3_reduce"
  top: "inception_4d/3x3_reduce"
  name: "inception_4d/relu_3x3_reduce"
  type: RELU
}
layers {
  bottom: "inception_4d/3x3_reduce"
  top: "inception_4d/3x3"
  name: "inception_4d/3x3"
  type: CONVOLUTION
  blobs_lr: 1
  blobs_lr: 2
  weight_decay: 1
  weight_decay: 0
  convolution_param {
    num_output: 288
    pad: 1
    kernel_size: 3
    weight_filler {
      type: "xavier"
      std: 0.03
    }
    bias_filler {
      type: "constant"
      value: 0.2
    }
  }
}
layers {
  bottom: "inception_4d/3x3"
  top: "inception_4d/3x3"
  name: "inception_4d/relu_3x3"
  type: RELU
}
layers {
  bottom: "inception_4c/output"
  top: "inception_4d/5x5_reduce"
  name: "inception_4d/5x5_reduce"
  type: CONVOLUTION
  blobs_lr: 1
  blobs_lr: 2
  weight_decay: 1
  weight_decay: 0
  convolution_param {
    num_output: 32
    kernel_size: 1
    weight_filler {
      type: "xavier"
      std: 0.2
    }
    bias_filler {
      type: "constant"
      value: 0.2
    }
  }
}
layers {
  bottom: "inception_4d/5x5_reduce"
  top: "inception_4d/5x5_reduce"
  name: "inception_4d/relu_5x5_reduce"
  type: RELU
}
layers {
  bottom: "inception_4d/5x5_reduce"
  top: "inception_4d/5x5"
  name: "inception_4d/5x5"
  type: CONVOLUTION
  blobs_lr: 1
  blobs_lr: 2
  weight_decay: 1
  weight_decay: 0
  convolution_param {
    num_output: 64
    pad: 2
    kernel_size: 5
    weight_filler {
      type: "xavier"
      std: 0.03
    }
    bias_filler {
      type: "constant"
      value: 0.2
    }
  }
}
layers {
  bottom: "inception_4d/5x5"
  top: "inception_4d/5x5"
  name: "inception_4d/relu_5x5"
  type: RELU
}
layers {
  bottom: "inception_4c/output"
  top: "inception_4d/pool"
  name: "inception_4d/pool"
  type: POOLING
  pooling_param {
    pool: MAX
    kernel_size: 3
    stride: 1
    pad: 1
  }
}
layers {
  bottom: "inception_4d/pool"
  top: "inception_4d/pool_proj"
  name: "inception_4d/pool_proj"
  type: CONVOLUTION
  blobs_lr: 1
  blobs_lr: 2
  weight_decay: 1
  weight_decay: 0
  convolution_param {
    num_output: 64
    kernel_size: 1
    weight_filler {
      type: "xavier"
      std: 0.1
    }
    bias_filler {
      type: "constant"
      value: 0.2
    }
  }
}
layers {
  bottom: "inception_4d/pool_proj"
  top: "inception_4d/pool_proj"
  name: "inception_4d/relu_pool_proj"
  type: RELU
}
layers {
  bottom: "inception_4d/1x1"
  bottom: "inception_4d/3x3"
  bottom: "inception_4d/5x5"
  bottom: "inception_4d/pool_proj"
  top: "inception_4d/output"
  name: "inception_4d/output"
  type: CONCAT
}
layers {
  bottom: "inception_4d/output"
  top: "loss2/ave_pool"
  name: "loss2/ave_pool"
  type: POOLING
  pooling_param {
    pool: AVE
    kernel_size: 5
    stride: 3
  }
}
layers {
  bottom: "loss2/ave_pool"
  top: "loss2/conv"
  name: "loss2/conv"
  type: CONVOLUTION
  blobs_lr: 1
  blobs_lr: 2
  weight_decay: 1
  weight_decay: 0
  convolution_param {
    num_output: 128
    kernel_size: 1
    weight_filler {
      type: "xavier"
      std: 0.08
    }
    bias_filler {
      type: "constant"
      value: 0.2
    }
  }
}
layers {
  bottom: "loss2/conv"
  top: "loss2/conv"
  name: "loss2/relu_conv"
  type: RELU
}
layers {
  bottom: "loss2/conv"
  top: "loss2/fc"
  name: "loss2/fc"
  type: INNER_PRODUCT
  blobs_lr: 1
  blobs_lr: 2
  weight_decay: 1
  weight_decay: 0
  inner_product_param {
    num_output: 1024
    weight_filler {
      type: "xavier"
      std: 0.02
    }
    bias_filler {
      type: "constant"
      value: 0.2
    }
  }
}
layers {
  bottom: "loss2/fc"
  top: "loss2/fc"
  name: "loss2/relu_fc"
  type: RELU
}
layers {
  bottom: "loss2/fc"
  top: "loss2/fc"
  name: "loss2/drop_fc"
  type: DROPOUT
  dropout_param {
    dropout_ratio: 0.7
  }
}
layers {
  bottom: "loss2/fc"
  top: "loss2/classifier"
  name: "loss2/classifier"
  type: INNER_PRODUCT
  blobs_lr: 1
  blobs_lr: 2
  weight_decay: 1
  weight_decay: 0
  inner_product_param {
    num_output: 121
    weight_filler {
      type: "xavier"
      std: 0.0009765625
    }
    bias_filler {
      type: "constant"
      value: 0
    }
  }
}
layers {
  bottom: "loss2/classifier"
  bottom: "label"
  top: "loss2/loss1"
  name: "loss2/loss"
  type: SOFTMAX_LOSS
  loss_weight: 0.3
}
layers {
  bottom: "loss2/classifier"
  bottom: "label"
  top: "loss2/top-1"
  name: "loss2/top-1"
  type: ACCURACY
  include {
    phase: TEST
  }
}
layers {
  bottom: "loss2/classifier"
  bottom: "label"
  top: "loss2/top-5"
  name: "loss2/top-5"
  type: ACCURACY
  accuracy_param {
    top_k: 5
  }
  include {
    phase: TEST
  }
}
layers {
  bottom: "inception_4d/output"
  top: "inception_4e/1x1"
  name: "inception_4e/1x1"
  type: CONVOLUTION
  blobs_lr: 1
  blobs_lr: 2
  weight_decay: 1
  weight_decay: 0
  convolution_param {
    num_output: 256
    kernel_size: 1
    weight_filler {
      type: "xavier"
      std: 0.03
    }
    bias_filler {
      type: "constant"
      value: 0.2
    }
  }
}
layers {
  bottom: "inception_4e/1x1"
  top: "inception_4e/1x1"
  name: "inception_4e/relu_1x1"
  type: RELU
}
layers {
  bottom: "inception_4d/output"
  top: "inception_4e/3x3_reduce"
  name: "inception_4e/3x3_reduce"
  type: CONVOLUTION
  blobs_lr: 1
  blobs_lr: 2
  weight_decay: 1
  weight_decay: 0
  convolution_param {
    num_output: 160
    kernel_size: 1
    weight_filler {
      type: "xavier"
      std: 0.09
    }
    bias_filler {
      type: "constant"
      value: 0.2
    }
  }
}
layers {
  bottom: "inception_4e/3x3_reduce"
  top: "inception_4e/3x3_reduce"
  name: "inception_4e/relu_3x3_reduce"
  type: RELU
}
layers {
  bottom: "inception_4e/3x3_reduce"
  top: "inception_4e/3x3"
  name: "inception_4e/3x3"
  type: CONVOLUTION
  blobs_lr: 1
  blobs_lr: 2
  weight_decay: 1
  weight_decay: 0
  convolution_param {
    num_output: 320
    pad: 1
    kernel_size: 3
    weight_filler {
      type: "xavier"
      std: 0.03
    }
    bias_filler {
      type: "constant"
      value: 0.2
    }
  }
}
layers {
  bottom: "inception_4e/3x3"
  top: "inception_4e/3x3"
  name: "inception_4e/relu_3x3"
  type: RELU
}
layers {
  bottom: "inception_4d/output"
  top: "inception_4e/5x5_reduce"
  name: "inception_4e/5x5_reduce"
  type: CONVOLUTION
  blobs_lr: 1
  blobs_lr: 2
  weight_decay: 1
  weight_decay: 0
  convolution_param {
    num_output: 32
    kernel_size: 1
    weight_filler {
      type: "xavier"
      std: 0.2
    }
    bias_filler {
      type: "constant"
      value: 0.2
    }
  }
}
layers {
  bottom: "inception_4e/5x5_reduce"
  top: "inception_4e/5x5_reduce"
  name: "inception_4e/relu_5x5_reduce"
  type: RELU
}
layers {
  bottom: "inception_4e/5x5_reduce"
  top: "inception_4e/5x5"
  name: "inception_4e/5x5"
  type: CONVOLUTION
  blobs_lr: 1
  blobs_lr: 2
  weight_decay: 1
  weight_decay: 0
  convolution_param {
    num_output: 128
    pad: 2
    kernel_size: 5
    weight_filler {
      type: "xavier"
      std: 0.03
    }
    bias_filler {
      type: "constant"
      value: 0.2
    }
  }
}
layers {
  bottom: "inception_4e/5x5"
  top: "inception_4e/5x5"
  name: "inception_4e/relu_5x5"
  type: RELU
}
layers {
  bottom: "inception_4d/output"
  top: "inception_4e/pool"
  name: "inception_4e/pool"
  type: POOLING
  pooling_param {
    pool: MAX
    kernel_size: 3
    stride: 1
    pad: 1
  }
}
layers {
  bottom: "inception_4e/pool"
  top: "inception_4e/pool_proj"
  name: "inception_4e/pool_proj"
  type: CONVOLUTION
  blobs_lr: 1
  blobs_lr: 2
  weight_decay: 1
  w
I0308 11:37:41.950985  1599 net.cpp:67] Creating Layer data
I0308 11:37:41.950995  1599 net.cpp:356] data -> data
I0308 11:37:41.951005  1599 net.cpp:356] data -> label
I0308 11:37:41.951012  1599 net.cpp:96] Setting up data
I0308 11:37:41.963682  1599 data_layer.cpp:68] Opening lmdb data/256_scale_aug2/val_lmdb
I0308 11:37:41.972856  1599 data_layer.cpp:128] output data size: 50,1,224,224
I0308 11:37:41.972872  1599 base_data_layer.cpp:36] Loading mean file fromdata/256_scale_aug2/val_mean.binaryproto
I0308 11:37:41.978270  1599 net.cpp:103] Top shape: 50 1 224 224 (2508800)
I0308 11:37:41.978291  1599 net.cpp:103] Top shape: 50 1 1 1 (50)
I0308 11:37:41.978302  1599 net.cpp:67] Creating Layer label_data_1_split
I0308 11:37:41.978324  1599 net.cpp:394] label_data_1_split <- label
I0308 11:37:41.978333  1599 net.cpp:356] label_data_1_split -> label_data_1_split_0
I0308 11:37:41.978343  1599 net.cpp:356] label_data_1_split -> label_data_1_split_1
I0308 11:37:41.978350  1599 net.cpp:356] label_data_1_split -> label_data_1_split_2
I0308 11:37:41.978358  1599 net.cpp:356] label_data_1_split -> label_data_1_split_3
I0308 11:37:41.978363  1599 net.cpp:356] label_data_1_split -> label_data_1_split_4
I0308 11:37:41.978369  1599 net.cpp:356] label_data_1_split -> label_data_1_split_5
I0308 11:37:41.978376  1599 net.cpp:356] label_data_1_split -> label_data_1_split_6
I0308 11:37:41.978382  1599 net.cpp:356] label_data_1_split -> label_data_1_split_7
I0308 11:37:41.978389  1599 net.cpp:356] label_data_1_split -> label_data_1_split_8
I0308 11:37:41.978394  1599 net.cpp:96] Setting up label_data_1_split
I0308 11:37:41.978401  1599 net.cpp:103] Top shape: 50 1 1 1 (50)
I0308 11:37:41.978405  1599 net.cpp:103] Top shape: 50 1 1 1 (50)
I0308 11:37:41.978410  1599 net.cpp:103] Top shape: 50 1 1 1 (50)
I0308 11:37:41.978413  1599 net.cpp:103] Top shape: 50 1 1 1 (50)
I0308 11:37:41.978416  1599 net.cpp:103] Top shape: 50 1 1 1 (50)
I0308 11:37:41.978420  1599 net.cpp:103] Top shape: 50 1 1 1 (50)
I0308 11:37:41.978425  1599 net.cpp:103] Top shape: 50 1 1 1 (50)
I0308 11:37:41.978428  1599 net.cpp:103] Top shape: 50 1 1 1 (50)
I0308 11:37:41.978432  1599 net.cpp:103] Top shape: 50 1 1 1 (50)
I0308 11:37:41.978440  1599 net.cpp:67] Creating Layer conv1/7x7_s2
I0308 11:37:41.978443  1599 net.cpp:394] conv1/7x7_s2 <- data
I0308 11:37:41.978449  1599 net.cpp:356] conv1/7x7_s2 -> conv1/7x7_s2
I0308 11:37:41.978456  1599 net.cpp:96] Setting up conv1/7x7_s2
I0308 11:37:41.978560  1599 net.cpp:103] Top shape: 50 64 112 112 (40140800)
I0308 11:37:41.978584  1599 net.cpp:67] Creating Layer conv1/relu_7x7
I0308 11:37:41.978590  1599 net.cpp:394] conv1/relu_7x7 <- conv1/7x7_s2
I0308 11:37:41.978595  1599 net.cpp:345] conv1/relu_7x7 -> conv1/7x7_s2 (in-place)
I0308 11:37:41.978601  1599 net.cpp:96] Setting up conv1/relu_7x7
I0308 11:37:41.978608  1599 net.cpp:103] Top shape: 50 64 112 112 (40140800)
I0308 11:37:41.978615  1599 net.cpp:67] Creating Layer pool1/3x3_s2
I0308 11:37:41.978620  1599 net.cpp:394] pool1/3x3_s2 <- conv1/7x7_s2
I0308 11:37:41.978626  1599 net.cpp:356] pool1/3x3_s2 -> pool1/3x3_s2
I0308 11:37:41.978631  1599 net.cpp:96] Setting up pool1/3x3_s2
I0308 11:37:41.978641  1599 net.cpp:103] Top shape: 50 64 56 56 (10035200)
I0308 11:37:41.978646  1599 net.cpp:67] Creating Layer pool1/norm1
I0308 11:37:41.978652  1599 net.cpp:394] pool1/norm1 <- pool1/3x3_s2
I0308 11:37:41.978657  1599 net.cpp:356] pool1/norm1 -> pool1/norm1
I0308 11:37:41.978662  1599 net.cpp:96] Setting up pool1/norm1
I0308 11:37:41.978667  1599 net.cpp:103] Top shape: 50 64 56 56 (10035200)
I0308 11:37:41.978672  1599 net.cpp:67] Creating Layer conv2/3x3_reduce
I0308 11:37:41.978677  1599 net.cpp:394] conv2/3x3_reduce <- pool1/norm1
I0308 11:37:41.978682  1599 net.cpp:356] conv2/3x3_reduce -> conv2/3x3_reduce
I0308 11:37:41.978688  1599 net.cpp:96] Setting up conv2/3x3_reduce
I0308 11:37:41.978871  1599 net.cpp:103] Top shape: 50 64 56 56 (10035200)
I0308 11:37:41.978895  1599 net.cpp:67] Creating Layer conv2/relu_3x3_reduce
I0308 11:37:41.978900  1599 net.cpp:394] conv2/relu_3x3_reduce <- conv2/3x3_reduce
I0308 11:37:41.978906  1599 net.cpp:345] conv2/relu_3x3_reduce -> conv2/3x3_reduce (in-place)
I0308 11:37:41.978912  1599 net.cpp:96] Setting up conv2/relu_3x3_reduce
I0308 11:37:41.978919  1599 net.cpp:103] Top shape: 50 64 56 56 (10035200)
I0308 11:37:41.978927  1599 net.cpp:67] Creating Layer conv2/3x3
I0308 11:37:41.978931  1599 net.cpp:394] conv2/3x3 <- conv2/3x3_reduce
I0308 11:37:41.978937  1599 net.cpp:356] conv2/3x3 -> conv2/3x3
I0308 11:37:41.978943  1599 net.cpp:96] Setting up conv2/3x3
I0308 11:37:41.979940  1599 net.cpp:103] Top shape: 50 192 56 56 (30105600)
I0308 11:37:41.979962  1599 net.cpp:67] Creating Layer conv2/relu_3x3
I0308 11:37:41.979979  1599 net.cpp:394] conv2/relu_3x3 <- conv2/3x3
I0308 11:37:41.979986  1599 net.cpp:345] conv2/relu_3x3 -> conv2/3x3 (in-place)
I0308 11:37:41.979992  1599 net.cpp:96] Setting up conv2/relu_3x3
I0308 11:37:41.980000  1599 net.cpp:103] Top shape: 50 192 56 56 (30105600)
I0308 11:37:41.980008  1599 net.cpp:67] Creating Layer conv2/norm2
I0308 11:37:41.980013  1599 net.cpp:394] conv2/norm2 <- conv2/3x3
I0308 11:37:41.980018  1599 net.cpp:356] conv2/norm2 -> conv2/norm2
I0308 11:37:41.980026  1599 net.cpp:96] Setting up conv2/norm2
I0308 11:37:41.980031  1599 net.cpp:103] Top shape: 50 192 56 56 (30105600)
I0308 11:37:41.980037  1599 net.cpp:67] Creating Layer pool2/3x3_s2
I0308 11:37:41.980042  1599 net.cpp:394] pool2/3x3_s2 <- conv2/norm2
I0308 11:37:41.980048  1599 net.cpp:356] pool2/3x3_s2 -> pool2/3x3_s2
I0308 11:37:41.980054  1599 net.cpp:96] Setting up pool2/3x3_s2
I0308 11:37:41.980062  1599 net.cpp:103] Top shape: 50 192 28 28 (7526400)
I0308 11:37:41.980068  1599 net.cpp:67] Creating Layer pool2/3x3_s2_pool2/3x3_s2_0_split
I0308 11:37:41.980072  1599 net.cpp:394] pool2/3x3_s2_pool2/3x3_s2_0_split <- pool2/3x3_s2
I0308 11:37:41.980077  1599 net.cpp:356] pool2/3x3_s2_pool2/3x3_s2_0_split -> pool2/3x3_s2_pool2/3x3_s2_0_split_0
I0308 11:37:41.980084  1599 net.cpp:356] pool2/3x3_s2_pool2/3x3_s2_0_split -> pool2/3x3_s2_pool2/3x3_s2_0_split_1
I0308 11:37:41.980090  1599 net.cpp:356] pool2/3x3_s2_pool2/3x3_s2_0_split -> pool2/3x3_s2_pool2/3x3_s2_0_split_2
I0308 11:37:41.980096  1599 net.cpp:356] pool2/3x3_s2_pool2/3x3_s2_0_split -> pool2/3x3_s2_pool2/3x3_s2_0_split_3
I0308 11:37:41.980103  1599 net.cpp:96] Setting up pool2/3x3_s2_pool2/3x3_s2_0_split
I0308 11:37:41.980106  1599 net.cpp:103] Top shape: 50 192 28 28 (7526400)
I0308 11:37:41.980110  1599 net.cpp:103] Top shape: 50 192 28 28 (7526400)
I0308 11:37:41.980114  1599 net.cpp:103] Top shape: 50 192 28 28 (7526400)
I0308 11:37:41.980118  1599 net.cpp:103] Top shape: 50 192 28 28 (7526400)
I0308 11:37:41.980123  1599 net.cpp:67] Creating Layer inception_3a/1x1
I0308 11:37:41.980129  1599 net.cpp:394] inception_3a/1x1 <- pool2/3x3_s2_pool2/3x3_s2_0_split_0
I0308 11:37:41.980134  1599 net.cpp:356] inception_3a/1x1 -> inception_3a/1x1
I0308 11:37:41.980139  1599 net.cpp:96] Setting up inception_3a/1x1
I0308 11:37:41.980273  1599 net.cpp:103] Top shape: 50 64 28 28 (2508800)
I0308 11:37:41.980293  1599 net.cpp:67] Creating Layer inception_3a/relu_1x1
I0308 11:37:41.980298  1599 net.cpp:394] inception_3a/relu_1x1 <- inception_3a/1x1
I0308 11:37:41.980304  1599 net.cpp:345] inception_3a/relu_1x1 -> inception_3a/1x1 (in-place)
I0308 11:37:41.980309  1599 net.cpp:96] Setting up inception_3a/relu_1x1
I0308 11:37:41.980315  1599 net.cpp:103] Top shape: 50 64 28 28 (2508800)
I0308 11:37:41.980322  1599 net.cpp:67] Creating Layer inception_3a/3x3_reduce
I0308 11:37:41.980326  1599 net.cpp:394] inception_3a/3x3_reduce <- pool2/3x3_s2_pool2/3x3_s2_0_split_1
I0308 11:37:41.980332  1599 net.cpp:356] inception_3a/3x3_reduce -> inception_3a/3x3_reduce
I0308 11:37:41.980339  1599 net.cpp:96] Setting up inception_3a/3x3_reduce
I0308 11:37:41.980540  1599 net.cpp:103] Top shape: 50 96 28 28 (3763200)
I0308 11:37:41.980561  1599 net.cpp:67] Creating Layer inception_3a/relu_3x3_reduce
I0308 11:37:41.980566  1599 net.cpp:394] inception_3a/relu_3x3_reduce <- inception_3a/3x3_reduce
I0308 11:37:41.980572  1599 net.cpp:345] inception_3a/relu_3x3_reduce -> inception_3a/3x3_reduce (in-place)
I0308 11:37:41.980578  1599 net.cpp:96] Setting up inception_3a/relu_3x3_reduce
I0308 11:37:41.980586  1599 net.cpp:103] Top shape: 50 96 28 28 (3763200)
I0308 11:37:41.980592  1599 net.cpp:67] Creating Layer inception_3a/3x3
I0308 11:37:41.980597  1599 net.cpp:394] inception_3a/3x3 <- inception_3a/3x3_reduce
I0308 11:37:41.980602  1599 net.cpp:356] inception_3a/3x3 -> inception_3a/3x3
I0308 11:37:41.980608  1599 net.cpp:96] Setting up inception_3a/3x3
I0308 11:37:41.981559  1599 net.cpp:103] Top shape: 50 128 28 28 (5017600)
I0308 11:37:41.981580  1599 net.cpp:67] Creating Layer inception_3a/relu_3x3
I0308 11:37:41.981597  1599 net.cpp:394] inception_3a/relu_3x3 <- inception_3a/3x3
I0308 11:37:41.981603  1599 net.cpp:345] inception_3a/relu_3x3 -> inception_3a/3x3 (in-place)
I0308 11:37:41.981609  1599 net.cpp:96] Setting up inception_3a/relu_3x3
I0308 11:37:41.981616  1599 net.cpp:103] Top shape: 50 128 28 28 (5017600)
I0308 11:37:41.981623  1599 net.cpp:67] Creating Layer inception_3a/5x5_reduce
I0308 11:37:41.981627  1599 net.cpp:394] inception_3a/5x5_reduce <- pool2/3x3_s2_pool2/3x3_s2_0_split_2
I0308 11:37:41.981633  1599 net.cpp:356] inception_3a/5x5_reduce -> inception_3a/5x5_reduce
I0308 11:37:41.981641  1599 net.cpp:96] Setting up inception_3a/5x5_reduce
I0308 11:37:41.981786  1599 net.cpp:103] Top shape: 50 16 28 28 (627200)
I0308 11:37:41.981807  1599 net.cpp:67] Creating Layer inception_3a/relu_5x5_reduce
I0308 11:37:41.981812  1599 net.cpp:394] inception_3a/relu_5x5_reduce <- inception_3a/5x5_reduce
I0308 11:37:41.981818  1599 net.cpp:345] inception_3a/relu_5x5_reduce -> inception_3a/5x5_reduce (in-place)
I0308 11:37:41.981824  1599 net.cpp:96] Setting up inception_3a/relu_5x5_reduce
I0308 11:37:41.981832  1599 net.cpp:103] Top shape: 50 16 28 28 (627200)
I0308 11:37:41.981838  1599 net.cpp:67] Creating Layer inception_3a/5x5
I0308 11:37:41.981842  1599 net.cpp:394] inception_3a/5x5 <- inception_3a/5x5_reduce
I0308 11:37:41.981848  1599 net.cpp:356] inception_3a/5x5 -> inception_3a/5x5
I0308 11:37:41.981855  1599 net.cpp:96] Setting up inception_3a/5x5
I0308 11:37:41.981986  1599 net.cpp:103] Top shape: 50 32 28 28 (1254400)
I0308 11:37:41.982003  1599 net.cpp:67] Creating Layer inception_3a/relu_5x5
I0308 11:37:41.982008  1599 net.cpp:394] inception_3a/relu_5x5 <- inception_3a/5x5
I0308 11:37:41.982014  1599 net.cpp:345] inception_3a/relu_5x5 -> inception_3a/5x5 (in-place)
I0308 11:37:41.982020  1599 net.cpp:96] Setting up inception_3a/relu_5x5
I0308 11:37:41.982027  1599 net.cpp:103] Top shape: 50 32 28 28 (1254400)
I0308 11:37:41.982033  1599 net.cpp:67] Creating Layer inception_3a/pool
I0308 11:37:41.982036  1599 net.cpp:394] inception_3a/pool <- pool2/3x3_s2_pool2/3x3_s2_0_split_3
I0308 11:37:41.982041  1599 net.cpp:356] inception_3a/pool -> inception_3a/pool
I0308 11:37:41.982048  1599 net.cpp:96] Setting up inception_3a/pool
I0308 11:37:41.982055  1599 net.cpp:103] Top shape: 50 192 28 28 (7526400)
I0308 11:37:41.982062  1599 net.cpp:67] Creating Layer inception_3a/pool_proj
I0308 11:37:41.982066  1599 net.cpp:394] inception_3a/pool_proj <- inception_3a/pool
I0308 11:37:41.982072  1599 net.cpp:356] inception_3a/pool_proj -> inception_3a/pool_proj
I0308 11:37:41.982079  1599 net.cpp:96] Setting up inception_3a/pool_proj
I0308 11:37:41.982169  1599 net.cpp:103] Top shape: 50 32 28 28 (1254400)
I0308 11:37:41.982190  1599 net.cpp:67] Creating Layer inception_3a/relu_pool_proj
…
I0308 11:37:42.009984  1599 net.cpp:103] Top shape: 50 160 14 14 (1568000)
I0308 11:37:42.009992  1599 net.cpp:67] Creating Layer inception_4b/3x3_reduce
I0308 11:37:42.009996  1599 net.cpp:394] inception_4b/3x3_reduce <- inception_4a/output_inception_4a/output_0_split_2
I0308 11:37:42.010002  1599 net.cpp:356] inception_4b/3x3_reduce -> inception_4b/3x3_reduce
I0308 11:37:42.010010  1599 net.cpp:96] Setting up inception_4b/3x3_reduce
I0308 11:37:42.010557  1599 net.cpp:103] Top shape: 50 112 14 14 (1097600)
I0308 11:37:42.010581  1599 net.cpp:67] Creating Layer inception_4b/relu_3x3_reduce
I0308 11:37:42.010586  1599 net.cpp:394] inception_4b/relu_3x3_reduce <- inception_4b/3x3_reduce
I0308 11:37:42.010592  1599 net.cpp:345] inception_4b/relu_3x3_reduce -> inception_4b/3x3_reduce (in-place)
I0308 11:37:42.010598  1599 net.cpp:96] Setting up inception_4b/relu_3x3_reduce
I0308 11:37:42.010606  1599 net.cpp:103] Top shape: 50 112 14 14 (1097600)
I0308 11:37:42.010614  1599 net.cpp:67] Creating Layer inception_4b/3x3
I0308 11:37:42.010619  1599 net.cpp:394] inception_4b/3x3 <- inception_4b/3x3_reduce
I0308 11:37:42.010624  1599 net.cpp:356] inception_4b/3x3 -> inception_4b/3x3
I0308 11:37:42.010632  1599 net.cpp:96] Setting up inception_4b/3x3
I0308 11:37:42.012612  1599 net.cpp:103] Top shape: 50 224 14 14 (2195200)
I0308 11:37:42.012635  1599 net.cpp:67] Creating Layer inception_4b/relu_3x3
I0308 11:37:42.012641  1599 net.cpp:394] inception_4b/relu_3x3 <- inception_4b/3x3
I0308 11:37:42.012647  1599 net.cpp:345] inception_4b/relu_3x3 -> inception_4b/3x3 (in-place)
I0308 11:37:42.012655  1599 net.cpp:96] Setting up inception_4b/relu_3x3
I0308 11:37:42.012662  1599 net.cpp:103] Top shape: 50 224 14 14 (2195200)
I0308 11:37:42.012670  1599 net.cpp:67] Creating Layer inception_4b/5x5_reduce
I0308 11:37:42.012675  1599 net.cpp:394] inception_4b/5x5_reduce <- inception_4a/output_inception_4a/output_0_split_3
I0308 11:37:42.012681  1599 net.cpp:356] inception_4b/5x5_reduce -> inception_4b/5x5_reduce
I0308 11:37:42.012687  1599 net.cpp:96] Setting up inception_4b/5x5_reduce
I0308 11:37:42.012845  1599 net.cpp:103] Top shape: 50 24 14 14 (235200)
I0308 11:37:42.012864  1599 net.cpp:67] Creating Layer inception_4b/relu_5x5_reduce
I0308 11:37:42.012869  1599 net.cpp:394] inception_4b/relu_5x5_reduce <- inception_4b/5x5_reduce
I0308 11:37:42.012877  1599 net.cpp:345] inception_4b/relu_5x5_reduce -> inception_4b/5x5_reduce (in-place)
I0308 11:37:42.012883  1599 net.cpp:96] Setting up inception_4b/relu_5x5_reduce
I0308 11:37:42.012891  1599 net.cpp:103] Top shape: 50 24 14 14 (235200)
I0308 11:37:42.012898  1599 net.cpp:67] Creating Layer inception_4b/5x5
I0308 11:37:42.012902  1599 net.cpp:394] inception_4b/5x5 <- inception_4b/5x5_reduce
I0308 11:37:42.012908  1599 net.cpp:356] inception_4b/5x5 -> inception_4b/5x5
I0308 11:37:42.012914  1599 net.cpp:96] Setting up inception_4b/5x5
I0308 11:37:42.013406  1599 net.cpp:103] Top shape: 50 64 14 14 (627200)
I0308 11:37:42.013430  1599 net.cpp:67] Creating Layer inception_4b/relu_5x5
I0308 11:37:42.013437  1599 net.cpp:394] inception_4b/relu_5x5 <- inception_4b/5x5
I0308 11:37:42.013442  1599 net.cpp:345] inception_4b/relu_5x5 -> inception_4b/5x5 (in-place)
I0308 11:37:42.013448  1599 net.cpp:96] Setting up inception_4b/relu_5x5
I0308 11:37:42.013454  1599 net.cpp:103] Top shape: 50 64 14 14 (627200)
I0308 11:37:42.013464  1599 net.cpp:67] Creating Layer inception_4b/pool
I0308 11:37:42.013495  1599 net.cpp:394] inception_4b/pool <- inception_4a/output_inception_4a/output_0_split_4
I0308 11:37:42.013504  1599 net.cpp:356] inception_4b/pool -> inception_4b/pool
I0308 11:37:42.013510  1599 net.cpp:96] Setting up inception_4b/pool
I0308 11:37:42.013520  1599 net.cpp:103] Top shape: 50 512 14 14 (5017600)
I0308 11:37:42.013530  1599 net.cpp:67] Creating Layer inception_4b/pool_proj
I0308 11:37:42.013535  1599 net.cpp:394] inception_4b/pool_proj <- inception_4b/pool
I0308 11:37:42.013540  1599 net.cpp:356] inception_4b/pool_proj -> inception_4b/pool_proj
I0308 11:37:42.013547  1599 net.cpp:96] Setting up inception_4b/pool_proj
I0308 11:37:42.013872  1599 net.cpp:103] Top shape: 50 64 14 14 (627200)
I0308 11:37:42.013895  1599 net.cpp:67] Creating Layer inception_4b/relu_pool_proj
I0308 11:37:42.013901  1599 net.cpp:394] inception_4b/relu_pool_proj <- inception_4b/pool_proj
I0308 11:37:42.013906  1599 net.cpp:345] inception_4b/relu_pool_proj -> inception_4b/pool_proj (in-place)
I0308 11:37:42.013916  1599 net.cpp:96] Setting up inception_4b/relu_pool_proj
I0308 11:37:42.013922  1599 net.cpp:103] Top shape: 50 64 14 14 (627200)
I0308 11:37:42.013928  1599 net.cpp:67] Creating Layer inception_4b/output
I0308 11:37:42.013932  1599 net.cpp:394] inception_4b/output <- inception_4b/1x1
I0308 11:37:42.013938  1599 net.cpp:394] inception_4b/output <- inception_4b/3x3
I0308 11:37:42.013943  1599 net.cpp:394] inception_4b/output <- inception_4b/5x5
I0308 11:37:42.013947  1599 net.cpp:394] inception_4b/output <- inception_4b/pool_proj
I0308 11:37:42.013953  1599 net.cpp:356] inception_4b/output -> inception_4b/output
I0308 11:37:42.013959  1599 net.cpp:96] Setting up inception_4b/output
I0308 11:37:42.013964  1599 net.cpp:103] Top shape: 50 512 14 14 (5017600)
I0308 11:37:42.013970  1599 net.cpp:67] Creating Layer inception_4b/output_inception_4b/output_0_split
I0308 11:37:42.013974  1599 net.cpp:394] inception_4b/output_inception_4b/output_0_split <- inception_4b/output
I0308 11:37:42.013983  1599 net.cpp:356] inception_4b/output_inception_4b/output_0_split -> inception_4b/output_inception_4b/output_0_split_0
I0308 11:37:42.013989  1599 net.cpp:356] inception_4b/output_inception_4b/output_0_split -> inception_4b/output_inception_4b/output_0_split_1
I0308 11:37:42.013996  1599 net.cpp:356] inception_4b/output_inception_4b/output_0_split -> inception_4b/output_inception_4b/output_0_split_2
I0308 11:37:42.014003  1599 net.cpp:356] inception_4b/output_inception_4b/output_0_split -> inception_4b/output_inception_4b/output_0_split_3
I0308 11:37:42.014008  1599 net.cpp:96] Setting up inception_4b/output_inception_4b/output_0_split
I0308 11:37:42.014014  1599 net.cpp:103] Top shape: 50 512 14 14 (5017600)
I0308 11:37:42.014017  1599 net.cpp:103] Top shape: 50 512 14 14 (5017600)
I0308 11:37:42.014021  1599 net.cpp:103] Top shape: 50 512 14 14 (5017600)
I0308 11:37:42.014024  1599 net.cpp:103] Top shape: 50 512 14 14 (5017600)
I0308 11:37:42.014034  1599 net.cpp:67] Creating Layer inception_4c/1x1
I0308 11:37:42.014039  1599 net.cpp:394] inception_4c/1x1 <- inception_4b/output_inception_4b/output_0_split_0
I0308 11:37:42.014045  1599 net.cpp:356] inception_4c/1x1 -> inception_4c/1x1
I0308 11:37:42.014050  1599 net.cpp:96] Setting up inception_4c/1x1
I0308 11:37:42.014642  1599 net.cpp:103] Top shape: 50 128 14 14 (1254400)
I0308 11:37:42.014664  1599 net.cpp:67] Creating Layer inception_4c/relu_1x1
I0308 11:37:42.014670  1599 net.cpp:394] inception_4c/relu_1x1 <- inception_4c/1x1
I0308 11:37:42.014675  1599 net.cpp:345] inception_4c/relu_1x1 -> inception_4c/1x1 (in-place)
I0308 11:37:42.014682  1599 net.cpp:96] Setting up inception_4c/relu_1x1
I0308 11:37:42.014688  1599 net.cpp:103] Top shape: 50 128 14 14 (1254400)
I0308 11:37:42.014698  1599 net.cpp:67] Creating Layer inception_4c/3x3_reduce
I0308 11:37:42.014703  1599 net.cpp:394] inception_4c/3x3_reduce <- inception_4b/output_inception_4b/output_0_split_1
I0308 11:37:42.014708  1599 net.cpp:356] inception_4c/3x3_reduce -> inception_4c/3x3_reduce
I0308 11:37:42.014727  1599 net.cpp:96] Setting up inception_4c/3x3_reduce
I0308 11:37:42.015321  1599 net.cpp:103] Top shape: 50 128 14 14 (1254400)
I0308 11:37:42.015341  1599 net.cpp:67] Creating Layer inception_4c/relu_3x3_reduce
I0308 11:37:42.015347  1599 net.cpp:394] inception_4c/relu_3x3_reduce <- inception_4c/3x3_reduce
I0308 11:37:42.015352  1599 net.cpp:345] inception_4c/relu_3x3_reduce -> inception_4c/3x3_reduce (in-place)
I0308 11:37:42.015358  1599 net.cpp:96] Setting up inception_4c/relu_3x3_reduce
I0308 11:37:42.015365  1599 net.cpp:103] Top shape: 50 128 14 14 (1254400)
I0308 11:37:42.015374  1599 net.cpp:67] Creating Layer inception_4c/3x3
I0308 11:37:42.015379  1599 net.cpp:394] inception_4c/3x3 <- inception_4c/3x3_reduce
I0308 11:37:42.015388  1599 net.cpp:356] inception_4c/3x3 -> inception_4c/3x3
I0308 11:37:42.015393  1599 net.cpp:96] Setting up inception_4c/3x3
I0308 11:37:42.017869  1599 net.cpp:103] Top shape: 50 256 14 14 (2508800)
I0308 11:37:42.017904  1599 net.cpp:67] Creating Layer inception_4c/relu_3x3
I0308 11:37:42.017916  1599 net.cpp:394] inception_4c/relu_3x3 <- inception_4c/3x3
I0308 11:37:42.017923  1599 net.cpp:345] inception_4c/relu_3x3 -> inception_4c/3x3 (in-place)
I0308 11:37:42.017930  1599 net.cpp:96] Setting up inception_4c/relu_3x3
I0308 11:37:42.017936  1599 net.cpp:103] Top shape: 50 256 14 14 (2508800)
I0308 11:37:42.017945  1599 net.cpp:67] Creating Layer inception_4c/5x5_reduce
I0308 11:37:42.017948  1599 net.cpp:394] inception_4c/5x5_reduce <- inception_4b/output_inception_4b/output_0_split_2
I0308 11:37:42.017956  1599 net.cpp:356] inception_4c/5x5_reduce -> inception_4c/5x5_reduce
I0308 11:37:42.017964  1599 net.cpp:96] Setting up inception_4c/5x5_reduce
I0308 11:37:42.018200  1599 net.cpp:103] Top shape: 50 24 14 14 (235200)
I0308 11:37:42.018223  1599 net.cpp:67] Creating Layer inception_4c/relu_5x5_reduce
I0308 11:37:42.018229  1599 net.cpp:394] inception_4c/relu_5x5_reduce <- inception_4c/5x5_reduce
I0308 11:37:42.018234  1599 net.cpp:345] inception_4c/relu_5x5_reduce -> inception_4c/5x5_reduce (in-place)
I0308 11:37:42.018240  1599 net.cpp:96] Setting up inception_4c/relu_5x5_reduce
I0308 11:37:42.018247  1599 net.cpp:103] Top shape: 50 24 14 14 (235200)
I0308 11:37:42.018257  1599 net.cpp:67] Creating Layer inception_4c/5x5
I0308 11:37:42.018262  1599 net.cpp:394] inception_4c/5x5 <- inception_4c/5x5_reduce
I0308 11:37:42.018270  1599 net.cpp:356] inception_4c/5x5 -> inception_4c/5x5
I0308 11:37:42.018276  1599 net.cpp:96] Setting up inception_4c/5x5
I0308 11:37:42.018646  1599 net.cpp:103] Top shape: 50 64 14 14 (627200)
I0308 11:37:42.018666  1599 net.cpp:67] Creating Layer inception_4c/relu_5x5
I0308 11:37:42.018671  1599 net.cpp:394] inception_4c/relu_5x5 <- inception_4c/5x5
I0308 11:37:42.018678  1599 net.cpp:345] inception_4c/relu_5x5 -> inception_4c/5x5 (in-place)
I0308 11:37:42.018684  1599 net.cpp:96] Setting up inception_4c/relu_5x5
I0308 11:37:42.018692  1599 net.cpp:103] Top shape: 50 64 14 14 (627200)
I0308 11:37:42.018697  1599 net.cpp:67] Creating Layer inception_4c/pool
I0308 11:37:42.018702  1599 net.cpp:394] inception_4c/pool <- inception_4b/output_inception_4b/output_0_split_3
I0308 11:37:42.018707  1599 net.cpp:356] inception_4c/pool -> inception_4c/pool
I0308 11:37:42.018713  1599 net.cpp:96] Setting up inception_4c/pool
I0308 11:37:42.018723  1599 net.cpp:103] Top shape: 50 512 14 14 (5017600)
I0308 11:37:42.018731  1599 net.cpp:67] Creating Layer inception_4c/pool_proj
I0308 11:37:42.018735  1599 net.cpp:394] inception_4c/pool_proj <- inception_4c/pool
I0308 11:37:42.018746  1599 net.cpp:356] inception_4c/pool_proj -> inception_4c/pool_proj
I0308 11:37:42.018754  1599 net.cpp:96] Setting up inception_4c/pool_proj
I0308 11:37:42.019073  1599 net.cpp:103] Top shape: 50 64 14 14 (627200)
I0308 11:37:42.019095  1599 net.cpp:67] Creating Layer inception_4c/relu_pool_proj
I0308 11:37:42.019101  1599 net.cpp:394] inception_4c/relu_pool_proj <- inception_4c/pool_proj
I0308 11:37:42.019106  1599 net.cpp:345] inception_4c/relu_pool_proj -> inception_4c/pool_proj (in-place)
I0308 11:37:42.019137  1599 net.cpp:96] Setting up inception_4c/relu_pool_proj
I0308 11:37:42.019145  1599 net.cpp:103] Top shape: 50 64 14 14 (627200)
I0308 11:37:42.019152  1599 net.cpp:67] Creating Layer inception_4c/output
I0308 11:37:42.019156  1599 net.cpp:394] inception_4c/output <- inception_4c/1x1
I0308 11:37:42.019162  1599 net.cpp:394] inception_4c/output <- inception_4c/3x3
I0308 11:37:42.019167  1599 net.cpp:394] inception_4c/output <- inception_4c/5x5
I0308 11:37:42.019171  1599 net.cpp:394] inception_4c/output <- inception_4c/pool_proj
I0308 11:37:42.019177  1599 net.cpp:356] inception_4c/output -> inception_4c/output
I0308 11:37:42.019183  1599 net.cpp:96] Setting up inception_4c/output
I0308 11:37:42.019187  1599 net.cpp:103] Top shape: 50 512 14 14 (5017600)
I0308 11:37:42.019193  1599 net.cpp:67] Creating Layer inception_4c/output_inception_4c/output_0_split
I0308 11:37:42.019197  1599 net.cpp:394] inception_4c/output_inception_4c/output_0_split <- inception_4c/output
I0308 11:37:42.019206  1599 net.cpp:356] inception_4c/output_inception_4c/output_0_split -> inception_4c/output_inception_4c/output_0_split_0
I0308 11:37:42.019212  1599 net.cpp:356] inception_4c/output_inception_4c/output_0_split -> inception_4c/output_inception_4c/output_0_split_1
I0308 11:37:42.019219  1599 net.cpp:356] inception_4c/output_inception_4c/output_0_split -> inception_4c/output_inception_4c/output_0_split_2
I0308 11:37:42.019227  1599 net.cpp:356] inception_4c/output_inception_4c/output_0_split -> inception_4c/output_inception_4c/output_0_split_3
I0308 11:37:42.019232  1599 net.cpp:96] Setting up inception_4c/output_inception_4c/output_0_split
I0308 11:37:42.019237  1599 net.cpp:103] Top shape: 50 512 14 14 (5017600)
I0308 11:37:42.019240  1599 net.cpp:103] Top shape: 50 512 14 14 (5017600)
I0308 11:37:42.019244  1599 net.cpp:103] Top shape: 50 512 14 14 (5017600)
I0308 11:37:42.019248  1599 net.cpp:103] Top shape: 50 512 14 14 (5017600)
I0308 11:37:42.019258  1599 net.cpp:67] Creating Layer inception_4d/1x1
I0308 11:37:42.019263  1599 net.cpp:394] inception_4d/1x1 <- inception_4c/output_inception_4c/output_0_split_0
I0308 11:37:42.019268  1599 net.cpp:356] inception_4d/1x1 -> inception_4d/1x1
I0308 11:37:42.019274  1599 net.cpp:96] Setting up inception_4d/1x1
I0308 11:37:42.019794  1599 net.cpp:103] Top shape: 50 112 14 14 (1097600)
I0308 11:37:42.019816  1599 net.cpp:67] Creating Layer inception_4d/relu_1x1
I0308 11:37:42.019822  1599 net.cpp:394] inception_4d/relu_1x1 <- inception_4d/1x1
I0308 11:37:42.019827  1599 net.cpp:345] inception_4d/relu_1x1 -> inception_4d/1x1 (in-place)
I0308 11:37:42.019834  1599 net.cpp:96] Setting up inception_4d/relu_1x1
I0308 11:37:42.019840  1599 net.cpp:103] Top shape: 50 112 14 14 (1097600)
I0308 11:37:42.019850  1599 net.cpp:67] Creating Layer inception_4d/3x3_reduce
I0308 11:37:42.019855  1599 net.cpp:394] inception_4d/3x3_reduce <- inception_4c/output_inception_4c/output_0_split_1
I0308 11:37:42.019861  1599 net.cpp:356] inception_4d/3x3_reduce -> inception_4d/3x3_reduce
I0308 11:37:42.019867  1599 net.cpp:96] Setting up inception_4d/3x3_reduce
I0308 11:37:42.020539  1599 net.cpp:103] Top shape: 50 144 14 14 (1411200)
I0308 11:37:42.020558  1599 net.cpp:67] Creating Layer inception_4d/relu_3x3_reduce
I0308 11:37:42.020565  1599 net.cpp:394] inception_4d/relu_3x3_reduce <- inception_4d/3x3_reduce
I0308 11:37:42.020570  1599 net.cpp:345] inception_4d/relu_3x3_reduce -> inception_4d/3x3_reduce (in-place)
I0308 11:37:42.020576  1599 net.cpp:96] Setting up inception_4d/relu_3x3_reduce
I0308 11:37:42.020582  1599 net.cpp:103] Top shape: 50 144 14 14 (1411200)
I0308 11:37:42.020592  1599 net.cpp:67] Creating Layer inception_4d/3x3
I0308 11:37:42.020596  1599 net.cpp:394] inception_4d/3x3 <- inception_4d/3x3_reduce
I0308 11:37:42.020604  1599 net.cpp:356] inception_4d/3x3 -> inception_4d/3x3
I0308 11:37:42.020611  1599 net.cpp:96] Setting up inception_4d/3x3
I0308 11:37:42.023804  1599 net.cpp:103] Top shape: 50 288 14 14 (2822400)
I0308 11:37:42.023826  1599 net.cpp:67] Creating Layer inception_4d/relu_3x3
I0308 11:37:42.023846  1599 net.cpp:394] inception_4d/relu_3x3 <- inception_4d/3x3
I0308 11:37:42.023859  1599 net.cpp:345] inception_4d/relu_3x3 -> inception_4d/3x3 (in-place)
I0308 11:37:42.023865  1599 net.cpp:96] Setting up inception_4d/relu_3x3
I0308 11:37:42.023872  1599 net.cpp:103] Top shape: 50 288 14 14 (2822400)
I0308 11:37:42.023880  1599 net.cpp:67] Creating Layer inception_4d/5x5_reduce
I0308 11:37:42.023885  1599 net.cpp:394] inception_4d/5x5_reduce <- inception_4c/output_inception_4c/output_0_split_2
I0308 11:37:42.023893  1599 net.cpp:356] inception_4d/5x5_reduce -> inception_4d/5x5_reduce
I0308 11:37:42.023900  1599 net.cpp:96] Setting up inception_4d/5x5_reduce
I0308 11:37:42.024087  1599 net.cpp:103] Top shape: 50 32 14 14 (313600)
I0308 11:37:42.024107  1599 net.cpp:67] Creating Layer inception_4d/relu_5x5_reduce
I0308 11:37:42.024112  1599 net.cpp:394] inception_4d/relu_5x5_reduce <- inception_4d/5x5_reduce
I0308 11:37:42.024121  1599 net.cpp:345] inception_4d/relu_5x5_reduce -> inception_4d/5x5_reduce (in-place)
I0308 11:37:42.024127  1599 net.cpp:96] Setting up inception_4d/relu_5x5_reduce
I0308 11:37:42.024133  1599 net.cpp:103] Top shape: 50 32 14 14 (313600)
I0308 11:37:42.024142  1599 net.cpp:67] Creating Layer inception_4d/5x5
I0308 11:37:42.024145  1599 net.cpp:394] inception_4d/5x5 <- inception_4d/5x5_reduce
I0308 11:37:42.024153  1599 net.cpp:356] inception_4d/5x5 -> inception_4d/5x5
I0308 11:37:42.024159  1599 net.cpp:96] Setting up inception_4d/5x5
I0308 11:37:42.024644  1599 net.cpp:103] Top shape: 50 64 14 14 (627200)
I0308 11:37:42.024664  1599 net.cpp:67] Creating Layer inception_4d/relu_5x5
I0308 11:37:42.024670  1599 net.cpp:394] inception_4d/relu_5x5 <- inception_4d/5x5
I0308 11:37:42.024677  1599 net.cpp:345] inception_4d/relu_5x5 -> inception_4d/5x5 (in-place)
I0308 11:37:42.024684  1599 net.cpp:96] Setting up inception_4d/relu_5x5
I0308 11:37:42.024691  1599 net.cpp:103] Top shape: 50 64 14 14 (627200)
I0308 11:37:42.024698  1599 net.cpp:67] Creating Layer inception_4d/pool
I0308 11:37:42.024701  1599 net.cpp:394] inception_4d/pool <- inception_4c/output_inception_4c/output_0_split_3
I0308 11:37:42.024708  1599 net.cpp:356] inception_4d/pool -> inception_4d/pool
I0308 11:37:42.024713  1599 net.cpp:96] Setting up inception_4d/pool
I0308 11:37:42.024720  1599 net.cpp:103] Top shape: 50 512 14 14 (5017600)
I0308 11:37:42.024729  1599 net.cpp:67] Creating Layer inception_4d/pool_proj
I0308 11:37:42.024734  1599 net.cpp:394] inception_4d/pool_proj <- inception_4d/pool
I0308 11:37:42.024740  1599 net.cpp:356] inception_4d/pool_proj -> inception_4d/pool_proj
I0308 11:37:42.024746  1599 net.cpp:96] Setting up inception_4d/pool_proj
I0308 11:37:42.025066  1599 net.cpp:103] Top shape: 50 64 14 14 (627200)
I0308 11:37:42.025087  1599 net.cpp:67] Creating Layer inception_4d/relu_pool_proj
I0308 11:37:42.025094  1599 net.cpp:394] inception_4d/relu_pool_proj <- inception_4d/pool_proj
I0308 11:37:42.025099  1599 net.cpp:345] inception_4d/relu_pool_proj -> inception_4d/pool_proj (in-place)
I0308 11:37:42.025105  1599 net.cpp:96] Setting up inception_4d/relu_pool_proj
I0308 11:37:42.025112  1599 net.cpp:103] Top shape: 50 64 14 14 (627200)
I0308 11:37:42.025120  1599 net.cpp:67] Creating Layer inception_4d/output
I0308 11:37:42.025125  1599 net.cpp:394] inception_4d/output <- inception_4d/1x1
I0308 11:37:42.025130  1599 net.cpp:394] inception_4d/output <- inception_4d/3x3
I0308 11:37:42.025135  1599 net.cpp:394] inception_4d/output <- inception_4d/5x5
I0308 11:37:42.025140  1599 net.cpp:394] inception_4d/output <- inception_4d/pool_proj
I0308 11:37:42.025146  1599 net.cpp:356] inception_4d/output -> inception_4d/output
I0308 11:37:42.025151  1599 net.cpp:96] Setting up inception_4d/output
I0308 11:37:42.025156  1599 net.cpp:103] Top shape: 50 528 14 14 (5174400)
I0308 11:37:42.025162  1599 net.cpp:67] Creating Layer inception_4d/output_inception_4d/output_0_split
I0308 11:37:42.025166  1599 net.cpp:394] inception_4d/output_inception_4d/output_0_split <- inception_4d/output
I0308 11:37:42.025187  1599 net.cpp:356] inception_4d/output_inception_4d/output_0_split -> inception_4d/output_inception_4d/output_0_split_0
I0308 11:37:42.025194  1599 net.cpp:356] inception_4d/output_inception_4d/output_0_split -> inception_4d/output_inception_4d/output_0_split_1
I0308 11:37:42.025202  1599 net.cpp:356] inception_4d/output_inception_4d/output_0_split -> inception_4d/output_inception_4d/output_0_split_2
I0308 11:37:42.025207  1599 net.cpp:356] inception_4d/output_inception_4d/output_0_split -> inception_4d/output_inception_4d/output_0_split_3
I0308 11:37:42.025214  1599 net.cpp:356] inception_4d/output_inception_4d/output_0_split -> inception_4d/output_inception_4d/output_0_split_4
I0308 11:37:42.025220  1599 net.cpp:96] Setting up inception_4d/output_inception_4d/output_0_split
I0308 11:37:42.025225  1599 net.cpp:103] Top shape: 50 528 14 14 (5174400)
I0308 11:37:42.025229  1599 net.cpp:103] Top shape: 50 528 14 14 (5174400)
I0308 11:37:42.025233  1599 net.cpp:103] Top shape: 50 528 14 14 (5174400)
I0308 11:37:42.025238  1599 net.cpp:103] Top shape: 50 528 14 14 (5174400)
I0308 11:37:42.025243  1599 net.cpp:103] Top shape: 50 528 14 14 (5174400)
I0308 11:37:42.025251  1599 net.cpp:67] Creating Layer loss2/ave_pool
I0308 11:37:42.025255  1599 net.cpp:394] loss2/ave_pool <- inception_4d/output_inception_4d/output_0_split_0
I0308 11:37:42.025261  1599 net.cpp:356] loss2/ave_pool -> loss2/ave_pool
I0308 11:37:42.025267  1599 net.cpp:96] Setting up loss2/ave_pool
I0308 11:37:42.025275  1599 net.cpp:103] Top shape: 50 528 4 4 (422400)
I0308 11:37:42.025285  1599 net.cpp:67] Creating Layer loss2/conv
I0308 11:37:42.025290  1599 net.cpp:394] loss2/conv <- loss2/ave_pool
I0308 11:37:42.025296  1599 net.cpp:356] loss2/conv -> loss2/conv
I0308 11:37:42.025302  1599 net.cpp:96] Setting up loss2/conv
I0308 11:37:42.025907  1599 net.cpp:103] Top shape: 50 128 4 4 (102400)
I0308 11:37:42.025928  1599 net.cpp:67] Creating Layer loss2/relu_conv
I0308 11:37:42.025933  1599 net.cpp:394] loss2/relu_conv <- loss2/conv
I0308 11:37:42.025938  1599 net.cpp:345] loss2/relu_conv -> loss2/conv (in-place)
I0308 11:37:42.025945  1599 net.cpp:96] Setting up loss2/relu_conv
I0308 11:37:42.025951  1599 net.cpp:103] Top shape: 50 128 4 4 (102400)
I0308 11:37:42.025960  1599 net.cpp:67] Creating Layer loss2/fc
I0308 11:37:42.025965  1599 net.cpp:394] loss2/fc <- loss2/conv
I0308 11:37:42.025971  1599 net.cpp:356] loss2/fc -> loss2/fc
I0308 11:37:42.025977  1599 net.cpp:96] Setting up loss2/fc
I0308 11:37:42.042032  1599 net.cpp:103] Top shape: 50 1024 1 1 (51200)
I0308 11:37:42.042057  1599 net.cpp:67] Creating Layer loss2/relu_fc
I0308 11:37:42.042062  1599 net.cpp:394] loss2/relu_fc <- loss2/fc
I0308 11:37:42.042068  1599 net.cpp:345] loss2/relu_fc -> loss2/fc (in-place)
I0308 11:37:42.042074  1599 net.cpp:96] Setting up loss2/relu_fc
I0308 11:37:42.042083  1599 net.cpp:103] Top shape: 50 1024 1 1 (51200)
I0308 11:37:42.042089  1599 net.cpp:67] Creating Layer loss2/drop_fc
I0308 11:37:42.042096  1599 net.cpp:394] loss2/drop_fc <- loss2/fc
I0308 11:37:42.042101  1599 net.cpp:345] loss2/drop_fc -> loss2/fc (in-place)
I0308 11:37:42.042107  1599 net.cpp:96] Setting up loss2/drop_fc
I0308 11:37:42.042111  1599 net.cpp:103] Top shape: 50 1024 1 1 (51200)
I0308 11:37:42.042119  1599 net.cpp:67] Creating Layer loss2/classifier
I0308 11:37:42.042122  1599 net.cpp:394] loss2/classifier <- loss2/fc
I0308 11:37:42.042130  1599 net.cpp:356] loss2/classifier -> loss2/classifier
I0308 11:37:42.042137  1599 net.cpp:96] Setting up loss2/classifier
I0308 11:37:42.043150  1599 net.cpp:103] Top shape: 50 121 1 1 (6050)
I0308 11:37:42.043172  1599 net.cpp:67] Creating Layer loss2/classifier_loss2/classifier_0_split
I0308 11:37:42.043177  1599 net.cpp:394] loss2/classifier_loss2/classifier_0_split <- loss2/classifier
I0308 11:37:42.043184  1599 net.cpp:356] loss2/classifier_loss2/classifier_0_split -> loss2/classifier_loss2/classifier_0_split_0
I0308 11:37:42.043190  1599 net.cpp:356] loss2/classifier_loss2/classifier_0_split -> loss2/classifier_loss2/classifier_0_split_1
I0308 11:37:42.043212  1599 net.cpp:356] loss2/classifier_loss2/classifier_0_split -> loss2/classifier_loss2/classifier_0_split_2
I0308 11:37:42.043218  1599 net.cpp:96] Setting up loss2/classifier_loss2/classifier_0_split
I0308 11:37:42.043223  1599 net.cpp:103] Top shape: 50 121 1 1 (6050)
I0308 11:37:42.043227  1599 net.cpp:103] Top shape: 50 121 1 1 (6050)
I0308 11:37:42.043231  1599 net.cpp:103] Top shape: 50 121 1 1 (6050)
I0308 11:37:42.043241  1599 net.cpp:67] Creating Layer loss2/loss
I0308 11:37:42.043244  1599 net.cpp:394] loss2/loss <- loss2/classifier_loss2/classifier_0_split_0
I0308 11:37:42.043249  1599 net.cpp:394] loss2/loss <- label_data_1_split_3
I0308 11:37:42.043257  1599 net.cpp:356] loss2/loss -> loss2/loss1
I0308 11:37:42.043263  1599 net.cpp:96] Setting up loss2/loss
I0308 11:37:42.043284  1599 net.cpp:103] Top shape: 1 1 1 1 (1)
I0308 11:37:42.043292  1599 net.cpp:109]     with loss weight 0.3
I0308 11:37:42.043308  1599 net.cpp:67] Creating Layer loss2/top-1
I0308 11:37:42.043313  1599 net.cpp:394] loss2/top-1 <- loss2/classifier_loss2/classifier_0_split_1
I0308 11:37:42.043318  1599 net.cpp:394] loss2/top-1 <- label_data_1_split_4
I0308 11:37:42.043324  1599 net.cpp:356] loss2/top-1 -> loss2/top-1
I0308 11:37:42.043330  1599 net.cpp:96] Setting up loss2/top-1
I0308 11:37:42.043335  1599 net.cpp:103] Top shape: 1 1 1 1 (1)
I0308 11:37:42.043344  1599 net.cpp:67] Creating Layer loss2/top-5
I0308 11:37:42.043349  1599 net.cpp:394] loss2/top-5 <- loss2/classifier_loss2/classifier_0_split_2
I0308 11:37:42.043352  1599 net.cpp:394] loss2/top-5 <- label_data_1_split_5
I0308 11:37:42.043359  1599 net.cpp:356] loss2/top-5 -> loss2/top-5
I0308 11:37:42.043365  1599 net.cpp:96] Setting up loss2/top-5
I0308 11:37:42.043368  1599 net.cpp:103] Top shape: 1 1 1 1 (1)
I0308 11:37:42.043375  1599 net.cpp:67] Creating Layer inception_4e/1x1
I0308 11:37:42.043380  1599 net.cpp:394] inception_4e/1x1 <- inception_4d/output_inception_4d/output_0_split_1
I0308 11:37:42.043385  1599 net.cpp:356] inception_4e/1x1 -> inception_4e/1x1
I0308 11:37:42.043391  1599 net.cpp:96] Setting up inception_4e/1x1
I0308 11:37:42.044652  1599 net.cpp:103] Top shape: 50 256 14 14 (2508800)
I0308 11:37:42.044675  1599 net.cpp:67] Creating Layer inception_4e/relu_1x1
I0308 11:37:42.044680  1599 net.cpp:394] inception_4e/relu_1x1 <- inception_4e/1x1
I0308 11:37:42.044687  1599 net.cpp:345] inception_4e/relu_1x1 -> inception_4e/1x1 (in-place)
I0308 11:37:42.044693  1599 net.cpp:96] Setting up inception_4e/relu_1x1
I0308 11:37:42.044700  1599 net.cpp:103] Top shape: 50 256 14 14 (2508800)
I0308 11:37:42.044723  1599 net.cpp:67] Creating Layer inception_4e/3x3_reduce
I0308 11:37:42.044735  1599 net.cpp:394] inception_4e/3x3_reduce <- inception_4d/output_inception_4d/output_0_split_2
I0308 11:37:42.044744  1599 net.cpp:356] inception_4e/3x3_reduce -> inception_4e/3x3_reduce
I0308 11:37:42.044751  1599 net.cpp:96] Setting up inception_4e/3x3_reduce
I0308 11:37:42.045493  1599 net.cpp:103] Top shape: 50 160 14 14 (1568000)
I0308 11:37:42.045514  1599 net.cpp:67] Creating Layer inception_4e/relu_3x3_reduce
I0308 11:37:42.045521  1599 net.cpp:394] inception_4e/relu_3x3_reduce <- inception_4e/3x3_reduce
I0308 11:37:42.045527  1599 net.cpp:345] inception_4e/relu_3x3_reduce -> inception_4e/3x3_reduce (in-place)
I0308 11:37:42.045534  1599 net.cpp:96] Setting up inception_4e/relu_3x3_reduce
I0308 11:37:42.045542  1599 net.cpp:103] Top shape: 50 160 14 14 (1568000)
I0308 11:37:42.045549  1599 net.cpp:67] Creating Layer inception_4e/3x3
I0308 11:37:42.045553  1599 net.cpp:394] inception_4e/3x3 <- inception_4e/3x3_reduce
I0308 11:37:42.045562  1599 net.cpp:356] inception_4e/3x3 -> inception_4e/3x3
I0308 11:37:42.045568  1599 net.cpp:96] Setting up inception_4e/3x3
I0308 11:37:42.049387  1599 net.cpp:103] Top shape: 50 320 14 14 (3136000)
I0308 11:37:42.049409  1599 net.cpp:67] Creating Layer inception_4e/relu_3x3
I0308 11:37:42.049415  1599 net.cpp:394] inception_4e/relu_3x3 <- inception_4e/3x3
I0308 11:37:42.049434  1599 net.cpp:345] inception_4e/relu_3x3 -> inception_4e/3x3 (in-place)
I0308 11:37:42.049442  1599 net.cpp:96] Setting up inception_4e/relu_3x3
I0308 11:37:42.049448  1599 net.cpp:103] Top shape: 50 320 14 14 (3136000)
I0308 11:37:42.049458  1599 net.cpp:67] Creating Layer inception_4e/5x5_reduce
I0308 11:37:42.049463  1599 net.cpp:394] inception_4e/5x5_reduce <- inception_4d/output_inception_4d/output_0_split_3
I0308 11:37:42.049471  1599 net.cpp:356] inception_4e/5x5_reduce -> inception_4e/5x5_reduce
I0308 11:37:42.049478  1599 net.cpp:96] Setting up inception_4e/5x5_reduce
I0308 11:37:42.049664  1599 net.cpp:103] Top shape: 50 32 14 14 (313600)
I0308 11:37:42.049687  1599 net.cpp:67] Creating Layer inception_4e/relu_5x5_reduce
I0308 11:37:42.049692  1599 net.cpp:394] inception_4e/relu_5x5_reduce <- inception_4e/5x5_reduce
I0308 11:37:42.049698  1599 net.cpp:345] inception_4e/relu_5x5_reduce -> inception_4e/5x5_reduce (in-place)
I0308 11:37:42.049705  1599 net.cpp:96] Setting up inception_4e/relu_5x5_reduce
I0308 11:37:42.049711  1599 net.cpp:103] Top shape: 50 32 14 14 (313600)
I0308 11:37:42.049722  1599 net.cpp:67] Creating Layer inception_4e/5x5
I0308 11:37:42.049726  1599 net.cpp:394] inception_4e/5x5 <- inception_4e/5x5_reduce
I0308 11:37:42.049733  1599 net.cpp:356] inception_4e/5x5 -> inception_4e/5x5
I0308 11:37:42.049739  1599 net.cpp:96] Setting up inception_4e/5x5
I0308 11:37:42.050631  1599 net.cpp:103] Top shape: 50 128 14 14 (1254400)
I0308 11:37:42.050652  1599 net.cpp:67] Creating Layer inception_4e/relu_5x5
I0308 11:37:42.050657  1599 net.cpp:394] inception_4e/relu_5x5 <- inception_4e/5x5
I0308 11:37:42.050665  1599 net.cpp:345] inception_4e/relu_5x5 -> inception_4e/5x5 (in-place)
I0308 11:37:42.050673  1599 net.cpp:96] Setting up inception_4e/relu_5x5
I0308 11:37:42.050678  1599 net.cpp:103] Top shape: 50 128 14 14 (1254400)
I0308 11:37:42.050685  1599 net.cpp:67] Creating Layer inception_4e/pool
I0308 11:37:42.050689  1599 net.cpp:394] inception_4e/pool <- inception_4d/output_inception_4d/output_0_split_4
I0308 11:37:42.050695  1599 net.cpp:356] inception_4e/pool -> inception_4e/pool
I0308 11:37:42.050701  1599 net.cpp:96] Setting up inception_4e/pool
I0308 11:37:42.050709  1599 net.cpp:103] Top shape: 50 528 14 14 (5174400)
I0308 11:37:42.050719  1599 net.cpp:67] Creating Layer inception_4e/pool_proj
I0308 11:37:42.050724  1599 net.cpp:394] inception_4e/pool_proj <- inception_4e/pool
I0308 11:37:42.050731  1599 net.cpp:356] inception_4e/pool_proj -> inception_4e/pool_proj
I0308 11:37:42.050739  1599 net.cpp:96] Setting up inception_4e/pool_proj
I0308 11:37:42.051426  1599 net.cpp:103] Top shape: 50 128 14 14 (1254400)
I0308 11:37:42.051448  1599 net.cpp:67] Creating Layer inception_4e/relu_pool_proj
I0308 11:37:42.051455  1599 net.cpp:394] inception_4e/relu_pool_proj <- inception_4e/pool_proj
I0308 11:37:42.051460  1599 net.cpp:345] inception_4e/relu_pool_proj -> inception_4e/pool_proj (in-place)
I0308 11:37:42.051466  1599 net.cpp:96] Setting up inception_4e/relu_pool_proj
I0308 11:37:42.051473  1599 net.cpp:103] Top shape: 50 128 14 14 (1254400)
I0308 11:37:42.051482  1599 net.cpp:67] Creating Layer inception_4e/output
I0308 11:37:42.051486  1599 net.cpp:394] inception_4e/output <- inception_4e/1x1
I0308 11:37:42.051491  1599 net.cpp:394] inception_4e/output <- inception_4e/3x3
I0308 11:37:42.051496  1599 net.cpp:394] inception_4e/output <- inception_4e/5x5
I0308 11:37:42.051501  1599 net.cpp:394] inception_4e/output <- inception_4e/pool_proj
I0308 11:37:42.051507  1599 net.cpp:356] inception_4e/output -> inception_4e/output
I0308 11:37:42.051515  1599 net.cpp:96] Setting up inception_4e/output
I0308 11:37:42.051520  1599 net.cpp:103] Top shape: 50 832 14 14 (8153600)
I0308 11:37:42.051527  1599 net.cpp:67] Creating Layer pool4/3x3_s2
I0308 11:37:42.051533  1599 net.cpp:394] pool4/3x3_s2 <- inception_4e/output
I0308 11:37:42.051539  1599 net.cpp:356] pool4/3x3_s2 -> pool4/3x3_s2
I0308 11:37:42.051545  1599 net.cpp:96] Setting up pool4/3x3_s2
I0308 11:37:42.051553  1599 net.cpp:103] Top shape: 50 832 7 7 (2038400)
I0308 11:37:42.051571  1599 net.cpp:67] Creating Layer pool4/3x3_s2_pool4/3x3_s2_0_split
I0308 11:37:42.051575  1599 net.cpp:394] pool4/3x3_s2_pool4/3x3_s2_0_split <- pool4/3x3_s2
I0308 11:37:42.051581  1599 net.cpp:356] pool4/3x3_s2_pool4/3x3_s2_0_split -> pool4/3x3_s2_pool4/3x3_s2_0_split_0
I0308 11:37:42.051590  1599 net.cpp:356] pool4/3x3_s2_pool4/3x3_s2_0_split -> pool4/3x3_s2_pool4/3x3_s2_0_split_1
I0308 11:37:42.051597  1599 net.cpp:356] pool4/3x3_s2_pool4/3x3_s2_0_split -> pool4/3x3_s2_pool4/3x3_s2_0_split_2
I0308 11:37:42.051620  1599 net.cpp:356] pool4/3x3_s2_pool4/3x3_s2_0_split -> pool4/3x3_s2_pool4/3x3_s2_0_split_3
I0308 11:37:42.051633  1599 net.cpp:96] Setting up pool4/3x3_s2_pool4/3x3_s2_0_split
I0308 11:37:42.051640  1599 net.cpp:103] Top shape: 50 832 7 7 (2038400)
I0308 11:37:42.051643  1599 net.cpp:103] Top shape: 50 832 7 7 (2038400)
I0308 11:37:42.051650  1599 net.cpp:103] Top shape: 50 832 7 7 (2038400)
I0308 11:37:42.051655  1599 net.cpp:103] Top shape: 50 832 7 7 (2038400)
I0308 11:37:42.051663  1599 net.cpp:67] Creating Layer inception_5a/1x1
I0308 11:37:42.051668  1599 net.cpp:394] inception_5a/1x1 <- pool4/3x3_s2_pool4/3x3_s2_0_split_0
I0308 11:37:42.051674  1599 net.cpp:356] inception_5a/1x1 -> inception_5a/1x1
I0308 11:37:42.051681  1599 net.cpp:96] Setting up inception_5a/1x1
I0308 11:37:42.053467  1599 net.cpp:103] Top shape: 50 256 7 7 (627200)
I0308 11:37:42.053488  1599 net.cpp:67] Creating Layer inception_5a/relu_1x1
I0308 11:37:42.053494  1599 net.cpp:394] inception_5a/relu_1x1 <- inception_5a/1x1
I0308 11:37:42.053503  1599 net.cpp:345] inception_5a/relu_1x1 -> inception_5a/1x1 (in-place)
I0308 11:37:42.053508  1599 net.cpp:96] Setting up inception_5a/relu_1x1
I0308 11:37:42.053515  1599 net.cpp:103] Top shape: 50 256 7 7 (627200)
I0308 11:37:42.053524  1599 net.cpp:67] Creating Layer inception_5a/3x3_reduce
I0308 11:37:42.053527  1599 net.cpp:394] inception_5a/3x3_reduce <- pool4/3x3_s2_pool4/3x3_s2_0_split_1
I0308 11:37:42.053536  1599 net.cpp:356] inception_5a/3x3_reduce -> inception_5a/3x3_reduce
I0308 11:37:42.053544  1599 net.cpp:96] Setting up inception_5a/3x3_reduce
I0308 11:37:42.054680  1599 net.cpp:103] Top shape: 50 160 7 7 (392000)
I0308 11:37:42.054703  1599 net.cpp:67] Creating Layer inception_5a/relu_3x3_reduce
I0308 11:37:42.054708  1599 net.cpp:394] inception_5a/relu_3x3_reduce <- inception_5a/3x3_reduce
I0308 11:37:42.054714  1599 net.cpp:345] inception_5a/relu_3x3_reduce -> inception_5a/3x3_reduce (in-place)
I0308 11:37:42.054720  1599 net.cpp:96] Setting up inception_5a/relu_3x3_reduce
I0308 11:37:42.054728  1599 net.cpp:103] Top shape: 50 160 7 7 (392000)
I0308 11:37:42.054734  1599 net.cpp:67] Creating Layer inception_5a/3x3
I0308 11:37:42.054738  1599 net.cpp:394] inception_5a/3x3 <- inception_5a/3x3_reduce
I0308 11:37:42.054746  1599 net.cpp:356] inception_5a/3x3 -> inception_5a/3x3
I0308 11:37:42.054754  1599 net.cpp:96] Setting up inception_5a/3x3
I0308 11:37:42.058568  1599 net.cpp:103] Top shape: 50 320 7 7 (784000)
I0308 11:37:42.058591  1599 net.cpp:67] Creating Layer inception_5a/relu_3x3
I0308 11:37:42.058598  1599 net.cpp:394] inception_5a/relu_3x3 <- inception_5a/3x3
I0308 11:37:42.058604  1599 net.cpp:345] inception_5a/relu_3x3 -> inception_5a/3x3 (in-place)
I0308 11:37:42.058609  1599 net.cpp:96] Setting up inception_5a/relu_3x3
I0308 11:37:42.058616  1599 net.cpp:103] Top shape: 50 320 7 7 (784000)
I0308 11:37:42.058624  1599 net.cpp:67] Creating Layer inception_5a/5x5_reduce
I0308 11:37:42.058629  1599 net.cpp:394] inception_5a/5x5_reduce <- pool4/3x3_s2_pool4/3x3_s2_0_split_2
I0308 11:37:42.058636  1599 net.cpp:356] inception_5a/5x5_reduce -> inception_5a/5x5_reduce
I0308 11:37:42.058643  1599 net.cpp:96] Setting up inception_5a/5x5_reduce
I0308 11:37:42.058914  1599 net.cpp:103] Top shape: 50 32 7 7 (78400)
I0308 11:37:42.058938  1599 net.cpp:67] Creating Layer inception_5a/relu_5x5_reduce
I0308 11:37:42.058943  1599 net.cpp:394] inception_5a/relu_5x5_reduce <- inception_5a/5x5_reduce
I0308 11:37:42.058948  1599 net.cpp:345] inception_5a/relu_5x5_reduce -> inception_5a/5x5_reduce (in-place)
I0308 11:37:42.058974  1599 net.cpp:96] Setting up inception_5a/relu_5x5_reduce
I0308 11:37:42.058981  1599 net.cpp:103] Top shape: 50 32 7 7 (78400)
I0308 11:37:42.058990  1599 net.cpp:67] Creating Layer inception_5a/5x5
I0308 11:37:42.058993  1599 net.cpp:394] inception_5a/5x5 <- inception_5a/5x5_reduce
I0308 11:37:42.059000  1599 net.cpp:356] inception_5a/5x5 -> inception_5a/5x5
I0308 11:37:42.059005  1599 net.cpp:96] Setting up inception_5a/5x5
I0308 11:37:42.059984  1599 net.cpp:103] Top shape: 50 128 7 7 (313600)
I0308 11:37:42.060011  1599 net.cpp:67] Creating Layer inception_5a/relu_5x5
I0308 11:37:42.060019  1599 net.cpp:394] inception_5a/relu_5x5 <- inception_5a/5x5
I0308 11:37:42.060024  1599 net.cpp:345] inception_5a/relu_5x5 -> inception_5a/5x5 (in-place)
I0308 11:37:42.060030  1599 net.cpp:96] Setting up inception_5a/relu_5x5
I0308 11:37:42.060036  1599 net.cpp:103] Top shape: 50 128 7 7 (313600)
I0308 11:37:42.060045  1599 net.cpp:67] Creating Layer inception_5a/pool
I0308 11:37:42.060050  1599 net.cpp:394] inception_5a/pool <- pool4/3x3_s2_pool4/3x3_s2_0_split_3
I0308 11:37:42.060055  1599 net.cpp:356] inception_5a/pool -> inception_5a/pool
I0308 11:37:42.060061  1599 net.cpp:96] Setting up inception_5a/pool
I0308 11:37:42.060070  1599 net.cpp:103] Top shape: 50 832 7 7 (2038400)
I0308 11:37:42.060080  1599 net.cpp:67] Creating Layer inception_5a/pool_proj
I0308 11:37:42.060083  1599 net.cpp:394] inception_5a/pool_proj <- inception_5a/pool
I0308 11:37:42.060089  1599 net.cpp:356] inception_5a/pool_proj -> inception_5a/pool_proj
I0308 11:37:42.060096  1599 net.cpp:96] Setting up inception_5a/pool_proj
I0308 11:37:42.061033  1599 net.cpp:103] Top shape: 50 128 7 7 (313600)
I0308 11:37:42.061058  1599 net.cpp:67] Creating Layer inception_5a/relu_pool_proj
I0308 11:37:42.061065  1599 net.cpp:394] inception_5a/relu_pool_proj <- inception_5a/pool_proj
I0308 11:37:42.061070  1599 net.cpp:345] inception_5a/relu_pool_proj -> inception_5a/pool_proj (in-place)
I0308 11:37:42.061077  1599 net.cpp:96] Setting up inception_5a/relu_pool_proj
I0308 11:37:42.061084  1599 net.cpp:103] Top shape: 50 128 7 7 (313600)
I0308 11:37:42.061090  1599 net.cpp:67] Creating Layer inception_5a/output
I0308 11:37:42.061094  1599 net.cpp:394] inception_5a/output <- inception_5a/1x1
I0308 11:37:42.061100  1599 net.cpp:394] inception_5a/output <- inception_5a/3x3
I0308 11:37:42.061105  1599 net.cpp:394] inception_5a/output <- inception_5a/5x5
I0308 11:37:42.061108  1599 net.cpp:394] inception_5a/output <- inception_5a/pool_proj
I0308 11:37:42.061115  1599 net.cpp:356] inception_5a/output -> inception_5a/output
I0308 11:37:42.061120  1599 net.cpp:96] Setting up inception_5a/output
I0308 11:37:42.061125  1599 net.cpp:103] Top shape: 50 832 7 7 (2038400)
I0308 11:37:42.061133  1599 net.cpp:67] Creating Layer inception_5a/output_inception_5a/output_0_split
I0308 11:37:42.061137  1599 net.cpp:394] inception_5a/output_inception_5a/output_0_split <- inception_5a/output
I0308 11:37:42.061143  1599 net.cpp:356] inception_5a/output_inception_5a/output_0_split -> inception_5a/output_inception_5a/output_0_split_0
I0308 11:37:42.061151  1599 net.cpp:356] inception_5a/output_inception_5a/output_0_split -> inception_5a/output_inception_5a/output_0_split_1
I0308 11:37:42.061156  1599 net.cpp:356] inception_5a/output_inception_5a/output_0_split -> inception_5a/output_inception_5a/output_0_split_2
I0308 11:37:42.061166  1599 net.cpp:356] inception_5a/output_inception_5a/output_0_split -> inception_5a/output_inception_5a/output_0_split_3
I0308 11:37:42.061172  1599 net.cpp:96] Setting up inception_5a/output_inception_5a/output_0_split
I0308 11:37:42.061177  1599 net.cpp:103] Top shape: 50 832 7 7 (2038400)
I0308 11:37:42.061179  1599 net.cpp:103] Top shape: 50 832 7 7 (2038400)
I0308 11:37:42.061183  1599 net.cpp:103] Top shape: 50 832 7 7 (2038400)
I0308 11:37:42.061187  1599 net.cpp:103] Top shape: 50 832 7 7 (2038400)
I0308 11:37:42.061194  1599 net.cpp:67] Creating Layer inception_5b/1x1
I0308 11:37:42.061210  1599 net.cpp:394] inception_5b/1x1 <- inception_5a/output_inception_5a/output_0_split_0
I0308 11:37:42.061220  1599 net.cpp:356] inception_5b/1x1 -> inception_5b/1x1
I0308 11:37:42.061228  1599 net.cpp:96] Setting up inception_5b/1x1
I0308 11:37:42.063897  1599 net.cpp:103] Top shape: 50 384 7 7 (940800)
I0308 11:37:42.063921  1599 net.cpp:67] Creating Layer inception_5b/relu_1x1
I0308 11:37:42.063927  1599 net.cpp:394] inception_5b/relu_1x1 <- inception_5b/1x1
I0308 11:37:42.063935  1599 net.cpp:345] inception_5b/relu_1x1 -> inception_5b/1x1 (in-place)
I0308 11:37:42.063942  1599 net.cpp:96] Setting up inception_5b/relu_1x1
I0308 11:37:42.063949  1599 net.cpp:103] Top shape: 50 384 7 7 (940800)
I0308 11:37:42.063959  1599 net.cpp:67] Creating Layer inception_5b/3x3_reduce
I0308 11:37:42.063963  1599 net.cpp:394] inception_5b/3x3_reduce <- inception_5a/output_inception_5a/output_0_split_1
I0308 11:37:42.063969  1599 net.cpp:356] inception_5b/3x3_reduce -> inception_5b/3x3_reduce
I0308 11:37:42.063977  1599 net.cpp:96] Setting up inception_5b/3x3_reduce
I0308 11:37:42.065346  1599 net.cpp:103] Top shape: 50 192 7 7 (470400)
I0308 11:37:42.065369  1599 net.cpp:67] Creating Layer inception_5b/relu_3x3_reduce
I0308 11:37:42.065376  1599 net.cpp:394] inception_5b/relu_3x3_reduce <- inception_5b/3x3_reduce
I0308 11:37:42.065382  1599 net.cpp:345] inception_5b/relu_3x3_reduce -> inception_5b/3x3_reduce (in-place)
I0308 11:37:42.065388  1599 net.cpp:96] Setting up inception_5b/relu_3x3_reduce
I0308 11:37:42.065394  1599 net.cpp:103] Top shape: 50 192 7 7 (470400)
I0308 11:37:42.065403  1599 net.cpp:67] Creating Layer inception_5b/3x3
I0308 11:37:42.065408  1599 net.cpp:394] inception_5b/3x3 <- inception_5b/3x3_reduce
I0308 11:37:42.065414  1599 net.cpp:356] inception_5b/3x3 -> inception_5b/3x3
I0308 11:37:42.065420  1599 net.cpp:96] Setting up inception_5b/3x3
I0308 11:37:42.070551  1599 net.cpp:103] Top shape: 50 384 7 7 (940800)
I0308 11:37:42.070575  1599 net.cpp:67] Creating Layer inception_5b/relu_3x3
I0308 11:37:42.070581  1599 net.cpp:394] inception_5b/relu_3x3 <- inception_5b/3x3
I0308 11:37:42.070586  1599 net.cpp:345] inception_5b/relu_3x3 -> inception_5b/3x3 (in-place)
I0308 11:37:42.070593  1599 net.cpp:96] Setting up inception_5b/relu_3x3
I0308 11:37:42.070600  1599 net.cpp:103] Top shape: 50 384 7 7 (940800)
I0308 11:37:42.070608  1599 net.cpp:67] Creating Layer inception_5b/5x5_reduce
I0308 11:37:42.070613  1599 net.cpp:394] inception_5b/5x5_reduce <- inception_5a/output_inception_5a/output_0_split_2
I0308 11:37:42.070619  1599 net.cpp:356] inception_5b/5x5_reduce -> inception_5b/5x5_reduce
I0308 11:37:42.070626  1599 net.cpp:96] Setting up inception_5b/5x5_reduce
I0308 11:37:42.071082  1599 net.cpp:103] Top shape: 50 48 7 7 (117600)
I0308 11:37:42.071107  1599 net.cpp:67] Creating Layer inception_5b/relu_5x5_reduce
I0308 11:37:42.071115  1599 net.cpp:394] inception_5b/relu_5x5_reduce <- inception_5b/5x5_reduce
I0308 11:37:42.071120  1599 net.cpp:345] inception_5b/relu_5x5_reduce -> inception_5b/5x5_reduce (in-place)
I0308 11:37:42.071126  1599 net.cpp:96] Setting up inception_5b/relu_5x5_reduce
I0308 11:37:42.071132  1599 net.cpp:103] Top shape: 50 48 7 7 (117600)
I0308 11:37:42.071142  1599 net.cpp:67] Creating Layer inception_5b/5x5
I0308 11:37:42.071146  1599 net.cpp:394] inception_5b/5x5 <- inception_5b/5x5_reduce
I0308 11:37:42.071152  1599 net.cpp:356] inception_5b/5x5 -> inception_5b/5x5
I0308 11:37:42.071159  1599 net.cpp:96] Setting up inception_5b/5x5
I0308 11:37:42.072454  1599 net.cpp:103] Top shape: 50 128 7 7 (313600)
I0308 11:37:42.072475  1599 net.cpp:67] Creating Layer inception_5b/relu_5x5
I0308 11:37:42.072481  1599 net.cpp:394] inception_5b/relu_5x5 <- inception_5b/5x5
I0308 11:37:42.072500  1599 net.cpp:345] inception_5b/relu_5x5 -> inception_5b/5x5 (in-place)
I0308 11:37:42.072507  1599 net.cpp:96] Setting up inception_5b/relu_5x5
I0308 11:37:42.072513  1599 net.cpp:103] Top shape: 50 128 7 7 (313600)
I0308 11:37:42.072520  1599 net.cpp:67] Creating Layer inception_5b/pool
I0308 11:37:42.072546  1599 net.cpp:394] inception_5b/pool <- inception_5a/output_inception_5a/output_0_split_3
I0308 11:37:42.072554  1599 net.cpp:356] inception_5b/pool -> inception_5b/pool
I0308 11:37:42.072561  1599 net.cpp:96] Setting up inception_5b/pool
I0308 11:37:42.072569  1599 net.cpp:103] Top shape: 50 832 7 7 (2038400)
I0308 11:37:42.072579  1599 net.cpp:67] Creating Layer inception_5b/pool_proj
I0308 11:37:42.072584  1599 net.cpp:394] inception_5b/pool_proj <- inception_5b/pool
I0308 11:37:42.072590  1599 net.cpp:356] inception_5b/pool_proj -> inception_5b/pool_proj
I0308 11:37:42.072597  1599 net.cpp:96] Setting up inception_5b/pool_proj
I0308 11:37:42.073513  1599 net.cpp:103] Top shape: 50 128 7 7 (313600)
I0308 11:37:42.073535  1599 net.cpp:67] Creating Layer inception_5b/relu_pool_proj
I0308 11:37:42.073541  1599 net.cpp:394] inception_5b/relu_pool_proj <- inception_5b/pool_proj
I0308 11:37:42.073547  1599 net.cpp:345] inception_5b/relu_pool_proj -> inception_5b/pool_proj (in-place)
I0308 11:37:42.073554  1599 net.cpp:96] Setting up inception_5b/relu_pool_proj
I0308 11:37:42.073560  1599 net.cpp:103] Top shape: 50 128 7 7 (313600)
I0308 11:37:42.073568  1599 net.cpp:67] Creating Layer inception_5b/output
I0308 11:37:42.073572  1599 net.cpp:394] inception_5b/output <- inception_5b/1x1
I0308 11:37:42.073577  1599 net.cpp:394] inception_5b/output <- inception_5b/3x3
I0308 11:37:42.073585  1599 net.cpp:394] inception_5b/output <- inception_5b/5x5
I0308 11:37:42.073590  1599 net.cpp:394] inception_5b/output <- inception_5b/pool_proj
I0308 11:37:42.073595  1599 net.cpp:356] inception_5b/output -> inception_5b/output
I0308 11:37:42.073601  1599 net.cpp:96] Setting up inception_5b/output
I0308 11:37:42.073606  1599 net.cpp:103] Top shape: 50 1024 7 7 (2508800)
I0308 11:37:42.073611  1599 net.cpp:67] Creating Layer pool5/7x7_s1
I0308 11:37:42.073616  1599 net.cpp:394] pool5/7x7_s1 <- inception_5b/output
I0308 11:37:42.073621  1599 net.cpp:356] pool5/7x7_s1 -> pool5/7x7_s1
I0308 11:37:42.073627  1599 net.cpp:96] Setting up pool5/7x7_s1
I0308 11:37:42.073634  1599 net.cpp:103] Top shape: 50 1024 1 1 (51200)
I0308 11:37:42.073643  1599 net.cpp:67] Creating Layer pool5/drop_7x7_s1
I0308 11:37:42.073647  1599 net.cpp:394] pool5/drop_7x7_s1 <- pool5/7x7_s1
I0308 11:37:42.073652  1599 net.cpp:345] pool5/drop_7x7_s1 -> pool5/7x7_s1 (in-place)
I0308 11:37:42.073658  1599 net.cpp:96] Setting up pool5/drop_7x7_s1
I0308 11:37:42.073663  1599 net.cpp:103] Top shape: 50 1024 1 1 (51200)
I0308 11:37:42.073673  1599 net.cpp:67] Creating Layer loss3/classifier
I0308 11:37:42.073678  1599 net.cpp:394] loss3/classifier <- pool5/7x7_s1
I0308 11:37:42.073684  1599 net.cpp:356] loss3/classifier -> loss3/classifier
I0308 11:37:42.073690  1599 net.cpp:96] Setting up loss3/classifier
I0308 11:37:42.074705  1599 net.cpp:103] Top shape: 50 121 1 1 (6050)
I0308 11:37:42.074728  1599 net.cpp:67] Creating Layer loss3/classifier_loss3/classifier_0_split
I0308 11:37:42.074733  1599 net.cpp:394] loss3/classifier_loss3/classifier_0_split <- loss3/classifier
I0308 11:37:42.074739  1599 net.cpp:356] loss3/classifier_loss3/classifier_0_split -> loss3/classifier_loss3/classifier_0_split_0
I0308 11:37:42.074749  1599 net.cpp:356] loss3/classifier_loss3/classifier_0_split -> loss3/classifier_loss3/classifier_0_split_1
I0308 11:37:42.074756  1599 net.cpp:356] loss3/classifier_loss3/classifier_0_split -> loss3/classifier_loss3/classifier_0_split_2
I0308 11:37:42.074762  1599 net.cpp:96] Setting up loss3/classifier_loss3/classifier_0_split
I0308 11:37:42.074766  1599 net.cpp:103] Top shape: 50 121 1 1 (6050)
I0308 11:37:42.074770  1599 net.cpp:103] Top shape: 50 121 1 1 (6050)
I0308 11:37:42.074774  1599 net.cpp:103] Top shape: 50 121 1 1 (6050)
I0308 11:37:42.074780  1599 net.cpp:67] Creating Layer loss3/loss3
I0308 11:37:42.074785  1599 net.cpp:394] loss3/loss3 <- loss3/classifier_loss3/classifier_0_split_0
I0308 11:37:42.074792  1599 net.cpp:394] loss3/loss3 <- label_data_1_split_6
I0308 11:37:42.074797  1599 net.cpp:356] loss3/loss3 -> loss3/loss3
I0308 11:37:42.074815  1599 net.cpp:96] Setting up loss3/loss3
I0308 11:37:42.074836  1599 net.cpp:103] Top shape: 1 1 1 1 (1)
I0308 11:37:42.074842  1599 net.cpp:109]     with loss weight 1
I0308 11:37:42.074854  1599 net.cpp:67] Creating Layer loss3/top-1
I0308 11:37:42.074859  1599 net.cpp:394] loss3/top-1 <- loss3/classifier_loss3/classifier_0_split_1
I0308 11:37:42.074864  1599 net.cpp:394] loss3/top-1 <- label_data_1_split_7
I0308 11:37:42.074870  1599 net.cpp:356] loss3/top-1 -> loss3/top-1
I0308 11:37:42.074877  1599 net.cpp:96] Setting up loss3/top-1
I0308 11:37:42.074882  1599 net.cpp:103] Top shape: 1 1 1 1 (1)
I0308 11:37:42.074887  1599 net.cpp:67] Creating Layer loss3/top-5
I0308 11:37:42.074890  1599 net.cpp:394] loss3/top-5 <- loss3/classifier_loss3/classifier_0_split_2
I0308 11:37:42.074895  1599 net.cpp:394] loss3/top-5 <- label_data_1_split_8
I0308 11:37:42.074903  1599 net.cpp:356] loss3/top-5 -> loss3/top-5
I0308 11:37:42.074909  1599 net.cpp:96] Setting up loss3/top-5
I0308 11:37:42.074913  1599 net.cpp:103] Top shape: 1 1 1 1 (1)
I0308 11:37:42.074918  1599 net.cpp:172] loss3/top-5 does not need backward computation.
I0308 11:37:42.074921  1599 net.cpp:172] loss3/top-1 does not need backward computation.
I0308 11:37:42.074925  1599 net.cpp:170] loss3/loss3 needs backward computation.
I0308 11:37:42.074929  1599 net.cpp:170] loss3/classifier_loss3/classifier_0_split needs backward computation.
I0308 11:37:42.074934  1599 net.cpp:170] loss3/classifier needs backward computation.
…
